model/2023_3_27_hj_num_1.onnx (onnx, 135098 bytes, 26 tensors)

block_neck1.block_neck.1.weight f4 [1, 1, 3, 3]
0.07406415 0.07863912 -0.485379 0.22227643 -0.115915485 -0.25945896 -0.1151464 -0.25576523
-0.31571683
00000000: f2ae 973d 8c0d a13d 9983 f8be 6f9c 633e
00000010: 1965 edbd ced7 84be e0d1 ebbd a9f3 82be
00000020: a3a5 a1be

block_neck2.block_neck.0.weight f4 [16, 1, 1, 1]
0.2257505 -0.6228829 0.77080905 -0.49003237 0.22865178 0.14003322 -0.1408449 0.5225182
0.5024417 -0.23513637 -0.5814561 -0.19921494 0.28840226 0.94789267 -0.26803932 -0.098914176
00000000: 242b 673e 4175 1fbf be53 453f 86e5 fabe
00000010: b123 6a3e de64 0f3e a539 10be c1c3 053f
00000020: 05a0 003f 97c7 70be 4fda 14bf 00ff 4bbe
00000030: 76a9 933e 18a9 723f 733c 89be 8493 cabd

block_neck2.block_neck.1.weight f4 [16, 1, 3, 3]
0.1750604 0.42115736 0.07005917 -0.11102563 -0.20995039 -0.2577073 -0.42783 0.27037394
0.33523458 -0.2579415 0.1481841 0.29484826 0.066237964 0.1788706 -0.1406432 0.23352174
0.19947165 -0.1793688 0.348574 0.096085265 -0.16741557 0.14028491 -0.029030018 0.012868806
0.13986246 0.10040986 -0.037744958 -0.11820113 -0.25811 0.29980552 -0.28202236 0.010380298
0.25855428 0.31274033 -0.16951656 -0.27825543 -0.02172257 -0.28518993 -0.021170918 0.051932756
0.2680613 0.17498069 -0.33344728 -0.37374207 0.02978386 0.15595107 -0.14755131 -0.36732715
-0.10956194 -0.067469485 0.023472862 0.22002147 0.04916566 0.4696545 -0.37362784 0.10199569
0.05384305 0.09661695 0.1451182 -0.36482614 0.28508377 0.17010808 0.0023068378 -0.04286764
0.07107844 0.24158813 -0.35958925 0.029154534 -0.23708095 -0.12632461 -0.25061446 0.01635347
-0.11938826 0.17739166 -0.095028356 -0.29141688 0.22920258 -0.2173418 -0.025995817 0.30351686
0.46243805 0.24703881 0.3193577 0.2684481 -0.11743893 0.1340155 0.08333486 0.079125725
0.16408888 0.25372872 0.23499931 0.07605183 0.16166073 -0.20188557 0.20126408 -0.36492887
0.13231021 0.035368167 -0.030570842 0.017919278 -0.058760695 0.19747825 -0.27300248 -0.17137896
0.049452167 -0.22941136 -0.30285835 -0.08032146 -0.19301079 -0.1845685 -0.30863258 0.16404563
0.17118132 -0.017166466 0.07344903 0.073089465 -0.34614375 -0.0075174402 -0.101959415 0.16777931
0.18442403 -0.3247866 -0.27516395 0.35046604 0.08798253 -0.05710225 -0.14060402 0.049727347
0.028508523 0.34752294 0.17746642 0.0053792936 -0.29359597 -0.25726 0.19476065 0.0736354
-0.055353448 -0.2094863 0.04569221 -0.23289022 -0.060786065 0.19855429 0.09588804 0.2786254
00000000: 0943 333e f0a1 d73e 2f7b 8f3d 6861 e3bd
00000010: 3cfd 56be 36f2 83be 890c dbbe 746e 8a3e
00000020: dea3 ab3e e910 84be 93bd 173e 5af6 963e
00000030: c5a7 873d db29 373e c504 10be 5320 6f3e
00000040: 4c42 4c3e 74ac 37be 4b78 b23e 5ac8 c43d
00000050: fd6e 2bbe d9a6 0f3e 5cd0 edbc afd7 523c
00000060: 1b38 0f3e afa3 cd3d 759a 1abd 6f13 f2bd
00000070: fe26 84be 1c80 993e 3c65 90be 2012 2a3c
00000080: 3a61 843e 801f a03e c095 2dbe 7f77 8ebe
00000090: 88f3 b1bc 6a04 92be a26e adbc 71b7 543d
000000a0: 553f 893e 232e 333e 9ab9 aabe 1f5b bfbe
000000b0: 48fd f33c a3b1 1f3e b117 17be 4e12 bcbe
000000c0: 0362 e0bd 712d 8abd 294a c03c 4f4d 613e
000000d0: ee61 493d 8e76 f03e 264c bfbe 1ee3 d03d
000000e0: 888a 5c3d 1cdf c53d de99 143e 7eca babe
000000f0: 80f6 913e d030 2e3e 512e 173b fa95 2fbd
00000100: 9391 913d e162 773e 151c b8be 7dd5 ee3c
00000110: 59c5 72be 3d5b 01be 8a50 80be b6f7 853c
00000120: d581 f4bd 29a6 353e 3a9e c2bd 9834 95be
00000130: 15b4 6a3e d98e 5ebe 2ef5 d4bc 9066 9b3e
00000140: aec4 ec3e bef7 7c3e da82 a33e 0872 893e
00000150: d283 f0bd 5c3b 093e 78ab aa3d ab0c a23d
00000160: ea06 283e bbe8 813e a9a3 703e 10c1 9b3d
00000170: 648a 253e 17bb 4ebe 2c18 4e3e f5d7 babe
00000180: 547c 073e 36de 103d b46f fabc 73cb 923c
00000190: 0eaf 70bd bd37 4a3e fbc6 8bbe f77d 2fbe
000001a0: 5b8e 4a3d d0ea 6abe 4010 9bbe 947f a4bd
000001b0: 9fa4 45be 86ff 3cbe 1705 9ebe 94fb 273e
000001c0: 284a 2f3e b0a0 8cbc 726c 963d eeaf 953d
000001d0: c139 b1be dc54 f6bb 19d0 d0bd 57ce 2b3e
000001e0: a7d9 3c3e 6e4a a6be 4ae2 8cbe 4970 b33e
000001f0: 2f30 b43d 0de4 69bd 80fa 0fbe e7ae 4b3d
00000200: b58a e93c 87ee b13e c2b9 353e c944 b03b
00000210: 3652 96be 95b7 83be 566f 473e 28ce 963d
00000220: 4cba 62bd 9483 56be c127 3b3d c67a 6ebe
00000230: cffa 78bd d151 4b3e f360 c43d fda7 8e3e

block_neck3.block_neck.0.weight f4 [32, 1, 1, 1]
-0.5065688 0.26819396 -0.736158 -0.43005046 0.48323295 0.40475005 0.6545485 -0.45361745
-0.39074403 -0.82588017 -0.35197097 0.3762108 -0.8884538 0.58507067 -0.8822456 -0.9179308
-0.72565585 -0.8312965 0.47268283 -0.53776103 -0.2904777 0.62190825 0.48080108 0.14920668
0.5338089 -0.95841515 -0.6341059 -0.4706456 -0.5379188 0.26371887 0.49192008 -0.7586445
00000000: 7eae 01bf b850 893e da74 3cbf 932f dcbe
00000010: 4f6a f73e 663b cf3e 7e90 273f 8c40 e8be
00000020: 9a0f c8be e26c 53bf 8a35 b4be b49e c03e
00000030: b571 63bf 31c7 153f d9da 61bf 83fd 6abf
00000040: 95c4 39bf d9cf 54bf 7c03 f23e b5aa 09bf
00000050: 7eb9 94be 6135 1f3f 8f2b f63e a3c9 183e
00000060: b3a7 083f b25a 75bf c454 22bf 76f8 f0be
00000070: 0cb5 09bf 2906 873e f3dc fb3e 8736 42bf

block_neck3.block_neck.1.weight f4 [32, 1, 3, 3]
-0.40565977 -0.3550276 0.18480478 0.29586622 -0.09725628 -0.041461382 0.24316292 -0.10479409
0.08695029 -0.19958475 -0.056256965 0.014522978 0.03932689 0.12509611 -0.4141459 -0.10444131
0.3221709 0.096395016 -0.042428497 0.24435483 -0.14969656 -0.16506766 0.11913352 0.2551054
-0.2468867 -0.26570922 0.1594434 0.2882282 -0.20215538 0.105463035 -0.19327268 -0.103307046
0.101969 -0.36424178 -0.020532671 -0.25855538 0.008951965 0.045052357 -0.32281694 -0.38871148
0.14042899 0.031418156 0.0039949613 0.19392309 0.045913592 -0.25375152 -0.019179516 0.062182803
0.097677745 -0.16859412 0.12430178 0.29028428 -0.32772383 0.010088473 -0.3292875 0.21928486
0.056442145 0.25309497 -0.03489837 0.23385106 0.04123901 0.23194562 -0.048668995 0.4297441
-0.13499528 -0.34713012 0.3667524 -0.052167352 -0.26181716 -0.20914078 -0.07449864 0.2689109
0.016198464 0.09656537 0.32548967 0.24240115 -0.08321974 -0.09217053 0.15898281 -0.14414412
-0.34635052 0.37037128 -0.25676352 -0.31487218 0.15850778 -0.2497668 -0.21274495 -0.31933397
0.047786105 0.20177369 0.267955 0.14648744 -0.1630807 0.1612973 0.18652384 -0.26412538
-0.13343795 0.33597502 0.2340276 0.33770806 -0.0055748895 0.05832523 0.35117325 -0.14805996
-0.11688574 -0.3039357 -0.18319783 0.31736785 0.27833936 0.2890021 -0.19330479 0.31406
-0.13508114 0.07436924 -0.12813976 -0.32108518 0.04223135 -0.07064805 0.27908665 0.19452173
0.21883008 -0.17904146 -0.35857618 -0.15731308 0.23208998 -0.29186013 -0.057714794 -0.099344976
0.08604853 -0.32424927 -0.23418304 -0.014739773 0.16752973 -0.07046749 -0.27066237 0.20209144
-0.23523648 0.2568354 0.11288406 -0.2438282 -0.07388411 -0.023491675 -0.12239005 0.0050419956
0.2921409 0.22078715 -0.17512801 -0.3682137 0.02921015 -0.061659317 0.013549225 -0.41585734
-0.12615368 -0.1829133 -0.20080754 -0.18143436 0.13351667 0.12238602 0.085858636 -0.26886684
-0.18082644 -0.24318731 -0.20825748 -0.042121623 -0.253556 -0.17141975 0.17737754 0.16970183
-0.18236369 -0.28660655 0.061304156 -0.008102079 -0.3321531 -0.2841241 -0.14329019 -0.031033993
-0.13085683 0.26174918 0.026694046 -0.063417144 0.10112721 0.238808 -0.052229144 0.2543886
-0.15597938 -0.16541551 -0.49784747 0.19360624 -0.10474216 -0.05867295 0.09261094 0.1276626
-0.3182692 0.08050689 0.100786895 -0.0750958 0.214896 -0.122881025 0.24837913 -0.18104374
0.070924714 0.00737193 0.047656555 0.23934363 -0.011057276 -0.36568564 -0.055526227 -0.08428043
0.21834743 0.2778725 0.28342468 -0.36793104 -0.17977576 -0.28604695 0.25127545 0.21505615
-0.1819714 -0.18209106 -0.079154626 -0.107181564 -0.065149084 0.10689269 0.17623684 0.2081029
0.27852505 -0.29082593 -0.018754514 0.17184834 -0.31505325 0.036003053 0.1671205 0.08255422
-0.11552949 0.08217377 -0.0050835228 -0.24060062 -0.00793701 -0.019343745 0.022049112 0.25560665
0.09650199 0.05007243 0.2627923 0.11228895 -0.3157219 -0.31816402 0.12680806 0.20154423
-0.43071973 -0.15563932 0.23958363 0.19024582 -0.03021391 0.030402448 0.09838223 -0.14914943
00000000: a3b2 cfbe 2dc6 b5be 773d 3d3e c77b 973e
00000010: 4d2e c7bd 69d3 29bd b3ff 783e 499e d6bd
00000020: fe12 b23d f25f 4cbe b46d 66bd c9f1 6d3c
00000030: 3c15 213d 3219 003e ee0a d4be 53e5 d5bd
00000040: 96f3 a43e c06a c53d 81c9 2dbd 2738 7a3e
00000050: 0e4a 19be 7f07 29be 46fc f33d 2d9d 823e
00000060: decf 7cbe 0a0b 88be 2145 233e a692 933e
00000070: d201 4fbe 01fd d73d 46e9 45be a592 d3bd
00000080: 20d5 d03d e67d babe 2234 a8bc 5f61 84be
00000090: 43ab 123c d288 383d 4348 a5be 3105 c7be
000000a0: 9ecc 0f3e 53b0 003d 2ae8 823b c693 463e
000000b0: e40f 3c3d b8eb 81be 5c1e 9dbc 65b3 7e3d
000000c0: 450b c83d f0a3 2cbe ee91 fe3d 24a0 943e
000000d0: 6bcb a7be 1f4a 253c 5f98 a8be 368c 603e
000000e0: e12f 673d aa95 813e 98f1 0ebd a776 6f3e
000000f0: 3cea 283d 2783 6d3e 2459 47bd 6b07 dc3e
00000100: 343c 0abe 0abb b1be f8c6 bb3e 6fad 55bd
00000110: e60c 86be 0029 56be be92 98bd b1ae 893e
00000120: a4b2 843c 11c4 c53d 95a6 a63e 0238 783e
00000130: 1c6f aabd e7c3 bcbd 64cc 223e 849a 13be
00000140: db54 b1be 4ea1 bd3e 8276 83be ed36 a1be
00000150: dd4f 223e dec2 7fbe d0d9 59be be7f a3be
00000160: 5dbb 433d c39d 4e3e 6631 893e ce00 163e
00000170: a1fe 26be 1f2b 253e 1b00 3f3e 713b 87be
00000180: f5a3 08be eb04 ac3e eea4 6f3e 12e8 ac3e
00000190: 90ad b6bb 70e6 6e3d fbcc b33e 089d 17be
000001a0: ca61 efbd 769d 9bbe 3698 3bbe 0a7e a23e
000001b0: 7f82 8e3e 15f8 933e b1f1 45be 79cc a03e
000001c0: b652 0abe e64e 983d 1237 03be 4765 a4be
000001d0: c8fa 2c3d edaf 90bd 72e4 8e3e b430 473e
000001e0: fe14 603e a556 37be 4c97 b7be ae16 21be
000001f0: ffa8 6d3e b16e 95be 5966 6cbd 6175 cbbd
00000200: 363a b03d 0004 a6be aecd 6fbe 177f 71bc
00000210: ea8c 2b3e 4251 90bd 4294 8abe 0ff1 4e3e
00000220: d5e1 70be ee7f 833e c22f e73d 1aae 79be
00000230: 8d50 97bd 9d71 c0bc a2a7 fabd 5337 a53b
00000240: 7e93 953e 0716 623e c254 33be 8286 bcbe
00000250: 204a ef3c 7b8e 7cbd 92fd 5d3c 41eb d4be
00000260: 6e2e 01be a04d 3bbe 7ea0 4dbe eec9 39be
00000270: 98b8 083e 86a5 fa3d a7d6 af3d eaa8 89be
00000280: 912a 39be 1806 79be 7341 55be b987 2cbd
00000290: 18d2 81be a988 2fbe 75a2 353e 51c6 2d3e
000002a0: 8cbd 3abe 18be 92be 111a 7b3d 95be 04bc
000002b0: f90f aabe b778 91be aaba 12be 003b febc
000002c0: 55ff 05be fd03 863e 79ad da3c d9e0 81bd
000002d0: c81b cf3d 168a 743e 3aee 55bd 393f 823e
000002e0: 0fb9 1fbe af62 29be dde5 febe b740 463e
000002f0: 0f83 d6bd 0c53 70bd ceaa bd3d fcb9 023e
00000300: 2ef4 a2be cce0 a43d 5c69 ce3d d4cb 99bd
00000310: b20d 5c3e 0ca9 fbbd 1957 7e3e 8863 39be
00000320: fa40 913d 3b90 f13b 8533 433d 7f16 753e
00000330: 9429 35bc 263b bbbe 786f 63bd 389b acbd
00000340: 7896 5f3e 4e45 8e3e 0a1d 913e 7561 bcbe
00000350: 2317 38be bf74 92be 2da7 803e ae37 5c3e
00000360: b656 3abe 1476 3abe d21b a2bd 0282 dbbd
00000370: e26c 85bd 8eea da3d 6e77 343e ed18 553e
00000380: d69a 8e3e 23e7 94be 11a3 99bc 03f9 2f3e
00000390: a94e a1be f077 133d a321 2b3e 3012 a93d
000003a0: ba9a ecbd b94a a83d ae93 a6bb 0260 76be
000003b0: 3c0a 02bc c676 9ebc 57a0 b43c e0de 823e
000003c0: d6a2 c53d c018 4d3d b68c 863e c0f7 e53d
000003d0: 4da6 a1be 65e6 a2be f9d9 013e 9c61 4e3e
000003e0: 4c87 dcbe ea5f 1fbe 6955 753e cdcf 423e
000003f0: 2983 f7bc 8e0e f93c 9f7c c93d a1ba 18be

onnx::Conv_121 f4 [16, 1, 1, 1]
4.0274615 5.0181146 5.0787535 -4.450131 -5.1582203 -4.6606417 5.048562 4.108824
-4.9619007 -4.6401997 -4.460288 -3.5526485 -4.5023365 4.4599237 -5.0120015 4.4595156
00000000: f7e0 8040 6594 a040 2685 a240 7967 8ec0
00000010: 2410 a5c0 fa23 95c0 d28d a140 7c7b 8340
00000020: e4c7 9ec0 847c 94c0 aeba 8ec0 985e 63c0
00000030: 2413 90c0 b2b7 8e40 5162 a0c0 5ab4 8e40

onnx::Conv_122 f4 [16]
-0.62314427 -1.0073836 -1.0720409 1.0200192 1.0859497 1.0004188 -1.0628124 -0.9219944
1.2217367 1.0065429 0.92453295 0.7440449 0.9181349 -0.69219804 1.1641504 -1.1997132
00000000: 6286 1fbf f2f1 80bf a338 89bf fd8f 823f
00000010: 6600 8b3f b90d 803f 3d0a 88bf d307 6cbf
00000020: de61 9c3f 66d6 803f 31ae 6c3f ba79 3e3f
00000030: e40a 6b3f e433 31bf e102 953f 3490 99bf

onnx::Conv_124 f4 [16, 1, 1, 1]
2.878559 2.4439862 2.0829957 -2.2002618 -2.2868469 -2.40299 2.3267663 2.6891975
-2.2156615 -1.9588895 2.5623896 -3.0402443 2.7310328 2.5158129 -2.4082756 2.3219862
00000000: 503a 3840 456a 1c40 cd4f 0540 17d1 0cc0
00000010: b35b 12c0 97ca 19c0 bde9 1440 d01b 2c40
00000020: 66cd 0dc0 e4bc fabf 31fe 2340 5d93 42c0
00000030: 3ec9 2e40 1403 2140 3021 1ac0 6c9b 1440

onnx::Conv_125 f4 [16]
-0.99159825 -0.9427907 -0.6547936 0.8800732 0.7241465 0.84553605 -0.93489456 -1.0566388
1.0248971 0.59062326 -0.93835646 1.0931616 -0.8240968 -0.7936907 0.7706508 -0.97101396
00000000: 62d9 7dbf bb5a 71bf 8ea0 27bf 7a4c 613f
00000010: aa61 393f 0d75 583f 4055 6fbf f13f 87bf
00000020: d42f 833f 1633 173f 2138 70bf b8ec 8b3f
00000030: 02f8 52bf 502f 4bbf 5f49 453f 5f94 78bf

onnx::Conv_127 f4 [32, 16, 1, 1]
-0.3327127 1.3289696 0.3816139 -0.07228537 -1.5826228 -1.2304939 0.77845764 0.7257525
0.43303013 -1.0255681 0.14749274 0.117993705 0.0022711884 -0.18517436 -0.19260116 -0.47821504
1.2347242 1.2190796 -0.65904313 -2.1400447 0.7167735 -1.0848017 0.5192948 0.44419482
0.27855992 -0.8328013 -0.9385596 -1.5756247 0.97048056 0.47869712 0.84099233 -0.067383155
-0.0074052094 -0.15836658 -0.2013433 -0.4538002 1.0306814 -0.29397887 -0.6425449 0.5071352
-2.6047137 -0.076107875 0.89071614 -0.12319125 -1.1055245 -0.201263 0.15203112 0.14619239
1.1400914 1.3916712 -0.4058862 0.797853 1.2723463 -0.43592766 0.75398755 -1.0209315
-1.6807927 1.278126 0.16560921 -0.08285059 1.5936381 -0.51129884 0.27234071 0.17146224
-0.30590126 1.0996493 -0.6444026 0.61749226 0.93448156 -0.5407195 -1.1510651 0.5562379
-0.63959557 -0.11143972 0.18949635 -0.66474336 0.6957928 0.64562774 0.075271405 -0.9624575
0.1777116 -0.072636396 0.856247 -0.43107063 0.61565953 -0.9773602 -0.8310887 -0.6777851
-0.15803356 0.56035733 0.10646203 0.6474377 -0.3292139 -1.1463039 -0.5677992 1.081462
0.17826927 -0.6557011 -0.99767816 -0.14983588 0.37368658 0.61331874 -0.19739957 0.17551403
0.45734861 -0.8195008 1.0671445 -0.32131255 0.9124275 -0.9242146 -0.2651188 0.039319586
-0.17756198 0.7962268 -0.3945394 1.3922234 -0.3416714 -0.36057338 0.79126203 0.52874583
0.9276713 -1.0876906 -0.5880101 0.2799172 0.19166833 0.5493757 -0.8807861 0.15758476
1.9994713 -0.3128259 -0.4628944 -1.2651621 -1.9582368 0.17594127 0.99058425 -0.6323046
-0.05551884 0.84143406 0.4521498 1.534333 -1.5941811 -0.77785087 1.5039424 1.4644665
1.2878087 0.5668981 -1.0082101 -1.2716851 0.9625659 -0.8585829 0.45148095 0.28895164
0.49318257 0.5782316 -0.6737268 0.8769975 -0.5366927 -0.51188403 1.0100256 -1.2118903
0.54913515 0.08688443 1.0198561 -0.12907118 -0.3319474 -0.6263179 -0.37874407 -0.6790009
0.2618434 -0.85865533 -0.02759039 0.509165 0.8272837 0.9576542 -0.02932269 -0.09311078
2.2447848 -0.07406114 0.93185437 -2.0151727 -0.5201647 -0.4851611 -0.938447 -0.34932807
-0.7734065 -1.2702955 -0.5385593 0.99828637 -0.21337944 -0.7887961 0.26662406 -0.49924946
-1.140722 0.8134345 0.525371 -0.8941754 0.68413764 -0.3743075 1.1873753 -0.3443401
1.564381 0.3994724 0.763425 -0.69498545 0.047333788 -1.4490495 2.706322 -0.39628524
1.1927321 1.037562 0.33127064 -1.3647829 0.34507915 -1.2489388 -0.4667824 -0.32573503
0.5228871 1.5025554 -1.7200706 -0.13988942 0.570411 1.3155007 0.62362015 -0.23990968
-1.2789907 -1.048079 -0.9433613 1.8173528 0.74277174 -0.6782936 -1.0092949 0.21044582
0.32479498 -0.45582926 0.12009021 -1.6254936 0.99447215 0.43420976 -0.38879436 1.3482467
0.5492501 0.8496733 -1.2051319 0.45371562 -1.1998941 -0.3130058 -0.17802201 -0.30725345
-0.3749249 0.24645591 -0.15389434 0.3965213 -0.21125428 -0.26150057 1.2514907 0.08544191
00000000: 5259 aabe ad1b aa3f e662 c33e 5a0a 94bd
00000010: 6293 cabf d380 9dbf 0049 473f eaca 393f
00000020: 20b6 dd3e d145 83bf 5608 173e afa6 f13d
00000030: 38d8 143b 599e 3dbe 3d39 45be 9ad8 f4be
00000040: 710b 9e3f cd0a 9c3f 0db7 28bf 7ef6 08c0
00000050: 787e 373f c8da 8abf 81f0 043f 816d e33e
00000060: 689f 8e3e 7732 55bf 7145 70bf 12ae c9bf
00000070: 6a71 783f ca17 f53e 464b 573f 2e00 8abd
00000080: 66a7 f2bb d92a 22be f02c 4ebe 8058 e8be
00000090: 5eed 833f 6684 96be d37d 24bf 9dd3 013f
000000a0: a1b3 26c0 72de 9bbd f905 643f b24b fcbd
000000b0: d481 8dbf e317 4ebe 0cae 1b3e 75b3 153e
000000c0: 84ee 913f 4822 b23f 51d0 cfbe 1840 4c3f
000000d0: 3edc a23f e931 dfbe 5405 413f e2ad 82bf
000000e0: 3724 d7bf a299 a33f 7695 293e 92ad a9bd
000000f0: 55fc cb3f 7be4 02bf 3e70 8b3e cc93 2f3e
00000100: 179f 9cbe 4fc1 8c3f 92f7 24bf f913 1e3f
00000110: 2f3a 6f3f 986c 0abf 1a56 93bf 9b65 0e3f
00000120: 89bc 23bf 823a e4bd 550b 423e 9f2c 2abf
00000130: 7a1f 323f dc47 253f e527 9a3d 9d63 76bf
00000140: 08fa 353e 64c2 94bd 0133 5b3f 4ab5 dcbe
00000150: dd9b 1d3f 4734 7abf 3bc2 54bf 5383 2dbf
00000160: 8dd3 21be 9473 0f3f c408 da3d 7abe 253f
00000170: b98e a8be 16ba 92bf 4a5b 11bf 596d 8a3f
00000180: 388c 363e 07dc 27bf d667 7fbf 946e 19be
00000190: d953 bf3e 7502 1d3f 1d23 4abe f3b9 333e
000001a0: 9929 ea3e ceca 51bf 3198 883f 1483 a4be
000001b0: d994 693f 5499 6cbf a7bd 87be 930d 213d
000001c0: cfd2 35be 85d5 4b3f 1101 cabe 6034 b23f
000001d0: 8eef aebe 139d b8be 2690 4a3f e35b 073f
000001e0: de7b 6d3f 7239 8bbf d487 16bf 4f51 8f3e
000001f0: b444 443e e3a3 0c3f 337b 61bf e65d 213e
00000200: adee ff3f b72a a0be 7f00 edbe d5f0 a1bf
00000210: 81a7 fabf f329 343e ee96 7d3f b7de 21bf
00000220: b967 63bd 3968 573f 2e80 e73e 0665 c43f
00000230: 200e ccbf 3c21 47bf 2f81 c03f a373 bb3f
00000240: ead6 a43f 3c20 113f 070d 81bf 94c6 a2bf
00000250: b86a 763f 17cc 5bbf 8328 e73e 78f1 933e
00000260: 6d82 fc3e fc06 143f 5c79 2cbf e882 603f
00000270: b164 09bf d50a 03bf 8548 813f 391f 9bbf
00000280: 1f94 0c3f 77f0 b13d a58a 823f 3c2b 04be
00000290: 02f5 a9be 5f56 20bf beea c1be 01d3 2dbf
000002a0: 5710 863e d6d0 5bbf 3e05 e2bc a358 023f
000002b0: ddc8 533f d328 753f 2336 f0bc ddb0 bebd
000002c0: 8eaa 0f40 5ead 97bd 028e 6e3f 97f8 00c0
000002d0: 8429 05bf 0967 f8be 103e 70bf 21db b2be
000002e0: f8fd 45bf 0b99 a2bf 06df 09bf b28f 7f3f
000002f0: 2480 5abe 8bee 49bf f382 883e a09d ffbe
00000300: 2e03 92bf 3e3d 503f b77e 063f aee8 64bf
00000310: a523 2f3f 3ca5 bfbe eafb 973f 584d b0be
00000320: a33d c83f a587 cc3e d26f 433f 91ea 31bf
00000330: 13e1 413d 747a b9bf 6134 2d40 e6e5 cabe
00000340: 72ab 983f d5ce 843f 4e9c a93e 35b1 aebf
00000350: 37ae b03e 3add 9fbf 1afe eebe bec6 a6be
00000360: eedb 053f bc53 c03f 462b dcbf 2c3f 0fbe
00000370: 7506 123f 5462 a83f 92a5 1f3f e2aa 75be
00000380: f8b5 a3bf 7427 86bf 2080 71bf 049f e83f
00000390: 4a26 3e3f a6a4 2dbf 9330 81bf 1c7f 573e
000003a0: 874b a63e 7462 e9be dbf1 f53d 2d10 d0bf
000003b0: ba95 7e3f be50 de3e 0e10 c7be 5993 ac3f
000003c0: a89b 0c3f 3084 593f c341 9abf 6a4d e83e
000003d0: 2196 99bf 4c42 a0be 674b 36be 5350 9dbe
000003e0: 28f6 bfbe f05e 7c3e 7a96 1dbe d704 cb3e
000003f0: 0b53 58be 67e3 85be d930 a03f 2bfc ae3d

onnx::Conv_128 f4 [32]
0.11569105 1.4515926 1.2540625 1.5741903 1.4956981 -0.5990821 0.50979584 -0.1261815
-0.5852113 0.9105587 -0.89278847 -1.2901642 0.16455503 0.5388674 0.53983635 0.9032125
1.7065964 -0.47482476 -0.2561221 -1.054647 0.0068654865 1.1382459 -0.67745435 0.33386064
0.76872784 0.3471037 -0.12939358 -0.99591535 0.62059736 1.1662257 -1.3075403 0.43641266
00000000: 6eef ec3d c9cd b93f 1f85 a03f 117f c93f
00000010: 0973 bf3f 725d 19bf fb81 023f b935 01be
00000020: 68d0 15bf 601a 693f c98d 64bf 1a24 a5bf
00000030: 1d81 283e 37f3 093f b732 0a3f ef38 673f
00000040: c071 da3f 3b1c f3be 7022 83be acfe 86bf
00000050: e0f7 e03b 0bb2 913f a66d 2dbf c8ef aa3e
00000060: 59cb 443f 93b7 b13e c07f 04be 4ff4 7ebf
00000070: 78df 1e3f e246 953f 7b5d a7bf 7b71 df3e

onnx::Conv_130 f4 [32, 16, 1, 1]
0.1399672 -0.120472945 0.035433 0.24519031 0.04918388 0.13975157 -0.0977951 -0.08299413
0.054403927 0.20135188 0.07888886 0.10551246 0.10290379 -0.046081617 0.16664577 -0.120386735
-0.20098111 -0.21784788 0.19495921 -0.05032786 0.053208318 0.28249505 -0.09911096 -0.022423942
0.20492862 -0.055529673 0.32111356 -0.120105706 0.06110489 -0.15935323 -0.156739 -0.14472346
0.09871348 -0.004237846 0.17089052 -0.045523744 -0.2766706 -0.23602211 -0.03857801 -0.110077985
-0.28466105 -0.22055 0.014202054 0.023118727 0.09086937 0.04938666 -0.024678988 -0.143121
0.19243623 -0.053453404 -0.0020868978 -0.18122807 0.13510823 -0.15804864 -0.22298808 -0.033896673
-0.40812668 0.40222332 -0.11308637 -0.1329387 -0.4152904 -0.45500696 0.03070963 -0.12097217
0.18702982 0.21351178 0.06719131 0.008316071 0.089755915 0.013282905 0.024182213 0.25310555
0.09809678 -0.018004406 0.11264358 -0.05202135 -0.017954122 -0.002973601 -0.073272675 0.0297346
0.43416333 -0.47455344 -0.000836176 -0.17195684 -0.06739293 -0.68699706 -0.3700524 -0.5938786
-0.059089802 -0.23649085 -0.29815242 0.0009771213 -0.97913194 0.4696034 -0.6276787 -0.16559155
0.10765751 0.2666144 -0.4180797 0.26409915 -0.14578849 -0.3706058 -0.114053644 -0.11503506
0.27721447 -0.49607068 0.29570702 -0.083952524 0.8046857 0.173414 -0.4036133 0.014793497
-0.2419297 -0.07051137 -0.27567786 -0.068497874 0.23224416 0.073385864 0.037069187 0.20552531
0.07176161 0.078782044 0.23650901 0.1572717 -0.16159035 -0.19565752 -0.045758884 0.12578736
0.2693516 -0.17956209 -0.19802007 -0.29470927 0.20883708 -0.022351203 0.026517672 0.24198046
-0.2934063 -0.089600876 0.5366753 -0.14777134 0.3499394 -0.088195525 -0.14442132 0.08229066
-0.11005293 -0.4647005 -0.15844117 0.07040877 0.056152925 -0.19591804 0.044032972 0.2030206
-0.39210835 0.011949697 -0.27583978 0.4179263 -0.30391568 -0.1951833 0.35358304 0.36656603
0.12411031 -0.14680482 -0.04566515 0.12164524 -0.005865524 -0.12898345 -0.09220452 0.014226622
0.07489438 -0.12556303 -0.21621796 0.00936612 -0.07062998 -0.12790023 -0.0051910304 -0.23188415
-0.27181643 -0.0839218 0.24997735 0.0625827 0.09445914 -0.2845885 0.23787442 0.054316904
-0.27151856 -0.12530184 -0.15454979 -0.32148433 0.038094774 -0.040957008 0.024252037 0.24339658
-0.10928851 -0.23488747 0.007222559 -0.17348576 -0.15538718 -0.15237312 -0.16835876 -0.010623468
0.15117657 -0.25700822 -0.18344004 0.23698784 -0.10778421 0.047444735 0.21262473 -0.026984671
0.2888641 0.30899167 0.07179378 -0.037413683 -0.09826897 0.05616789 0.20516416 -0.17064254
0.3216824 -0.093417585 -0.1675584 -0.15536267 -0.028800264 -0.0072677583 0.039096832 -0.09099199
-0.09033367 0.16178484 0.14613195 0.08143907 -0.4372608 0.010012763 -0.28230152 0.019592455
0.06518177 -0.24291712 0.08896446 -0.32690722 -0.04189433 0.2221842 -0.17686145 -0.10265478
-0.07416328 -0.11032513 -0.059465088 0.041928865 -0.15282741 0.023028573 -0.100481294 -0.06024995
0.020381648 0.012439755 -0.20694862 0.044892307 -0.15277581 -0.0815834 0.048748244 -0.031547986
00000000: 9053 0f3e 85ba f6bd 3222 113d 2b13 7b3e
00000010: 0975 493d 091b 0f3e cc48 c8bd d4f8 a9bd
00000020: a7d6 5e3d 302f 4e3e 7c90 a13d eb16 d83d
00000030: 39bf d23d 14c0 3cbd 30a5 2a3e 528d f6bd
00000040: fecd 4dbe 8413 5fbe 63a3 473e 9624 4ebd
00000050: f7f0 593d 31a3 903e b0fa cabd 6ab2 b7bc
00000060: cfd8 513e 1573 63bd ff68 a43e fbf9 f5bd
00000070: 1f49 7a3d 7e2d 23be 3080 20be 6332 14be
00000080: 4b2a ca3d a1dd 8abb edfd 2e3e 1b77 3abd
00000090: c5a7 8dbe c8af 71be fa03 1ebd 9170 e1bd
000000a0: 18bf 91be dcd7 61be bbaf 683c 7c63 bd3c
000000b0: b819 ba3d ab49 4a3d 972b cabc 508e 12be
000000c0: 010e 453e f5f1 5abd 56c4 08bb da93 39be
000000d0: d059 0a3e 81d7 21be fd56 64be 3dd7 0abd
000000e0: fbf5 d0be 37f0 cd3e d499 e7bd 1521 08be
000000f0: f1a0 d4be acf6 e8be c392 fb3c 42c0 f7bd
00000100: bf84 3f3e d5a2 5a3e 999b 893d 2140 083c
00000110: f3d1 b73d 8ba0 593c c719 c63c 0d97 813e
00000120: f7e6 c83d fa7d 93bc adb1 e63d 5714 55bd
00000130: 8614 93bc bfe0 42bb fc0f 96bd fa95 f33c
00000140: a84a de3e abf8 f2be d232 5bba 7415 30be
00000150: 4e05 8abd 0adf 2fbf 8277 bdbe 6e08 18bf
00000160: 2608 72bd a82a 72be 6fa7 98be c012 803a
00000170: 64a8 7abf db6f f03e 8daf 20bf d590 29be
00000180: 8a7b dc3d af81 883e 8b0e d6be 0138 873e
00000190: 9449 15be 0bc0 bdbe f594 e9bd 8097 ebbd
000001a0: 0eef 8d3e fafc fdbe e966 973e 4def abbd
000001b0: e2ff 4d3f 7193 313e 67a6 cebe 6c60 723c
000001c0: 6bbc 77be 4468 90bd a625 8dbe 9d48 8cbd
000001d0: 6ad1 6d3e 544b 963d dcd5 173d 3a75 523e
000001e0: c0f7 923d 7b58 a13d 6b2f 723e d50b 213e
000001f0: f177 25be 725a 48be ab6d 3bbd 67ce 003e
00000200: 74e8 893e 20df 37be c6c5 4abe 22e4 96be
00000210: 63d9 553e df19 b7bc 973b d93c bac9 773e
00000220: 5a39 96be aa80 b7bd 8d63 093f 5f51 17be
00000230: 422b b33e db9f b4bd 2fe3 13be 0188 a83d
00000240: 6e63 e1bd 39ed edbe 673e 22be 7932 903d
00000250: 9c00 663d bd9e 48be eb5b 343d a2e4 4f3e
00000260: 6dc2 c8be a9c8 433c df3a 8dbe 70fa d53e
00000270: d69a 9bbe 22de 47be d608 b53e 8bae bb3e
00000280: 8c2d fe3d 0154 16be 610b 3bbd 2421 f93d
00000290: 9533 c0bb 3d14 04be b9d5 bcbd c716 693c
000002a0: 3a62 993d 9893 00be 3e68 5dbe 5b74 193c
000002b0: 73a6 90bd 47f8 02be 8519 aabb 0a73 6dbe
000002c0: 862b 8bbe 31df abbd 10fa 7f3e 5c2b 803d
000002d0: cb73 c13d 95b5 91be 5a95 733e 677b 5e3d
000002e0: 7b04 8bbe 204f 00be 4d42 1ebe 9899 a4be
000002f0: 4409 1c3d 89c2 27bd 35ac c63c f43c 793e
00000300: a8d2 dfbd 5786 70be 37ab ec3b 40a6 31be
00000310: d11d 1fbe b307 1cbe 3d66 2cbe 0e0e 2ebc
00000320: 08ce 1a3e 9596 83be b5d7 3bbe f1ac 723e
00000330: f8bd dcbd 6955 423d 4cba 593e f50e ddbc
00000340: ffe5 933e 2834 9e3e 9e08 933d 173f 19bd
00000350: 3e41 c9bd 4d10 663d 8e16 523e ebbc 2ebe
00000360: 8eb3 a43e b851 bfbd 6e94 2bbe 6417 1fbe
00000370: 88ee ebbc 6026 eebb 0024 203d 025a babd
00000380: dc00 b9bd edaa 253e 9da3 153e 87c9 a63d
00000390: a6e0 dfbe 920c 243c d389 90be 5b80 a03c
000003a0: 057e 853d 44bf 78be 0033 b63d 6260 a7be
000003b0: 6499 2bbd 4184 633e 2b1b 35be ab3c d2bd
000003c0: ebe2 97bd 24f2 e1bd aa91 73bd 9abd 2b3d
000003d0: ca7e 1cbe 6ba6 bc3c 23c9 cdbd a7c8 76bd
000003e0: 6af7 a63c 1dd0 4b3c 57ea 53be ffe0 373d
000003f0: 4371 1cbe 3315 a7bd 3dac 473d 7638 01bd

onnx::Conv_131 f4 [32]
-0.9332698 0.19636124 1.288071 2.156122 -1.3186703 4.4570007 -0.5915941 -0.12290776
-0.13865434 1.0205152 0.94071025 0.88214475 0.9985355 -0.7535771 1.0777948 1.1097089
0.37552914 0.07578387 0.9183653 -1.0205966 -1.1759664 -1.2395469 1.7136686 0.8519911
-0.30286932 0.7075864 3.5387723 -1.1169604 -0.94967335 -1.5965239 -1.0260001 0.74853027
00000000: c5ea 6ebf ec12 493e 83df a43f e7fd 0940
00000010: 30ca a8bf c09f 8e40 b672 17bf 10b7 fbbd
00000020: 67fb 0dbe 3ea0 823f 63d2 703f 3dd4 613f
00000030: 06a0 7f3f 6eea 40bf 2ef5 893f f10a 8e3f
00000040: 5b45 c03e 9334 9b3d fd19 6b3f e9a2 82bf
00000050: 1186 96bf 79a9 9ebf 7e59 db3f 171c 5a3f
00000060: b011 9bbe 6224 353f 3f7b 6240 8ff8 8ebf
00000070: cb1d 73bf e55a ccbf f953 83bf ae9f 3f3f

onnx::Conv_133 f4 [64, 32, 1, 1]
0.22655709 -0.34190035 0.71794975 0.44856042 -0.2317235 -0.33848733 -0.2652223 -0.42615065
-0.6566446 0.16673657 0.19586217 -0.53237176 -0.4499742 -0.15129304 -0.34565604 -0.30463278
-0.34885406 -0.5330648 0.051319692 0.70034474 -0.14770749 -0.6016349 0.546952 -0.3778507
0.7632986 0.06107546 -0.6127624 -1.2819375 -0.513616 0.15687196 0.12452056 -0.52029467
0.07078399 0.01705202 -1.3487929 -0.05873225 -0.5173168 -0.53235 -0.6904524 -0.1644298
0.023013992 0.11912932 -0.120333366 0.36970383 -0.07742809 -0.2601473 -0.02100734 0.23790947
0.06652869 -0.14566341 0.033275515 -0.38961622 0.00863028 0.50314516 -0.33386403 -0.52449787
-0.4771626 -0.16519493 0.22159533 0.8451014 0.39564878 -0.4199779 -0.67441225 -0.11837382
-0.07338402 0.06854215 -0.5373312 -0.28376403 0.4408964 -0.0023038273 0.26360825 -0.4619126
0.028559662 0.34460506 0.48551822 -0.6169844 -0.3132152 -0.07122047 -0.054644786 -0.20358022
-0.051747493 -0.44122773 0.9785018 0.41511396 0.0724286 -0.03806215 -0.3022034 0.09053254
-0.2512213 0.31926566 0.19055179 0.5714331 0.55842775 0.007156666 -0.4424984 0.52934563
0.8718833 0.22614472 0.23134276 0.22295111 0.1349356 -0.35155874 -0.41272324 0.046149153
0.6707682 0.6116384 -0.51868933 -0.20132811 0.5071732 -0.388708 -0.3201621 -0.26576018
-0.5849763 -0.23651068 -0.12275342 0.355187 0.14059265 0.70913386 0.16505928 0.054904524
-0.005082678 0.32945496 0.6404257 0.25712323 0.3787758 0.18010347 -0.1393598 -0.12777688
0.83388966 -0.088374 0.63923854 -0.5842029 0.022575062 0.65626603 -0.19671857 -0.39863527
-0.15450564 0.19748282 -0.27269703 0.05300314 0.86737794 0.57217026 0.7506602 0.051824957
0.3800739 0.3325068 0.4377614 -0.9334812 0.064250305 0.6648926 -0.42344487 -0.38871595
0.15136187 0.007562489 0.33092514 0.5452579 0.013549805 -0.5048043 0.52701646 -0.24297512
-0.41053757 0.47006202 0.3070166 -0.38244528 -0.5843252 -0.618275 -0.91106766 -0.747451
0.81893945 0.5181735 -0.29210746 -0.9033087 0.11448111 0.10132638 0.47541088 0.25995243
-0.52137506 -0.8499306 0.3729192 -0.47828305 -0.22826831 0.13682808 -0.8561117 0.9338222
0.2775518 0.7794689 0.45041722 -0.31501645 0.45984203 -0.5311547 0.13391878 0.19828674
0.10483325 -0.67012125 -0.42628878 0.20902248 -0.28767258 0.05255692 -0.20165116 -0.7040084
-0.030833866 -0.2605131 0.19233504 0.20927387 0.2617171 0.33094478 0.26036093 -0.18683024
0.34199896 0.0831643 -0.17215914 0.034597747 -0.102272615 -0.300236 -0.089932755 0.07144654
0.0210635 0.6540132 0.048353687 0.576936 -0.03885182 0.08726958 -0.25102502 0.2853522
-0.73217165 0.52731395 0.071490064 0.078911796 0.16467135 -0.7145067 0.55794626 0.032186795
1.0617905 -0.14926806 0.058525506 0.39920124 0.07886793 -0.6315523 -0.41944236 -0.35063848
0.61811405 -0.8377001 0.17957176 -0.8092779 -0.16963811 0.010611496 0.11848028 0.032797206
0.021881 0.21860793 0.31119612 -0.36210737 0.18982966 0.8177886 0.09509837 -0.13573222
00000000: 95fe 673e 900d afbe 8ecb 373f b6a9 e53e
00000010: ed48 6dbe 364e adbe 38cb 87be 6b30 dabe
00000020: dc19 28bf febc 2a3e 1890 483e 8449 08bf
00000030: 0563 e6be 90ec 1abe d4f9 b0be d4f8 9bbe
00000040: 009d b2be ef76 08bf 9934 523d cb49 333f
00000050: a240 17be bf04 1abf 0c05 0c3f a675 c1be
00000060: 8967 433f 432a 7a3d ffdd 1cbf 8716 a4bf
00000070: 577c 03bf 0ba3 203e a304 ff3d 0832 05bf
00000080: 32f7 903d aeb0 8b3c 3fa5 acbf 3a91 70bd
00000090: e06e 04bf 1748 08bf 7dc1 30bf 4960 28be
000000a0: d787 bc3c 13fa f33d 5771 f6bd d249 bd3e
000000b0: 9e92 9ebd 0732 85be 9617 acbc 8a9e 733e
000000c0: 3240 883d ca28 15be e84b 083d c77b c7be
000000d0: 0566 0d3c 1fce 003f 3af0 aabe 7e45 06bf
000000e0: a84e f4be dc28 29be e3e9 623e 9158 583f
000000f0: 7a92 ca3e 5807 d7be 48a6 2cbf f96d f2bd
00000100: 5c4a 96bd d45f 8c3d 8a8e 09bf 8549 91be
00000110: 2cbd e13e cffb 16bb a9f7 863e cf7f ecbe
00000120: f4f5 e93c 1370 b03e d895 f83e b1f2 1dbf
00000130: be5d a0be 0adc 91bd 36d3 5fbd 5577 50be
00000140: 2ef5 53bd 9ae8 e1be 187f 7a3f d189 d43e
00000150: 7255 943d 0fe7 1bbd 67ba 9abe 2069 b93d
00000160: 14a0 80be ca76 a33e 0220 433e 7149 123f
00000170: 1ff5 0e3f 7782 ea3b 268f e2be 3283 073f
00000180: be33 5f3f 7b92 673e 1ee5 6c3e 4c4d 643e
00000190: 8f2c 0a3e 82ff b3be 7650 d3be e506 3d3d
000001a0: 77b7 2b3f 5694 1c3f d3c8 04bf f528 4ebe
000001b0: 1ad6 013f bc04 c7be 49ec a3be b811 88be
000001c0: 02c1 15bf db2f 72be 2566 fbbd 12db b53e
000001d0: 85f7 0f3e cc89 353f 4d05 293e 91e3 603d
000001e0: 988c a6bb 52ae a83e f0f2 233f a8a5 833e
000001f0: e7ee c13e 0b6d 383e 56b4 0ebe f1d7 02be
00000200: cb79 553f 6dfd b4bd 23a5 233f 528e 15bf
00000210: 56ef b83c 0d01 283f 9870 49be ec19 ccbe
00000220: ba36 1ebe f038 4a3e f29e 8bbe d219 593d
00000230: 7b0c 5e3f c079 123f 442b 403f 6846 543d
00000240: 0c99 c23e 553e aa3e 4322 e03e a0f8 6ebf
00000250: aa95 833d 6736 2a3f c4cd d8be c705 c7be
00000260: 9bfe 1a3e c1ce f73b 056f a93e 0696 0b3f
00000270: 0000 5e3c db3a 01bf 8dea 063f 78ce 78be
00000280: fb31 d2be f8ab f03e 4831 9d3e decf c3be
00000290: 5696 15bf 4547 1ebf bb3b 69bf f358 3fbf
000002a0: 04a6 513f 05a7 043f 1c8f 95be 3d3f 67bf
000002b0: 1275 ea3d 3584 cf3d 0e69 f33e 7c18 853e
000002c0: d678 05bf 0d95 59bf 44ef be3e 84e1 f4be
000002d0: 2bbf 69be a91c 0c3e 232a 5bbf f90e 6f3f
000002e0: 451b 8e3e 468b 473f 169d e63e d649 a1be
000002f0: 6a70 eb3e c1f9 07bf 0122 093e ae0b 4b3e
00000300: d1b2 d63d 118d 2bbf 8642 dabe fd09 563e
00000310: d249 93be ed45 573d a47d 4ebe e539 34bf
00000320: 4e97 fcbc f961 85be 7af3 443e e44b 563e
00000330: c9ff 853e 9871 a93e 074e 853e 6d50 3fbe
00000340: 7d1a af3e 0b52 aa3d 7c4a 30be 5eb6 0d3d
00000350: 4e74 d1bd 88b8 99be aa2e b8bd 9052 923d
00000360: 5c8d ac3c 696d 273f 840e 463d 14b2 133f
00000370: 1623 1fbd 65ba b23d 5a86 80be af19 923e
00000380: 9a6f 3bbf 0cfe 063f 6269 923d 829c a13d
00000390: 9b9f 283e e9e9 36bf 91d5 0e3f 4dd6 033d
000003a0: c0e8 873f bad9 18be 71b8 6f3d 1b64 cc3e
000003b0: 8285 a13d 69ad 21bf 26c1 d6be e386 b3be
000003c0: b93c 1e3f 8473 56bf a9e1 373e d62c 4fbf
000003d0: 9db5 2dbe d7db 2d3c caa5 f23d 5d56 063d
000003e0: c83f b33c c2da 5f3e 1955 9f3e 2366 b9be
000003f0: b562 423e 985a 513f efc2 c23d 63fd 0abe

onnx::Conv_134 f4 [64]
-0.06995285 0.39592138 1.0617357 0.38681954 -0.3977994 1.6512325 -0.60041773 1.0212798
-0.55902636 -1.3483578 -0.052799292 0.24111944 -0.21573752 0.10510857 0.44597217 -0.46041837
-0.7592116 0.8170229 0.8136871 -0.67482966 -0.11300342 0.91843426 0.76422036 0.8786094
0.25183982 1.0765072 0.66724193 2.025432 0.85642457 0.15912816 1.0153744 -0.55431926
0.78047 -0.012659073 1.090557 -0.25151384 -1.4319375 -0.010505497 0.7130093 -1.185166
0.4981273 0.24098688 1.7265662 0.65981156 -0.13197939 0.85368943 0.59624076 -0.04037286
0.9518231 0.027055554 0.36528283 0.54216677 0.9578958 0.822292 0.3702416 0.39043576
0.24053106 -0.4325109 0.06976209 0.10176928 -0.07468854 0.49488282 -0.031906977 -0.12969314
00000000: 7143 8fbd 35b6 ca3e f5e6 873f 360d c63e
00000010: 5dac cbbe 965b d33f fab4 19bf 4cb9 823f
00000020: 5a1c 0fbf fd96 acbf 1244 58bd 04e8 763e
00000030: 4cea 5cbe 2943 d73d 7756 e43e f5bb ebbe
00000040: b15b 42bf 6a28 513f cc4d 503f a3c1 2cbf
00000050: 566e e7bd 821e 6b3f f2a3 433f 8cec 603f
00000060: 26f1 803e fdca 893f 5ed0 2a3f aea0 0140
00000070: a43e 5b3f 7ef2 223e caf7 813f dee7 0dbf
00000080: e2cc 473f 0068 4fbc 5f97 8b3f 6cc6 80be
00000090: ba49 b7bf 401f 2cbc c787 363f 85b3 97bf
000000a0: 8b0a ff3e 44c5 763e 1f00 dd3f 69e9 283f
000000b0: 9b25 07be 648b 5a3f 3ca3 183f 035e 25bd
000000c0: aeaa 733f 9ca3 dd3c 5a06 bb3e 71cb 0a3f
000000d0: a938 753f ba81 523f 4f90 bd3e 32e7 c73e
000000e0: c64d 763e 1272 ddbe 6ddf 8e3d 6a6c d03d
000000f0: 4ef6 98bd 4861 fd3e e4b0 02bd 47ce 04be

onnx::Conv_136 f4 [64, 1, 1, 1]
-0.9470126 1.0061623 1.038535 1.186171 0.7343603 0.7332107 -1.1364335 -1.0308559
-2.2346482 -2.1361275 -1.2351246 -0.9151072 -1.2521288 1.0245938 -0.81483823 1.0320109
-0.71525574 -0.8166609 -1.0505922 -1.0769174 0.8945533 0.8130639 0.6225946 0.6018629
-1.1625366 -0.99030995 0.9132423 0.912483 1.1057663 0.9653613 1.0374947 1.1028197
-0.89927256 -0.86163837 0.6397283 -0.58345485 -1.2694618 -1.2469711 0.941487 -1.0405557
0.82923985 -0.9583845 1.2294761 1.0444695 -1.0617845 1.0193433 0.90361696 0.90299875
1.7022576 1.8958927 0.88679314 0.9058767 -1.0941491 0.97494847 -0.75572366 0.6704001
-0.88567936 1.0512003 -0.98463273 -0.9172334 -0.8002931 0.6839229 1.3137574 -1.230524
00000000: 6b6f 72bf edc9 803f b7ee 843f 74d4 973f
00000010: 09ff 3b3f b2b3 3b3f a776 91bf 16f3 83bf
00000020: 7a04 0fc0 50b6 08c0 9018 9ebf 7744 6abf
00000030: c245 a0bf e425 833f 3d99 50bf ef18 843f
00000040: 001b 37bf b010 51bf ce79 86bf 6ed8 89bf
00000050: 7201 653f f524 503f 5c62 1f3f b013 1a3f
00000060: 00ce 94bf f484 7dbf 3fca 693f 7c98 693f
00000070: c089 8d3f eb21 773f a0cc 843f 3229 8d3f
00000080: ba36 66bf 5594 5cbf 3cc5 233f 4c5d 15bf
00000090: b97d a2bf c09c 9fbf 4b05 713f ee30 85bf
000000a0: 1049 543f b058 75bf 795f 9d3f 2db1 853f
000000b0: 8ee8 87bf d779 823f 7153 673f ed2a 673f
000000c0: 94e3 d93f 9dac f23f e004 633f 89e7 673f
000000d0: 140d 8cbf 3996 793f 1b77 41bf 579f 2b3f
000000e0: e2bb 62bf bb8d 863f e410 7cbf cfcf 6abf
000000f0: 02e0 4cbf 9215 2f3f 3429 a83f cf81 9dbf

onnx::Conv_137 f4 [64]
1.2762609 -1.5814139 -1.5521468 -1.6706609 -1.2701277 -1.2709315 1.5005451 1.521498
2.7135696 2.542843 1.5789763 1.1287632 1.9048101 -1.6376222 1.0873088 -1.2935286
1.0515149 1.240325 1.431426 1.2819527 -1.273627 -1.1040471 -1.0543753 -1.0067172
1.4068471 1.164642 -1.5024557 -1.4517817 -1.9213326 -1.6949584 -1.5046738 -1.2963175
1.4859898 1.0981991 -0.99109274 0.65676355 1.4454738 1.2263043 -1.1195445 1.4557922
-1.4113019 1.45543 -1.6263913 -1.6598434 1.341871 -1.2154547 -1.6784482 -1.6450889
-2.335359 -2.4922502 -0.9595202 -1.299588 1.342159 -1.5652639 1.1557925 -0.946341
1.3741523 -1.718991 1.4615177 1.3711027 1.146108 -0.9229609 -2.0157418 1.6181278
00000000: 845c a33f c56b cabf bfac c6bf 37d8 d5bf
00000010: 8b93 a2bf e2ad a2bf dd11 c03f 72c0 c23f
00000020: 20ab 2d40 f1bd 2240 e51b ca3f 507b 903f
00000030: d1d0 f33f 9b9d d1bf ef2c 8b3f 5892 a5bf
00000040: 0a98 863f f8c2 9e3f f838 b73f 0717 a43f
00000050: 3606 a3bf 6a51 8dbf c5f5 86bf 1cdc 80bf
00000060: 9113 b43f fd12 953f 7850 c0bf fcd3 b9bf
00000070: 3aee f5bf 66f4 d8bf 2799 c0bf bbed a5bf
00000080: ea34 be3f ca91 8c3f 41b8 7dbf a821 283f
00000090: 4905 b93f 8af7 9c3f 3c4d 8fbf 6657 ba3f
000000a0: 8aa5 b4bf 884b ba3f 972d d0bf c075 d4bf
000000b0: 6ec2 ab3f 0594 9bbf 64d7 d6bf 4692 d2bf
000000c0: 8676 15c0 0781 1fc0 1ea3 75bf e658 a6bf
000000d0: decb ab3f 915a c8bf 02f1 933f 6743 72bf
000000e0: 39e4 af3f e607 dcbf 0313 bb3f 4b80 af3f
000000f0: abb3 923f 2a47 6cbf ea01 01c0 d01e cf3f

onnx::Conv_139 f4 [64, 1, 1, 1]
1.2597903 -1.177574 -1.3445616 -1.2075337 -1.0112338 -0.969451 -1.4632888 1.1172801
1.1032323 1.1198493 -1.9200081 0.91552615 1.1432275 -0.74196565 1.2767141 0.93707937
-1.4436053 -1.8859676 -1.3984238 1.0159539 -1.4098676 -1.4177296 -1.3128468 0.9699365
-1.0708551 0.85981923 1.3084706 -1.0333892 -1.1618555 -1.0654945 -1.4578049 -1.4536809
-1.337022 1.1725465 1.0629079 1.1517637 1.2106893 -1.1646159 -1.0645089 -1.8261205
0.8343923 -1.0751239 0.72107184 -1.1962287 -1.3079036 -1.4303293 0.89483654 -1.5278808
1.242295 -1.6059666 0.75118273 0.92068136 -1.7280488 1.1357521 1.6425229 1.3816214
-1.3749578 1.119835 1.1684245 -1.0084924 1.4768976 -1.5647119 -1.4000082 -1.4977165
00000000: cf40 a13f bfba 96bf 981a acbf 7790 9abf
00000010: 1c70 81bf f12d 78bf 0c4d bbbf 0903 8f3f
00000020: b736 8d3f 3957 8f3f d3c2 f5bf ec5f 6a3f
00000030: 4755 923f 76f1 3dbf 5e6b a33f 6fe4 6f3f
00000040: 0fc8 b8bf 6367 f1bf 8dff b2bf c70a 823f
00000050: 8b76 b4bf 2a78 b5bf 5d0b a8bf c24d 783f
00000060: c811 89bf 1d1d 5c3f f77b a73f 1946 84bf
00000070: aeb7 94bf 2062 88bf 5a99 babf 3712 babf
00000080: 8923 abbf 0116 963f 5e0d 883f fe6c 933f
00000090: def7 9a3f 2212 95bf d441 88bf 51be e9bf
000000a0: bc9a 553f a99d 89bf 2a98 383f 061e 99bf
000000b0: 6369 a7bf 0815 b7bf 0214 653f 9991 c3bf
000000c0: 8603 9f3f 5090 cdbf 834d 403f c6b1 6b3f
000000d0: b430 ddbf 5360 913f 313e d23f f8d8 b03f
000000e0: 9efe afbf c156 8f3f ef8e 953f 4716 81bf
000000f0: fb0a bd3f 7b48 c8bf 7833 b3bf 2db5 bfbf

onnx::Conv_140 f4 [64]
-1.1854833 0.5964768 1.1331848 1.0567805 0.44740042 0.5004 1.0548764 -1.0857339
-1.2773099 -1.1729246 1.9730108 -0.80350155 -1.2811174 0.3921403 -1.1112796 -0.69097495
1.0350566 1.2530944 1.1966052 -0.78351235 1.3239136 1.1713233 1.1052736 -0.8573115
0.6178019 -0.7601546 -1.2111886 0.7032824 0.9244466 1.0302845 1.0355575 1.2427168
1.1209121 -0.9208393 -0.85605365 -0.62243056 -1.1341414 0.96796656 0.7893294 1.4690701
-0.9331381 0.73257184 -0.7328981 0.82422787 1.2358761 1.1589985 -0.92364365 1.1325318
-1.0085151 1.3925558 -0.5715289 -0.9361136 1.4178324 -0.7588312 -1.4277409 -1.2301191
1.3046911 -0.93854254 -0.997836 0.782162 -1.3346752 1.460099 1.0104443 1.0480713
00000000: ebbd 97bf b4b2 183f 330c 913f 9544 873f
00000010: ab11 e53e 371a 003f 3106 873f 54f9 8abf
00000020: e47e a3bf 6522 96bf 9e8b fc3f 47b2 4dbf
00000030: a8fb a3bf 9dc6 c83e 693e 8ebf bce3 30bf
00000040: bc7c 843f 6665 a03f 5c2a 993f 4494 48bf
00000050: 0076 a93f eced 953f 9b79 8d3f c478 5bbf
00000060: 4428 1e3f 7e99 42bf 3a08 9bbf 510a 343f
00000070: 88a8 6c3f 5de0 833f 268d 843f 5811 9f3f
00000080: 0c7a 8f3f 20bc 6bbf 5526 5bbf 9c57 1fbf
00000090: 8c2b 91bf a8cc 773f 7e11 4a3f 7d0a bc3f
000000a0: 23e2 6ebf d489 3b3f 369f 3bbf 9900 533f
000000b0: 3031 9e3f 105a 943f e973 6cbf cdf6 903f
000000c0: 0617 81bf 453f b23f b84f 12bf 24a5 6fbf
000000d0: 887b b53f c342 42bf 37c0 b6bf 8b74 9dbf
000000e0: 1e00 a73f 5344 70bf 2e72 7fbf c53b 483f
000000f0: a3d6 aabf 86e4 ba3f 3d56 813f 3327 863f

onnx::Conv_142 f4 [64, 1, 3, 3]
0.47120878 -0.6357232 0.5965666 -0.09853616 -0.395506 0.049900435 0.6148681 -0.040089775
0.5707122 0.31748435 0.83395505 -0.070783645 0.32379937 0.23441859 0.43781662 -0.6463961
-0.2933364 0.44135043 0.46187514 0.55522543 0.16471054 -0.26661816 0.50465924 0.6621618
-0.0036017415 0.37735403 -0.2701275 0.06325645 0.43660754 -0.5745437 0.32117558 0.08807643
-0.26404986 -0.6916846 -0.2498278 -0.7994782 -0.52762234 -0.07033044 -0.2134778 -0.6206857
0.18320979 -0.04198977 -0.5008001 0.77988815 -0.46509883 0.40885884 0.8022489 -0.21057391
0.3242739 -0.5929783 0.2601854 0.6027424 -0.74146473 0.33157957 -0.122824416 -0.029474298
0.28622073 -0.61624515 -0.17357726 0.61489457 -0.08855723 -0.9376059 -0.23212095 0.27595899
0.5067474 0.39404517 0.20350882 -0.36750162 -0.38044423 0.37875098 0.21565972 -0.196436
0.33995384 0.05007309 0.72148025 -0.06356307 0.3823155 -0.47350338 0.5716305 0.52723515
-0.011673298 0.05614196 -0.041901298 0.0072713955 0.24816738 0.6179403 0.36687708 0.07568298
0.6351498 0.48894158 -0.47347105 -0.5293404 -0.057409875 -0.9237076 -0.23020631 -0.5854395
-0.2317626 -0.2842017 -0.4488218 -0.17314047 0.2066836 -0.739565 0.12533684 -0.2770037
-0.49459615 -0.44485652 0.007302085 0.14390743 -0.19008991 -0.02615433 0.14798626 0.14016144
-0.27318618 -1.0858426 0.764075 0.089940615 -0.40603516 -0.067272626 -0.38132983 -0.6303734
0.84672964 0.099837475 -0.2711685 -0.7194885 -0.46529186 0.40214068 -0.88023216 -0.71259123
-0.055995144 -0.073604494 0.28740913 -0.10007336 0.67251045 -0.11120153 -0.55778855 -0.76869696
0.6960659 -0.12179701 0.7139323 -0.4456367 0.15231109 0.08554929 0.9716525 -0.42574444
0.34745073 0.5254284 0.07059064 0.07153849 0.21103437 0.78497386 -0.28827238 -0.4722072
-0.7196745 0.7559229 -0.4700393 0.043032017 0.09731901 -0.56559366 -0.38988665 0.24018282
0.59244955 0.7819237 0.9431608 0.43035343 -0.06841643 -0.33836055 0.5764528 0.10898568
0.3992876 0.35062587 -0.13820821 0.23858212 0.327145 0.21388537 0.93571603 -0.38735446
-0.42929804 0.26498568 0.13932408 -0.30197263 0.34059966 0.3702356 0.1585181 0.38539368
0.3077579 -0.070908025 0.32075343 0.4262039 -0.12292762 0.35170698 -0.2673977 0.10836013
-0.07848586 0.49582127 -0.66943806 -0.009531428 0.5987443 -0.7116787 -0.60531026 0.551056
-0.96701336 0.16382752 -0.708247 -0.12292662 -0.9134223 -0.38028452 0.274988 0.10088225
-0.96231616 0.6510495 0.64386755 0.42774892 -0.3392141 -0.45238292 -0.6223988 0.4643105
-0.536699 0.25875717 0.01887135 0.91138434 -0.13193984 0.39728028 -0.46282774 0.23289832
-0.98023903 -0.6886742 0.011147625 0.69591886 -0.48270282 0.2785273 -0.53878725 0.34249812
0.09238899 -1.0099379 -0.9449669 0.68801993 0.3368589 0.22696084 0.31622162 -1.106114
0.6562768 -0.94179016 -0.16814347 0.5489486 -0.5687786 -0.61395466 0.73421603 0.29226464
-0.17498153 0.21411704 -0.036403257 0.51900214 0.16389036 0.39170107 0.69397956 0.08361887
00000000: 4742 f13e c1be 22bf 97b8 183f 54cd c9bd
00000010: c37f cabe 6664 4c3d ff67 1d3f 2d35 24bd
00000020: 321a 123f 4f8d a23e 147e 553f 04f7 90bd
00000030: 08c9 a53e 6d0b 703e 8029 e03e 377a 25bf
00000040: 3030 96be aff8 e13e e67a ec3e 4123 0e3f
00000050: e1a9 283e 2d82 88be 5931 013f 7083 293f
00000060: 320b 6cbb 8c34 c13e 274e 8abe 998c 813d
00000070: 068b df3e 4c15 13bf 2071 a43e 6a61 b43d
00000080: 8b31 87be 3e12 31bf dcd2 7fbe 9aaa 4cbf
00000090: 4212 07bf 6809 90bd ed99 5abe 42e5 1ebf
000000a0: 599b 3b3e 77fd 2bbd 6f34 00bf c0a6 473f
000000b0: 6f21 eebe f255 d13e 2f60 4d3f b0a0 57be
000000c0: 3b07 a63e 6dcd 17bf 0537 853e 534d 1a3f
000000d0: a2d0 3dbf ccc4 a93e 5e8b fbbd 1574 f1bc
000000e0: 868b 923e 3ec2 1dbf 3dbe 31be bb69 1d3f
000000f0: 7e5d b5bd f106 70bf 1db1 6dbe 7f4a 8d3e
00000100: 33ba 013f 4ac0 c93e 9e64 503e 2c29 bcbe
00000110: 96c9 c2be a6eb c13e e7d5 5c3e 8526 49be
00000120: 6e0e ae3e 7119 4d3d eeb2 383f 5b2d 82bd
00000130: dbbe c33e 096f f2be 6056 123f e2f8 063f
00000140: 5c41 3fbc 1df5 653d b2a0 2bbd e344 ee3b
00000150: 971f 7e3e 5631 1e3f 50d7 bb3e aeff 9a3d
00000160: 2d99 223f 8d56 fa3e cc6a f2be da82 07bf
00000170: 9e26 6bbd 1a78 6cbf 34bb 6bbe 5ddf 15bf
00000180: 2d53 6dbe e382 91be f9cb e5be bc4b 31be
00000190: dea4 533e 2254 3dbf 4d58 003e 6ed3 8dbe
000001a0: b53b fdbe 3cc4 e3be 5446 ef3b 785c 133e
000001b0: eea6 42be 9b41 d6bc b689 173e 7b86 0f3e
000001c0: 0fdf 8bbe e4fc 8abf 6b9a 433f c932 b83d
000001d0: d7e3 cfbe 3bc6 89bd aa3d c3be 2760 21bf
000001e0: 46c3 583f 9777 cc3d 99d6 8abe 6630 38bf
000001f0: bc3a eebe 62e5 cd3e e556 61bf 616c 36bf
00000200: 2a5b 65bd f4bd 96bd 4a27 933e 43f3 ccbd
00000210: a529 2c3f a1bd e3bd 3bcb 0ebf 53c9 44bf
00000220: 6031 323f b670 f9bd 44c4 363f 7e2a e4be
00000230: 70f7 1b3e 7734 af3d 38be 783f 2dfb d9be
00000240: 10e5 b13e 7a82 063f d391 903d c682 923d
00000250: 6519 583e 0cf4 483f 7098 93be 24c5 f1be
00000260: 973c 38bf 2a84 413f fea8 f0be 5742 303d
00000270: 304f c73d bfca 10bf 399f c7be 7cf2 753e
00000280: c6aa 173f 272c 483f fc72 713f 4957 dc3e
00000290: ea1d 8cbd 983d adbe 6992 133f e233 df3d
000002a0: 6d6f cc3e 3c85 b33e 7486 0dbe df4e 743e
000002b0: 8d7f a73e c404 5b3e 168b 6f3f 5353 c6be
000002c0: f4cc dbbe 34ac 873e f9aa 0e3e 289c 9abe
000002d0: 1463 ae3e 858f bd3e 9252 223e 5252 c53e
000002e0: 7292 9d3e 3a38 91bd cb39 a43e 6637 da3e
000002f0: 7ac1 fbbd f012 b43e 5ae8 88be eaeb dd3d
00000300: 32bd a0bd 49dc fd3e 4b60 2bbf b529 1cbc
00000310: 4e47 193f 9330 36bf 9df5 1abf 0212 0d3f
00000320: 308e 77bf 67c2 273e ad4f 35bf f4c0 fbbd
00000330: 0bd6 69bf a7b4 c2be 3acb 8c3e 5a9b ce3d
00000340: 5a5a 76bf 2eab 263f 81d4 243f e801 db3e
00000350: 78ad adbe bc9e e7be 8755 1fbf 1bba ed3e
00000360: 1b65 09bf d27b 843e 1798 9a3c 7c50 693f
00000370: 3d1b 07be 5268 cb3e c2f7 ecbe e67c 6e3e
00000380: f2f0 7abf f44c 30bf 87a4 363c bd27 323f
00000390: d324 f7be 219b 8e3e f6ed 09bf ea5b af3e
000003a0: 7036 bd3d a545 81bf 5ae9 71bf 1322 303f
000003b0: c578 ac3e 6c68 683e cde7 a13e 2595 8dbf
000003c0: c201 283f 2919 71bf cd2d 2cbe e587 0c3f
000003d0: 799b 11bf 222c 1dbf 95f5 3b3f b6a3 953e
000003e0: 5c2e 33be 7f41 5b3e 951b 15bd 53dd 043f
000003f0: e0d2 273e 0b8d c83e a5a8 313f 5f40 ab3d

onnx::Conv_143 f4 [64]
-0.53362113 -0.9587224 -1.440224 0.7119311 0.491697 -0.33838758 0.71733046 -0.7071141
-1.5430592 -1.8027345 2.4068751 0.8848784 1.0383977 0.4715057 0.7151003 -0.6564828
-0.9516529 -0.2956611 -1.6968354 -0.6929619 -1.424675 -0.31040257 1.4636018 0.21548972
-0.01470277 0.9030879 0.5131254 -0.46833435 -0.28185818 1.1087646 0.4599099 1.4083551
0.9268626 1.1102942 1.3408686 0.6293785 -1.104502 0.6509212 0.7588618 -1.1765186
-0.33079165 1.1084335 0.58191955 0.7383098 0.31205153 -0.9163799 -0.4893025 -0.65937644
0.574988 -0.7276011 0.36808667 -0.8631845 0.18082853 -0.011631615 0.81972116 -0.3920703
1.0470072 0.5054089 0.036790513 0.33179492 1.1510643 1.0117899 0.4393622 0.18683846
00000000: 659b 08bf d56e 75bf 4359 b8bf 1e41 363f
00000010: b6bf fb3e 2341 adbe f8a2 373f 6e05 35bf
00000020: f782 c5bf 01c0 e6bf 3e0a 1a40 6487 623f
00000030: 37ea 843f 3269 f13e d010 373f 420f 28bf
00000040: 869f 73bf e460 97be e731 d9bf f365 31bf
00000050: c05b b6bf 16ed 9ebe 4e57 bb3f 56a9 5c3e
00000060: e3e3 70bc c530 673f 305c 033f 85c9 efbe
00000070: b74f 90be 00ec 8d3f 4f79 eb3e fb44 b43f
00000080: de46 6d3f 1f1e 8e3f 95a1 ab3f f31e 213f
00000090: 5260 8dbf c6a2 263f c444 423f 2998 96bf
000000a0: 865d a9be 26e1 8d3f aef8 143f df01 3d3f
000000b0: 38c5 9f3e e097 6abf db85 fabe e5cc 28bf
000000c0: 6a32 133f 1144 3abf db75 bc3e a9f9 5cbf
000000d0: 1d2b 393e 8892 3ebc 3fd9 513f 70bd c8be
000000e0: 5504 863f 7a62 013f a6b1 163d 06e1 a93e
000000f0: 1356 933f 5582 813f 15f4 e03e 9552 3f3e
