model/2023_4_19_hj_num_1.onnx (onnx, 133782 bytes, 29 tensors)

block_neck1.block_neck.0.weight f4 [3, 1, 1, 1]
-0.17579821 -0.1271057 -0.14999312
00000000: 7204 34be ff27 02be cc97 19be

block_neck1.block_neck.1.weight f4 [3, 1, 3, 3]
-0.088341236 -0.11503904 -0.0984042 -0.004782477 0.009041949 0.0003491818 0.05626447 0.070252225
0.07103028 0.05447053 0.054664478 0.007884686 0.07081485 0.044062898 0.014173007 0.07857889
0.1294143 0.110739924 0.065987475 0.038631346 0.01839565 0.09256683 0.05895227 0.0767675
0.03919409 0.115557365 0.115528144
00000000: 40ec b4bd 9799 ebbd 2488 c9bd 53b6 9cbb
00000010: af24 143c 6312 b739 9375 663d 66e0 8f3d
00000020: 5378 913d 7e1c 5f3d dce7 5f3d c52e 013c
00000030: 6007 913d 4c7b 343d e635 683c f8ed a03d
00000040: 2f85 043e 9dcb e23d 7124 873d e73b 1e3d
00000050: 79b2 963c ae93 bd3d ef77 713d 4738 9d3d
00000060: fb89 203d 57a9 ec3d 059a ec3d

block_neck2.block_neck.0.weight f4 [16, 1, 1, 1]
0.17552868 -4.7052053e-14 -7.3313634e-16 -7.2817003e-16 -0.13876933 0.1664355 2.6998339e-15 1.952846e-15
0.106706254 0.12387299 -9.494243e-15 -0.15376186 0.16405438 7.515682e-15 0.11779287 3.0985742e-15
00000000: cabd 333e 53e7 53a9 ea4f 53a6 77e1 51a6
00000010: 8c19 0ebe 116e 2a3e 258b 4227 a6b7 0c27
00000020: cf88 da3d 1fb1 fd3d 7808 2ba8 c073 1dbe
00000030: dffd 273e f763 0728 633d f13d 9b46 5f27

block_neck2.block_neck.1.weight f4 [16, 1, 3, 3]
0.097758025 0.12459702 0.085396364 0.117640816 0.12078695 0.10052848 0.12015463 0.12569821
0.07641019 -2.3339797e-16 7.129436e-15 1.2386392e-14 -8.2211984e-15 5.1918906e-15 1.3946656e-14 1.9971492e-14
2.8818622e-14 3.810525e-14 -6.4436454e-16 6.264835e-16 -4.4417285e-16 -3.1377766e-16 6.5727655e-16 6.58359e-16
5.374541e-16 -2.8479302e-17 -6.8399975e-16 2.637533e-16 3.2725488e-16 5.5027056e-16 -1.5351652e-16 -5.013859e-16
-9.580437e-16 3.415963e-16 -1.6792652e-16 -3.5966136e-16 -0.034068048 -0.054634698 -0.08054119 -0.058841083
-0.07847874 -0.13985646 -0.04032656 -0.051977225 -0.04907935 0.13352922 0.15771413 0.13964239
0.064308904 0.07361159 0.059013397 0.018364929 0.039562106 0.040252253 1.3186164e-15 3.7512013e-16
5.0473185e-16 -9.208523e-16 -7.263929e-16 6.076872e-16 -9.580437e-16 -3.3995816e-16 5.0324747e-16 9.327229e-16
-2.6797634e-16 -1.0103777e-15 1.3505143e-15 1.0795659e-15 -1.5871624e-16 1.3024773e-15 7.108498e-16 9.609242e-16
-0.022476425 -0.024514621 -0.034837924 -0.028035723 -0.004306188 -0.0077272966 -0.112579934 -0.0997362
-0.082668304 -0.030178584 -0.007344031 0.005831602 -0.019005455 -0.0080673145 0.015211397 0.115726866
0.11496798 0.102208994 -2.5175454e-15 -3.8139196e-15 -2.1041103e-15 -3.0578707e-15 -2.8683282e-15 -7.7634095e-16
-6.6487415e-15 -6.2146418e-15 -1.5385883e-15 0.06814071 0.12091094 0.14857073 0.051013734 0.09323463
0.1434326 0.044784028 0.06788102 0.05825916 -0.12829857 -0.15197454 -0.13680232 -0.061039466
-0.076911025 -0.063957535 -0.01955697 -0.033449322 -0.0267031 -2.2635084e-15 -1.6301106e-15 -3.1880122e-15
3.8817237e-15 3.2436026e-15 3.1700447e-15 -2.0037236e-15 -7.6580275e-16 -2.0120768e-15 -0.031968128 -0.06886543
-0.06252924 -0.07958018 -0.0712152 -0.11867335 -0.10094995 -0.10435932 -0.08413283 -8.1159457e-16
8.587137e-16 2.3025176e-15 -1.8721203e-17 5.6204495e-16 5.8885206e-16 1.948303e-15 1.3289262e-15 -6.4755e-16
00000000: 5c35 c83d b92c ff3d 4ae4 ae3d abed f03d
00000010: 265f f73d e0e1 cd3d a113 f63d 08b7 003e
00000020: f27c 9c3d 768b 86a5 b86e 0028 2722 5f28
00000030: 9619 14a8 bd0e bb27 993d 7b28 20e3 b328
00000040: 9cc9 0129 5d9c 2b29 b6b9 39a6 5392 3426
00000050: 2c06 00a6 69e1 b4a5 7372 3d26 52c2 3d26
00000060: 1de9 1a26 6d56 03a4 4626 45a6 1e0b 9825
00000070: 4ca6 bc25 cd9a 1e26 14fe 30a5 c083 10a6
00000080: 9311 8aa6 b7ea c425 299b 41a5 a654 cfa5
00000090: f08a 0bbd a2c8 5fbd c8f2 a4bd 5903 71bd
000000a0: 76b9 a0bd 8836 0fbe 772d 25bd 12e6 54bd
000000b0: 6e07 49bd e2bb 083e d07f 213e 6afe 0e3e
000000c0: 63b4 833d acc1 963d 08b8 713d 0c72 963c
000000d0: e00b 223d 8cdf 243d 5c08 be26 f63d d825
000000e0: a37a 1126 74b5 84a6 565e 51a6 6727 2f26
000000f0: 9311 8aa6 f8f8 c3a5 1c0d 1126 676b 8626
00000100: 547a 9aa5 5c9c 91a6 2fa1 c226 f494 9b26
00000110: c4fc 36a5 eeb4 bb26 75e3 4c26 d87b 8a26
00000120: 7b20 b8bc e3d2 c8bc 36b2 0ebd 2cab e5bc
00000130: ec1a 8dbb 4335 fdbb 4f90 e6bd 7e42 ccbd
00000140: 004e a9bd 1439 f7bc 32a6 f0bb 0617 bf3b
00000150: 54b1 9bbc c52c 04bc 3939 793c 3502 ed3d
00000160: 5574 eb3d f352 d13d 8468 35a7 3369 89a7
00000170: fc9d 17a7 c257 5ca7 51af 4ea7 dac3 5fa6
00000180: d18b efa7 f4e7 dfa7 e4bb dda6 5b8d 8b3d
00000190: 28a0 f73d ed22 183e c7f3 503d ccf1 be3d
000001a0: ffdf 123e 756f 373d 3405 8b3d 28a1 6e3d
000001b0: b360 03be 379f 1bbe e815 0cbe 8504 7abd
000001c0: 8783 9dbd 2bfc 82bd f035 a0bc 2802 09bd
000001d0: 76c0 dabc 5c1a 23a7 77ec eaa6 72b8 65a7
000001e0: 95da 8b27 e8b9 6927 016d 6427 2d62 10a7
000001f0: 45ba 5ca6 44fc 10a7 03f1 02bd 5209 8dbd
00000200: 550f 80bd effa a2bd 46d9 91bd 030b f3bd
00000210: d9be cebd 57ba d5bd d54d acbd 1ced 69a6
00000220: e381 7726 f4e9 2527 31ac aca3 99ff 2126
00000230: 9db9 2926 d963 0c27 b984 bf26 c2a4 3aa6

block_neck3.block_neck.0.weight f4 [32, 1, 1, 1]
-0.094564684 0.13206618 0.089594394 8.025521e-13 -0.094485104 -4.692412e-11 0.089543305 -0.10940381
0.10490849 -0.12014728 0.10007143 0.10592388 -0.12809873 -0.08644825 -0.10614145 -0.08985793
-0.092309475 0.088335946 -1.0672241e-14 0.10200748 -0.11897762 -0.11282841 0.10456331 -0.08877622
9.506468e-15 -0.088405296 0.10857111 0.08192158 -0.10768942 -0.1280898 -0.10540848 0.099432595
00000000: 21ab c1bd 5b3c 073e 447d b73d f9e5 612b
00000010: 6881 c1bd dd5f 4eae 7b62 b73d 1b0f e0bd
00000020: 43da d63d c70f f6bd 40f2 cc3d 9fee d83d
00000030: 502c 03be c80b b1bd b060 d9bd 6f07 b8bd
00000040: c00c bdbd 7ae9 b43d 0641 40a8 4ce9 d03d
00000050: 8aaa f3bd 9512 e7bd 4a25 d63d 4fd0 b5bd
00000060: d840 2b28 d60d b5bd 885a de3d 80c6 a73d
00000070: 458c dcbd f929 03be 67e0 d7bd 51a3 cb3d

block_neck3.block_neck.1.weight f4 [32, 1, 3, 3]
0.050643604 0.08577803 0.04398696 -0.008235644 0.026881192 -0.007782962 -0.03563286 -0.054865118
-0.04709339 -0.003115073 0.050144117 0.07646139 0.009108309 0.027126255 -0.0059537147 0.05529442
-0.017178025 -0.081003815 0.04393525 0.07241792 -0.00457513 0.00876468 0.09392164 0.033380754
0.013080135 -0.010494184 -0.029486999 1.1164646e-13 5.8293696e-13 3.629355e-13 6.917664e-14 2.592734e-13
-1.707423e-13 -1.0563055e-13 -5.9060455e-13 -6.1347753e-13 -0.059558805 -0.02839062 0.039505962 -0.0484606
-0.00854291 0.072281234 0.028523337 0.04730966 0.042655244 1.12962825e-11 2.3261813e-11 -1.0388773e-11
-3.330355e-11 -4.3739535e-12 2.470108e-11 -2.513999e-11 1.724359e-11 1.3600704e-11 0.010730396 0.040272847
0.08150841 0.05730224 0.052624185 0.05163524 0.038828805 0.05096579 0.08016384 -0.016034368
0.055874348 0.058258634 -0.04682415 0.02268257 0.080754355 -0.09508912 -0.04330073 0.028452052
0.0024048488 -0.039902568 -0.08185409 -0.035823893 0.045630004 0.028690748 0.007379595 0.047892507
0.0036624463 0.0670844 0.12009627 0.11483123 -0.0047177956 0.061128765 0.049858995 0.028247867
0.026569523 -0.018865252 -0.03769325 -0.043634515 0.012469017 -0.015119313 -0.009426392 0.051976338
0.013597696 0.056888394 0.10170477 0.0016483755 0.040306333 0.04115322 -0.10430595 -0.06790966
-0.005521352 -0.034583095 -0.03620984 -0.01381631 0.05609409 -0.017201578 -0.027230883 -0.014091839
-0.03361351 0.057428423 -0.045246623 -0.021165349 0.05763354 -0.016153611 0.03362778 0.07238967
0.044198763 0.0792816 0.035392825 0.0340492 0.01593911 -0.015454365 -0.034165278 -0.09231228
-0.045556165 0.022089653 -0.026538678 -0.0046408977 0.06189847 0.07756228 0.048259735 0.031609505
0.025106626 0.036280908 -0.049938608 -0.013624835 0.044395983 0.00777258 0.05387089 0.077546515
0.035978485 0.04781787 -0.022715883 0.06499797 0.035365477 -0.05248858 0.024437815 -0.0009208398
-0.07367029 -0.004988307 0.007168245 0.00068285986 0.05441473 0.0039868923 -0.032602273 0.08162027
0.06571947 0.0609818 3.419866e-15 4.652936e-15 5.2705376e-15 -1.3558936e-15 -2.6011444e-15 -4.494148e-15
1.5401339e-15 3.5973667e-15 1.4564982e-15 0.019859051 -0.02610381 -0.018963484 -0.018321455 -0.03287524
0.034834646 -0.042268887 0.007472472 0.0889268 -0.037345577 -0.01964836 0.052776337 -0.08382308
-0.06257801 0.028556647 0.026065143 0.008709602 -0.015140547 -0.011017273 -0.0069736033 -0.016654441
0.07587004 0.029234702 -0.09420764 0.023308838 0.006699343 -0.039972793 0.0075610816 -0.0018865243
-0.011669012 -0.025841197 -0.012443428 0.014609168 0.03247803 -0.015917769 -0.1121441 -0.020032795
0.054892585 0.10911103 0.009187326 0.029697182 0.047066174 0.013633462 0.0046318457 0.003010292
-5.2813584e-15 -2.7550498e-15 -3.2738988e-15 -5.501806e-15 1.301995e-15 3.5511742e-15 -3.9062767e-15 -2.7114033e-15
-2.002283e-15 -0.01323845 0.061514806 0.06535355 -0.018846998 -0.017269801 -0.006096536 -0.031566672
-0.059899643 -0.05244401 -0.073335156 -0.007168932 0.027230369 -0.0009977492 0.076635286 0.08136314
0.016302094 0.018950665 -0.0066322545 -0.06031569 -0.013006984 -0.016198335 -0.06600096 -0.030240776
-0.01460277 -0.10192382 -0.07171199 0.0017599575 0.019165535 -0.013372836 -0.058892448 0.061043292
00000000: ab6f 4f3d 64ac af3d ac2b 343d cbee 06bc
00000010: f235 dc3c 3808 ffbb c3f3 11bd 3fba 60bd
00000020: 00e5 40bd 4126 4cbb eb63 4d3d ca97 9c3d
00000030: 043b 153c e137 de3c 6117 c3bb 677c 623d
00000040: eeb8 8cbc 54e5 a5bd 73f5 333d d94f 943d
00000050: f9ea 95bb bb99 0f3c fd59 c03d 42ba 083d
00000060: 104e 563c ccef 2bbc b88e f1bc cd67 fb29
00000070: 0915 242b 8550 cc2a 9ec5 9b29 3cf5 912a
00000080: 1e3d 40aa dedb eda9 8b3d 26ab b7ad 2cab
00000090: eff3 73bd 7293 e8bc 01d1 213d 9f7e 46bd
000000a0: 90f7 0bbc 2f08 943d c6a9 e93c c6c7 413d
000000b0: 44b7 2e3d efb9 462d f29c cc2d e0c2 36ad
000000c0: 7778 12ae 12e5 99ac e345 d92d 3a22 ddad
000000d0: 1dad 972d 2044 6f2d 8bce 2f3c 24f5 243d
000000e0: e2ed a63d c1b5 6a3d 758c 573d 797f 533d
000000f0: f40a 1f3d 81c1 503d f02c a43d 825a 83bc
00000100: 80dc 643d 9ba0 6e3d aeca 3fbd ccd0 b93c
00000110: 8a62 a53d 16be c2bd 1b5c 31bd 4714 e93c
00000120: ab9a 1d3b e070 23bd 1ea3 a7bd 13bc 12bd
00000130: 87e6 3a3d dc08 eb3c 88d0 f13b ef2a 443d
00000140: a705 703b 8c63 893d 09f5 f53d a32c eb3d
00000150: bd97 9abb 2862 7a3d f238 4c3d 1268 e73c
00000160: 54a8 d93c 4d8b 9abc 3d64 1abd 1bba 32bd
00000170: d94a 4c3c ffb6 77bc 2771 1abc 24e5 543d
00000180: dfc8 5e3c ce03 693d 974a d03d 4e0e d83a
00000190: 4118 253d 4790 283d 5c9e d5bd 3814 8bbd
000001a0: 75ec b4bb 01a7 0dbd c550 14bd ce5d 62bc
000001b0: ebc2 653d 53ea 8cbc 4d13 dfbc 75e1 66bc
000001c0: 52ae 09bd 113a 6b3d 8654 39bd f462 adbc
000001d0: 2611 6c3d 9454 84bc 48bd 093d 0941 943d
000001e0: c309 353d 645e a23d 11f8 103d 2d77 0b3d
000001f0: bd92 823c 4e34 7dbc e4f0 0bbd 380e bdbd
00000200: 1a99 3abd 5cf5 b43c a467 d9bc ac12 98bb
00000210: 4089 7d3d f9d8 9e3d 00ac 453d f878 013d
00000220: 69ac cd3c 4a9b 143d 6d8c 4cbd b33a 5fbc
00000230: 90d8 353d 20b1 fe3b b9a7 5c3d b5d0 9e3d
00000240: 2d5e 133d acdc 433d a916 babc a81d 853d
00000250: 64db 103d 44fe 56bd d031 c83c 8364 71ba
00000260: 73e0 96bd f474 a3bb 99e3 ea3b f301 333a
00000270: fbe1 5e3d 7aa4 823b f689 05bd 8728 a73d
00000280: ee97 863d 0dc8 793d 656d 7627 c3a3 a727
00000290: 21e4 bd27 a567 c3a6 a56e 3ba7 33eb a1a7
000002a0: e9f4 dd26 da9b 8127 4de7 d126 73af a23c
000002b0: a8d7 d5bc 4f59 9bbc e016 96bc 30a8 06bd
000002c0: c6ae 0e3d 2422 2dbd a3db f43b 411f b63d
000002d0: adf7 18bd 99f5 a0bc 002c 583d 6fab abbd
000002e0: e628 80bd a1ef e93c 9186 d53c b8b2 0e3c
000002f0: 0f10 78bc cb81 34bc d382 e4bb e56e 88bc
00000300: c061 9b3d 9d7d ef3c efef c0bd 2df2 be3c
00000310: 2a86 db3b 83ba 23bd f3c2 f73b 4045 f7ba
00000320: 622f 3fbc ebb0 d3bc 85df 4bbc 4b5b 6f3c
00000330: af07 053d fb65 82bc ceab e5bd d11b a4bc
00000340: 0cd7 603d 9b75 df3d 7086 163c 8147 f33c
00000350: 76c8 403d e25e 5f3c bdc6 973b 5248 453b
00000360: ef47 bea7 b385 46a7 c6e8 6ba7 3439 c6a7
00000370: 23a3 bb26 9ae3 7f27 0bbd 8ca7 9060 43a7
00000380: 9a47 10a7 15e6 58bc f3f6 7b3d 15d8 853d
00000390: 0565 9abc 6679 8dbc 73c5 c7bb 0e4c 01bd
000003a0: 5459 75bd 88cf 56bd be30 96bd 5ce9 eabb
000003b0: 3912 df3c e8c6 82ba f6f2 9c3d b8a1 a63d
000003c0: f88b 853c 6d3e 9b3c 6253 d9bb 960d 77bd
000003d0: 3f1b 55bc 5fb2 84bc 832b 87bd 81bb f7bc
000003e0: 7540 6fbc 70bd d0bd bcdd 92bd 60ae e63a
000003f0: 0a01 9d3c bd19 5bbc 3539 71bd 8808 7a3d

onnx::Conv_126 f4 [3, 1, 3, 3]
0.08280268 0.044520542 0.0733447 0.09791976 0.021442313 0.092407696 0.0016704033 0.009228756
0.0055182194 0.03965413 0.01570671 -0.088104665 0.06045208 0.02031245 -0.045877125 -0.2558481
0.01074894 0.013777894 -0.14301288 0.003179079 0.08118468 -0.097454734 -0.043502 0.016905682
0.11939177 -0.026550716 -0.21496725
00000000: 7494 a93d 2c5b 363d bf35 963d 288a c83d
00000010: caa7 af3c 3f40 bd3d 6ff1 da3a 3534 173c
00000020: 2ed2 b43b 5e6c 223d 5cab 803c 3870 b4bd
00000030: 9a9c 773d 4c66 a63c a7e9 3bbd 86fe 82be
00000040: 521c 303c adbc 613c f871 12be 1858 503b
00000050: 2744 a63d 5996 c7bd 272f 32bd c97d 8a3c
00000060: ac83 f43d e380 d9bc 6020 5cbe

onnx::Conv_127 f4 [3]
-0.06569129 0.13682748 0.13206291
00000000: 2889 86bd 811c 0c3e 803b 073e

onnx::Conv_129 f4 [16, 3, 1, 1]
3.641406 -3.434305 -1.2597594 -1.4606798e-23 5.2469887e-23 6.572849e-23 -4.6090054e-19 -1.9960568e-20
4.530148e-19 2.624306e-29 -9.5648644e-29 -4.7072394e-29 -2.5838267e-27 -2.6304234e-27 -2.1038044e-27 -6.2313075
0.13517073 0.57246095 -2.9711995e-28 -1.6594604e-27 -2.3894512e-27 -1.6014472e-25 3.048954e-25 -1.2046154e-25
-2.7980341e-14 2.9695234e-15 7.658334e-15 3.937125 -3.1880598 -0.8733943 6.3461165e-23 3.7445246e-22
1.0130871e-22 2.2934518 4.437831 1.9207743 -5.1158466 1.492028 1.162994 1.3582545e-26
1.0280752e-26 3.6151865e-26 0.11674087 2.267553 -8.672955 2.8147822e-25 3.5620215e-25 1.4971822e-24
00000000: cc0c 6940 a7cb 5bc0 cc3f a1bf ae44 8d99
00000010: 93ba 7d1a f7eb 9e1a a908 08a1 b185 bc9e
00000020: d5b4 0521 7111 0510 857f f290 76af 6e90
00000030: 3bb6 4c93 5367 5093 39ae 2693 df66 c7c0
00000040: 326a 0a3e cd8c 123f 7852 bc91 db79 0393
00000050: d44f 3d93 e33f 4696 9bb8 bc16 c91f 1596
00000060: 4606 fca8 0afa 5527 d5f5 0928 dbf9 7b40
00000070: 2c09 4cc0 c596 5fbf 8f70 991a b657 e21b
00000080: 0ef3 f41a eac7 1240 b602 8e40 efdb f53f
00000090: 04b5 a3c0 c6fa be3f fddc 943f d883 8614
000000a0: 9ba1 4b14 ef03 3315 d615 ef3d 971f 1140
000000b0: 6cc4 0ac1 013a ae16 7c7a dc16 7fad e717

onnx::Conv_130 f4 [16]
-0.030951042 -2.7053514e-13 -1.952637e-11 -2.1242397e-16 -1.1568529e-15 0.017670702 -5.6566867e-16 -1.4285702e-14
-3.897739e-09 -0.02833371 -9.353844e-13 0.06496137 0.014749798 -2.945858e-13 -0.01953667 -8.0552874e-14
00000000: 0a8d fdbc 394c 98aa 7ac1 abad 7de8 74a5
00000010: 57b8 a6a6 26c2 903c fb0a 23a6 96ac 80a8
00000020: e0ec 85b1 191c e8bc c6a4 83ab 770a 853d
00000030: 23a9 713c 4ad6 a5aa 5e0b a0bc 9263 b5a9

onnx::Conv_132 f4 [16, 3, 1, 1]
-0.27798146 -0.18197866 -0.09762533 9.07023e-28 5.5358957e-27 2.0882169e-27 4.843323e-28 5.057271e-28
2.4868934e-28 1.8307601e-28 -7.9200264e-29 -2.9839468e-29 0.4383013 0.088946484 0.09890677 -1.239314e-28
4.0698665e-28 -1.857923e-29 1.2850934e-28 2.0775293e-28 3.9317458e-28 -7.8055404e-24 1.0595976e-23 -5.8500394e-24
-0.44726267 -0.8980313 -0.511671 -3.8833843e-27 -2.1543976e-27 6.805769e-28 1.760065e-24 -4.004444e-24
1.5995432e-25 0.26598236 -0.4090726 -0.21941386 -1.4666743e-28 1.0768865e-28 -4.5861806e-29 9.750468e-21
-1.23400314e-20 1.03453435e-20 -0.15486756 -0.25040016 0.29793653 3.9151712e-28 -3.4729967e-28 6.087977e-29
00000000: 9653 8ebe 9d58 3abe caef c7bd 39b9 8f12
00000010: a74c db13 1272 2513 b47d 1912 7545 2012
00000020: 27a0 9d11 9013 6811 e9cb c890 d84d 1790
00000030: 0769 e03e 9329 b63d a28f ca3d 0a1a 1d91
00000040: aefa 0012 706a bc8f aae7 2211 d7ad 8311
00000050: 3934 f911 2afb 1699 bbf4 4c19 fc4f e298
00000060: 9dff e4be 61e5 65bf dffc 02bf 32d6 9993
00000070: 60b0 2a93 f5ae 5712 ae2d 0818 18ea 9a98
00000080: 8c03 4616 d72e 883e f771 d1be 07ae 60be
00000090: 4dec 3991 f782 0811 078c 6890 5f2e 381e
000000a0: bb18 699e 036b 431e 9a95 1ebe 7334 80be
000000b0: 238b 983e 4927 f811 9820 dc91 3b59 9a10

onnx::Conv_133 f4 [16]
0.034167655 -3.0245914e-15 -2.3397509e-15 -1.6701662e-15 -0.07046744 -1.2921913e-15 -1.996068e-15 -1.9409968e-12
0.1625639 -2.419139e-15 -9.974916e-14 0.049338035 -8.187471e-16 -9.094155e-12 0.020723129 -1.8850053e-15
00000000: 62f3 0b3d ddf1 59a7 c998 28a7 42b2 f0a6
00000010: 3c51 90bd 7239 baa6 f5d4 0fa7 e495 08ac
00000020: 2777 263e 3d51 2ea7 7a9d e0a9 ae16 4a3d
00000030: dffc 6ba6 6ffc 1fad 8dc3 a93c 36d4 07a7

onnx::Conv_135 f4 [32, 16, 1, 1]
0.7380261 -8.7696116e-13 8.4614416e-15 -7.196147e-15 0.000270871 -0.055436894 -5.918419e-15 7.252088e-15
-2.3303208 -0.9252088 8.921945e-14 -0.0144199645 0.16183293 -1.825105e-13 0.48704454 1.0408267e-14
-1.6166168 -1.4910168e-13 5.3018257e-15 -5.5746038e-15 2.3283026 -1.246447 -8.413222e-15 -2.5734918e-14
0.24545632 0.60071206 1.5358736e-13 -3.0582516 0.88756794 2.884262e-14 1.4767721 8.4900437e-14
3.2145932e-25 3.934315e-26 8.277238e-28 3.7294116e-27 -5.3818533e-27 -2.5516118e-25 6.0776906e-27 7.9398417e-28
-2.2975857e-25 -5.1028518e-26 -1.7630316e-26 2.9000511e-25 2.432313e-26 9.533318e-27 -4.203827e-25 -1.00980906e-26
1.2430586e-26 3.8014948e-26 -4.124956e-27 -3.1361267e-27 -1.25188774e-26 -2.3446384e-26 -1.2143623e-27 3.216779e-27
7.263375e-26 8.440577e-28 6.354089e-27 1.689731e-25 6.536759e-26 1.177015e-27 -1.7885857e-25 1.9456218e-27
0.65811545 -8.4663044e-14 -9.71751e-16 5.6493574e-15 -2.2922316 -1.2021371 -8.309999e-15 2.8534792e-14
1.6785735 -0.008582538 -6.6145006e-14 2.292333 1.71415 6.096201e-15 -4.4050093 6.3121705e-16
-6.689931e-28 -1.1984748e-29 1.8439271e-28 2.3885595e-28 2.396977e-28 -4.8448776e-28 -1.775008e-28 3.941129e-28
-4.5270684e-29 2.6306236e-28 2.859665e-29 1.1236871e-28 -7.6650943e-28 2.8498383e-28 -5.020287e-28 -2.653222e-29
-0.17624345 -1.4165489e-14 -1.891866e-15 -6.955889e-15 -0.0985574 -0.3754451 -5.503583e-15 -1.6084407e-14
-1.0773256 0.12769918 1.8022018e-14 -0.07096259 0.42030838 -3.7773727e-15 0.3501192 -1.9713699e-15
-6.772798 -7.7376164e-13 2.4121194e-14 3.267408e-15 -0.6759494 -5.168197 4.9337213e-15 5.1464866e-15
-1.6256105 -6.389542 2.3494658e-13 -1.7818075 4.4824333 -2.8338846e-14 0.4078189 -2.748444e-14
4.1195813e-29 -4.233878e-28 -1.782958e-28 6.280687e-29 2.0249449e-29 3.6285204e-28 -6.3104244e-29 4.4922715e-30
-2.8895974e-28 2.9551322e-28 -2.0267577e-28 2.3950087e-28 -2.3406077e-28 -2.9941708e-29 -2.6342995e-28 1.2581158e-28
1.2850333 -3.8168454e-13 2.864965e-15 -4.1476675e-15 0.6312359 5.947532 -3.0280273e-14 5.1331562e-14
0.26047656 2.8289554 -8.233228e-14 0.06640406 -6.3088207 -5.9126525e-14 1.3452629 1.5065553e-14
-3.3118818 -4.325223e-13 7.584975e-15 -2.1939487e-15 0.22639546 -1.1139805 9.119804e-15 -2.3663509e-14
-2.1510892 -2.1135824 1.4398972e-13 -1.5557376 0.86346245 -1.9330618e-14 1.6644664 1.16794315e-14
1.7410352 -2.587934e-15 1.01357385e-14 -6.9447477e-15 4.3584847 3.9156914 -4.632445e-15 -4.7182306e-15
1.3975017 4.7040997 4.7319045e-14 -2.813258 -4.163024 -1.2841209e-14 3.9904416 1.6791195e-14
-8.877538e-28 -1.4635322e-28 -4.520284e-28 4.8740905e-28 7.051345e-28 4.6568784e-28 3.2951913e-28 2.9242295e-28
2.6368908e-28 6.6664876e-28 -9.232544e-28 -4.1505784e-28 2.9919452e-28 1.1153287e-27 -6.729851e-28 3.8720155e-28
3.321014e-19 -3.5884578e-22 2.367359e-26 -2.0843385e-24 4.9365477e-19 1.749316e-18 -5.733698e-24 9.9241526e-24
-2.2618147e-19 7.431981e-20 6.8820004e-23 -1.0486003e-19 -1.3345923e-18 -4.3783124e-23 5.740406e-19 1.506504e-23
1.569987 -4.746909e-13 2.4034533e-14 1.15745816e-14 -0.71961063 1.5541204 6.3862246e-14 -2.9842794e-14
-5.791028 -2.0929132 -1.0376188e-13 0.34062374 -1.2156376 -1.04906636e-13 2.9407108 5.7179383e-15
2.6417261e-28 -4.7976937e-28 1.6274756e-28 -5.927214e-28 4.2199884e-28 1.3781582e-27 -4.490174e-28 7.5443385e-28
-7.637902e-28 -3.2706188e-28 1.0614365e-27 3.2161504e-28 -8.69372e-28 2.6749698e-28 2.0832324e-28 2.309816e-28
00000000: 47ef 3c3f b6d7 76ab 836d 1828 5fa2 01a8
00000010: b103 8e39 cc11 63bd c83b d5a7 5aa4 0228
00000020: fa23 15c0 7cda 6cbf 83e7 c829 b741 6cbc
00000030: 88b7 253e 127d 4daa e75d f93e a97f 3b28
00000040: 4ded cebf a2df 27aa b604 bf27 a5d8 c8a7
00000050: e902 1540 938b 9fbf 238f 17a8 aecc e7a8
00000060: e758 7b3e 44c8 193f 8bec 2c2a 65ba 43c0
00000070: a737 633f 47e5 0129 de06 bd3f c52d bf29
00000080: 43f9 c616 5ed1 4215 7728 8312 babc 9313
00000090: 7a32 d593 e7ef 9d96 1bc3 f013 a69f 7b12
000000a0: b336 8e96 55ae 7c95 299a ae94 2581 b316
000000b0: 76e2 f014 aad3 3c14 261a 0297 6703 4894
000000c0: 8f36 7614 ac3d 3c15 0668 a393 3578 7893
000000d0: 40f6 7794 a533 e894 636c c092 07dc 7e13
000000e0: 1cd5 b315 0cbf 8512 1eb6 fb13 b72d 5116
000000f0: a2d7 a115 6781 ba12 8b6a 5d96 e625 1a13
00000100: 417a 283f eca4 bea9 490b 8ca6 208a cb27
00000110: ecb3 12c0 a1df 99bf 1bb3 15a8 6082 0029
00000120: 7fdb d63f c69d 0cbc 00f2 94a9 95b5 1240
00000130: 4469 db3f 88a3 db27 d6f5 8cc0 99ef 3526
00000140: 2b03 5492 5f14 738f dbbe 6911 9864 9711
00000150: 2ded 9711 518a 1992 4e02 6191 79cc f911
00000160: b58c 6590 4fbc a611 9300 1110 bb71 0e11
00000170: a2ea 7292 45a1 b411 6819 1f92 ca88 0690
00000180: 2a79 34be ca2e 7fa8 c552 08a7 c19c faa7
00000190: 76d8 c9bd 573a c0be 9849 c6a7 1ee0 90a8
000001a0: cee5 89bf 93c3 023e f253 a228 d654 91bd
000001b0: a932 d73e 1d18 88a7 d342 b33e 5b0d 0ea7
000001c0: c3ba d8c0 67cb 59ab b043 d928 0a71 6b27
000001d0: 050b 2dbf df61 a5c0 8cc1 b127 f66b b927
000001e0: 0114 d0bf 2177 ccc0 5f43 842a 4512 e4bf
000001f0: 1870 8f40 ee40 ffa8 a4cd d03e ce8e f7a8
00000200: 39e3 5010 4d2d 0692 4c04 6291 fd3b 9f10
00000210: 935a cd0f 1cfc e511 fffc 9f90 6a3a b60e
00000220: 6626 b791 c34d bb11 0676 8091 3dcd 9711
00000230: 885a 9491 8fd2 1790 f4f7 a691 317c 1f11
00000240: f97b a43f 8ade d6aa 4771 4e27 7b6f 95a7
00000250: ad98 213f 2f52 be40 c75e 08a9 432d 6729
00000260: 2f5d 853e 9b0d 3540 5465 b9a9 dafe 873d
00000270: dce1 c9c0 1f24 85a9 9331 ac3f cdb2 8728
00000280: dff5 53c0 087d f3aa 86a3 0828 3617 1ea7
00000290: 36d4 673e ea96 8ebf ac49 2428 5624 d5a8
000002a0: 72ab 09c0 ef44 07c0 361e 222a 6922 c7bf
000002b0: e00b 5d3f 5f1d aea8 3c0d d53f df65 5228
000002c0: 3eda de3f f57a 3aa7 d896 3628 fe35 faa7
000002d0: b578 8b40 b09a 7a40 c4e6 a6a7 fffd a9a7
000002e0: 56e1 b23f fc87 9640 251b 5529 6b0c 34c0
000002f0: 7e37 85c0 a053 67a8 6563 7f40 dc3d 9728
00000300: 93ab 8c92 5686 3991 e740 0f92 5277 1a12
00000310: 4f77 5f12 1695 1312 89db d011 5658 b911
00000320: 0022 a711 f944 5312 a64b 9292 7e89 0392
00000330: 16a3 bd11 1bbb b012 0a47 5592 0b6b f511
00000340: bf09 c420 b2e8 d89b ae73 ea14 9444 2198
00000350: 80b3 1121 a513 0122 cbcf dd98 06f6 3f19
00000360: 9483 85a0 927b af1f 8565 a61a 0098 f79f
00000370: 79f3 c4a1 e2b8 539a 486d 2921 3bb3 9119
00000380: 56f5 c83f 169d 05ab dc7b d828 5682 5028
00000390: 6738 38bf 6bed c63f 14ce 8f29 6666 06a9
000003a0: 1a50 b9c0 4af2 05c0 a7a6 e9a9 3c66 ae3e
000003b0: 039a 9bbf 8f3a eca9 9b34 3c40 ac02 ce27
000003c0: 7570 a711 840b 1892 9a4e 4e11 46d7 3b92
000003d0: 9dbc 0512 bd60 da12 9f4c 0e92 f216 6f12
000003e0: 060e 7292 d34c cf91 fb30 a812 06d9 cb11
000003f0: ebc1 8992 de8b a911 610a 8411 e866 9211

onnx::Conv_136 f4 [32]
0.079679586 0.022480799 -9.183681e-15 -9.771377e-15 0.06155792 -4.3455556e-16 0.011014528 0.06569199
-1.9924872e-16 -0.008541863 0.04138632 -0.010622364 -5.9782865e-16 -2.797432e-11 0.07031749 -3.4583204e-16
-1.9224351e-14 -1.0976577e-15 4.3881906e-15 0.03523151 0.09726065 -3.472439e-16 -3.403797e-16 -5.222065e-14
4.153972e-15 -2.6040935e-16 -0.02964063 -0.033690095 -9.233157e-16 0.053582706 0.05531797 -0.025732893
00000000: 0d2f a33d a729 b83c 4170 25a8 8606 30a8
00000010: 2824 7c3d 1581 faa5 4776 343c 8689 863d
00000020: d8b7 65a5 2cf3 0bbc b484 293d 6c09 2ebc
00000030: f84f 2ca6 9210 f6ad 9e02 903d cd5b c7a5
00000040: 5628 ada8 6c30 9ea6 ea19 9e27 ea4e 103d
00000050: 9730 c73d 282c c8a5 2d37 c4a5 4f2e 6ba9
00000060: a1a9 9527 a31d 96a5 e8d0 f2bc a0fe 09bd
00000070: 5610 85a6 8a79 5b3d 1995 623d cacd d2bc

onnx::Conv_138 f4 [32, 16, 1, 1]
1.1398857e-28 -1.7753716e-28 -1.3326203e-28 -4.2424704e-29 -2.4036465e-28 -6.24624e-30 -1.4161492e-28 -3.067244e-29
-7.173407e-29 1.0498647e-28 -1.5095984e-28 -1.3851627e-29 1.9710035e-29 -2.1269734e-28 2.4491684e-29 -2.194652e-28
-1.9187635e-26 3.9932355e-26 1.5556714e-27 3.8674168e-27 -1.7849234e-26 -1.4919582e-25 3.3150874e-27 -8.8856006e-27
-2.1893472e-26 3.712869e-27 8.8368057e-26 2.4182827e-25 -7.791397e-26 4.2646965e-27 -1.0618445e-26 1.6818206e-26
-0.004209403 -8.3117315e-12 1.3453862e-10 -1.24032305e-14 -0.17645186 0.09921786 1.9144913e-14 1.282105e-13
0.55733216 0.043953113 -3.142703e-12 0.48742485 0.1411534 9.371712e-13 1.4756151 -4.4255257e-13
-1.224772e-23 -1.1357466e-24 3.7469917e-25 -8.1076887e-26 -9.736485e-24 4.0443885e-24 1.1820496e-26 4.3410725e-25
3.0502985e-24 -2.6005567e-23 4.3012956e-25 1.4378461e-24 -4.065619e-25 -9.327422e-24 3.0363635e-23 -3.0600233e-25
-0.10721259 -3.330644e-12 2.0785472e-10 -8.6180825e-15 -0.1265487 0.18134312 -9.887414e-15 1.6763873e-12
-0.04864807 -0.176172 -2.8711382e-12 -0.51195806 0.076926924 4.0126416e-11 0.25132465 -6.432342e-13
1.6381829e-19 -1.3763349e-21 -5.5972057e-22 1.062427e-24 -3.1777397e-19 -1.6100895e-19 1.5543002e-23 1.9194075e-22
1.2448702e-19 5.632563e-20 -2.2618394e-21 -4.2890304e-20 -1.1973531e-19 -4.118963e-20 8.859806e-19 -2.8556487e-23
-0.18127179 3.6996777e-12 -2.2805473e-12 -2.6211518e-14 -0.64675796 -0.41995442 -2.402896e-14 -4.8602684e-12
1.1270355 -0.5294016 1.9895368e-12 0.15113287 -0.42223933 -2.7261526e-10 -0.6623715 1.3419444e-13
-1.4176431 3.060656e-12 3.1313094e-10 2.2666732e-14 -0.4681978 -0.926754 1.1154549e-14 -5.54221e-12
0.46566823 -0.99008995 5.3839554e-12 0.59230685 -0.81636584 1.3975475e-11 0.0004275288 2.4658221e-13
-0.53732747 1.6465585e-12 2.4611257e-10 -2.5433924e-15 -0.7739014 -0.22687489 1.0545827e-14 7.552637e-12
0.27562457 -0.5166658 1.6405861e-11 0.79433125 -0.020270435 1.221213e-10 1.5649037 2.0414903e-13
1.1823721e-27 -2.8062777e-27 -2.4873342e-28 3.0774512e-28 1.2811345e-29 3.547421e-27 1.1612319e-28 -7.3932907e-28
-5.2900253e-27 1.7373556e-27 -3.9168204e-27 -3.1170976e-27 3.9341456e-27 -1.3623345e-27 2.7442813e-27 -6.91975e-28
-1.4576793 5.9676075e-12 -2.0876222e-10 1.2933568e-15 -0.08890241 -1.1140938 6.139048e-15 -8.898601e-14
0.2145474 -0.84535784 4.5911022e-12 0.7453325 -0.829162 5.7169797e-11 -0.34692398 3.0064287e-13
-0.073598035 4.1665025e-13 8.637453e-11 9.547659e-15 0.54363996 0.48701784 1.07998895e-14 -5.4634726e-12
-0.434166 0.015538799 -8.015638e-13 0.22993673 0.55411696 1.9480292e-10 -0.63671273 2.9059593e-14
-1.455273 1.0965031e-11 2.5070013e-10 -1.9528236e-14 -0.18811154 -0.70858955 -3.8600494e-14 -2.2597792e-12
0.10303792 -0.9459669 8.013854e-12 1.1292042 -0.5112404 2.8702402e-10 -0.3243041 2.0856499e-13
0.43047792 6.209902e-12 3.1449524e-10 2.3996848e-16 -0.35163462 1.3580941 1.7283691e-15 -2.9624408e-12
0.11382911 -0.39191788 6.1484525e-13 -0.04849946 2.153341 -5.0314555e-11 -0.23253666 1.572065e-13
5.5496956e-24 -5.10385e-24 -3.2620996e-25 -6.065274e-26 -5.309722e-23 4.254662e-24 -4.2160317e-26 -7.854255e-25
-6.036371e-24 -1.0069624e-23 -5.7604043e-24 -1.7818594e-23 -2.5402291e-24 -5.438653e-23 5.782956e-24 -8.524448e-26
0.51596296 1.6517996e-12 2.4950056e-11 3.4782332e-15 0.07579169 1.8425952 -2.1143704e-15 4.580951e-13
0.07947274 -0.027910963 -2.5100776e-12 -0.22393987 1.691638 1.8274078e-11 -0.41122428 -7.786564e-14
00000000: 687f 1011 1a0e 6191 00ee 2891 6a1e 5790
00000010: 6559 9891 aa60 fd8e ab84 3391 1a87 1b90
00000020: 13de b590 0f16 0511 455d 3f91 e178 8c8f
00000030: 2de2 c70f 1ed0 8691 0c60 f80f 441a 8b91
00000040: 6f06 be94 46bc 4515 8781 f612 4434 9913
00000050: 2fc5 b094 0bb2 3896 fb52 8313 59ff 2f94
00000060: 8cd2 d894 f714 9313 e9c9 da15 38af 9516
00000070: d8e7 c095 29f1 a813 ea51 5294 388f a614
00000080: 08ef 89bb b638 12ad 41ed 132f ce6f 5fa8
00000090: ccaf 34be bc32 cb3d 2a71 ac28 295a 102a
000000a0: 52ad 0e3f 2e08 343d e725 5dac c08f f93e
000000b0: 848a 103e 27e5 832b f5e0 bc3f 8c22 f9aa
000000c0: c6e7 6c99 8fbf af97 74ed e716 95bc c895
000000d0: bd54 3c99 af75 9c18 0921 6a14 8559 0617
000000e0: 6301 6c18 aa82 fb99 601e 0517 f47e de17
000000f0: 4ea6 fb96 286b 3499 5cd4 121a 0168 bd96
00000100: 4692 dbbd 8c5f 6aac e789 642f e43f 1ba8
00000110: fb95 01be 03b2 393e a61d 32a8 38ee eb2b
00000120: 3343 47bd 6f66 34be d409 4aac af0f 03bf
00000130: dd8b 9d3d 547a 302e a0ad 803e e90d 35ab
00000140: 0a67 4120 61fc cf9c 482a 299c 1267 a417
00000150: a594 bba0 f815 3ea0 9c52 9619 c90a 681b
00000160: e5f7 1220 c1fe 841f 56e6 2a9d 328b 4a9f
00000170: c75b 0da0 3583 429f 67bf 8221 3817 0a9a
00000180: 509f 39be bc2b 822c b07a 20ac a517 eca8
00000190: ee91 25bf 4404 d7be 026f d8a8 6801 abac
000001a0: b342 903f dd86 07bf 4f00 0c2c 93c2 1a3e
000001b0: c12f d8be 30df 95af 2e91 29bf ea16 172a
000001c0: 5475 b5bf e05f 572c 4325 ac2f ed29 cc28
000001d0: 9fb7 efbe c03f 6dbf 47f1 4828 caff c2ac
000001e0: 116c ee3e 8976 7dbf 5c6e bd2c 6ca1 173f
000001f0: 5afd 50bf f2db 752d f225 e039 3ed0 8a2a
00000200: 4b8e 09bf 86bb e72b 444d 872f 4f45 37a7
00000210: 671e 46bf e451 68be 0bfa 3d28 0ede 042d
00000220: aa1e 8d3e 3644 04bf b74e 902d 4b59 4b3f
00000230: 2f0e a6bc 1746 062f c44e c83f f4d9 652a
00000240: b65a bb12 1356 5e93 4ea7 9d91 800e c311
00000250: 27ec 810f 1f87 8c13 2134 1311 804d 6a92
00000260: 3b8f d193 c2a5 0913 4729 9b93 40f6 7693
00000270: fad8 9b13 dade d792 a36c 5913 ae4b 5b92
00000280: 3c95 babf 6ef7 d12c 5789 65af 7264 ba26
00000290: 7712 b6bd a09a 8ebf b92e dd27 f160 c8a9
000002a0: 50b2 5b3e 5f69 58bf f988 a12c 1cce 3e3f
000002b0: f643 54bf 786f 7b2e 05a0 b1be 343f a92a
000002c0: 91ba 96bd a18d ea2a 8af0 bd2e cefe 2b28
000002d0: fd2b 0b3f 675a f93e b38d 4228 963a c0ac
000002e0: 024b debe 7296 7e3c c29e 61ab 8974 6b3e
000002f0: 9cda 0d3f 2630 562f 9bff 22bf 6edf 0229
00000300: 6346 babf 1ce6 402d e8d2 892f 0ce5 afa8
00000310: 50a0 40be 2066 35bf 57d7 2da9 9004 1fac
00000320: 8c05 d33d e32a 72bf 31fb 0c2d c389 903f
00000330: a7e0 02bf 0acb 9d2f 300b a6be c4d2 6a2a
00000340: 9a67 dc3e d37d da2c 45e5 ac2f 1955 8a25
00000350: 7409 b4be 07d6 ad3f 9115 f926 9776 50ac
00000360: 3d1f e93d 76a9 c8be 4510 2d2b 5fa7 46bd
00000370: 57d0 0940 2749 5dae 171e 6ebe b0ff 302a
00000380: 86b1 d618 1572 c598 08ea c996 3e2b 9695
00000390: 9661 809a 2298 a418 8dc4 5095 d213 7397
000003a0: 5385 e998 5dc6 4299 48d8 de98 b454 ac99
000003b0: 6c8a 4498 a27f 839a 9fb7 df18 1c0e d395
000003c0: 2616 043f 5a78 e82b 8876 db2d 14a2 7a27
000003d0: ac38 9b3d 29da eb3f 405b 18a7 3bf1 002b
000003e0: 9bc2 a23d 88a5 e4bc 8aa1 30ac 7e50 65be
000003f0: 9887 d83f 91bd a02d fd8b d2be 7c56 afa9

onnx::Conv_139 f4 [32]
-7.994736e-16 -2.1260917e-14 -0.17113547 2.3432005e-13 0.07314596 3.1524186e-11 0.030032972 0.033219986
-0.13896619 -3.8451145e-15 0.085153356 0.05728071 0.04965288 -0.020279946 -2.7327156e-13 0.0014771875
-0.10539603 -0.14882016 3.7859306e-15 0.04520303 0.16393974 -0.0060512573 0.0035076514 -0.08958665
5.276875e-16 0.050322525 -0.17174913 -0.04748509 -0.045923475 0.014585577 0.08137636 -0.08597628
00000000: bd6e 66a6 5680 bfa8 233e 2fbe 14e9 832a
00000010: 8dcd 953d 14a5 0a2e b507 f63c ae11 083d
00000020: 274d 0ebe ec88 8aa7 e264 ae3d 2e9f 6a3d
00000030: d160 4b3d 2122 a6bc 95d6 99aa 309e c13a
00000040: e0d9 d7bd 5064 18be 0c67 8827 d026 393d
00000050: d2df 273e a049 c6bb a0e0 653b 3579 b7bd
00000060: 7718 1826 fe1e 4e3d 01df 2fbe ba7f 42bd
00000070: 411a 3cbd 58f8 6e3c a6a8 a63d 5514 b0bd

onnx::Conv_141 f4 [64, 32, 1, 1]
6.352594e-22 1.7161219e-21 -3.4381318e-21 3.9889096e-22 -2.5893205e-21 -1.3569794e-21 1.28757545e-20 -6.0785408e-21
4.8970304e-21 5.8191724e-21 -5.070349e-21 -5.6494194e-21 -7.079888e-21 -1.7513805e-21 2.2405471e-21 2.4066452e-21
-4.9135752e-21 -1.4575817e-20 -6.145969e-25 -3.5793345e-21 -6.184579e-21 2.0776535e-21 -3.9775174e-21 5.984666e-22
3.5916916e-24 8.4050926e-22 -2.6957794e-21 -1.2005031e-21 -5.7919603e-21 8.8434404e-21 -4.9501085e-21 -4.2243435e-21
-3.5531786e-27 2.8886172e-27 7.6676953e-28 7.6252656e-28 1.4477562e-27 -5.414823e-28 7.3940014e-28 1.9228657e-28
2.4523102e-28 -5.2671935e-28 4.6390765e-28 1.3124804e-27 -2.5385651e-28 7.40378e-28 -2.5688448e-27 -8.597607e-28
2.0319788e-27 -6.1727653e-28 3.6559813e-28 -9.398533e-28 -9.616745e-28 3.5506564e-27 -1.4240382e-27 -4.816262e-28
-3.0880156e-28 -1.52427995e-27 -7.33631e-28 5.1779844e-27 1.761944e-27 3.2886198e-27 -3.2808945e-27 1.5248933e-27
8.471725e-28 6.095757e-28 2.426977e-27 -7.9900207e-29 1.479657e-28 1.1615213e-27 -1.8502738e-27 -2.2325893e-28
-1.0656142e-27 6.3582747e-28 1.6875657e-28 6.023731e-29 3.5237777e-28 6.1779273e-28 2.9176986e-28 1.531454e-28
3.82745e-29 1.5025839e-27 -6.714388e-28 6.7645843e-28 1.5570166e-28 -8.425261e-28 -3.7236146e-28 7.0754554e-28
4.3717266e-28 1.4866878e-28 5.3964136e-29 -2.2072359e-27 -4.348356e-28 -1.0928915e-27 2.6900532e-27 1.1722804e-27
0.4011861 2.0951533 0.5508059 -1.1845313e-11 -0.63481927 9.520177e-11 -1.1640766 -0.20231456
0.58063215 -0.8893881 -1.0498167 1.4892423 0.29357046 0.049747795 -0.3225431 -0.86047226
0.43964064 0.41622013 -3.524985e-14 -1.0644553 0.36804026 0.2602187 0.20802839 -0.6096798
-2.519114e-14 -0.36062253 1.306013 -0.05792472 -0.014875368 2.3944256 -0.12871695 0.24029374
2.7649148e-15 1.3768771e-14 1.0701677e-14 5.35397e-20 -3.5919474e-15 2.4238376e-17 -1.7476019e-15 -5.2792273e-15
-3.072362e-15 -5.9559202e-15 -1.9972484e-15 5.0453814e-15 -5.5131237e-17 -7.536835e-15 1.354293e-15 -5.1376667e-16
-4.6710987e-15 1.1748167e-14 -1.2465435e-21 -2.7297293e-15 1.4395012e-15 -2.3063983e-15 -4.1492146e-15 1.4477511e-15
4.6176945e-23 2.063758e-15 1.0344971e-14 -6.1346573e-15 -3.3572593e-15 1.3556999e-14 -7.363364e-15 -4.939012e-15
2.0474774e-24 6.745266e-24 7.5257316e-25 -2.16143e-24 -5.5540174e-24 -1.718064e-23 8.911122e-24 -2.7186688e-25
-5.188875e-24 6.0225578e-24 -5.326204e-24 3.058798e-24 -1.2006385e-23 -6.4020452e-24 1.1563899e-23 1.4843068e-24
-4.592481e-24 5.8950447e-24 -7.3091507e-26 7.098448e-24 2.113769e-23 -1.489795e-23 9.96865e-24 -2.3762417e-24
-5.5091315e-26 -1.1890201e-23 2.6720243e-24 2.3225324e-23 -1.4839793e-23 5.49691e-24 2.9431781e-24 2.8131488e-24
-0.4850219 0.12699969 -0.50772345 2.520078e-12 -0.5594225 -1.7619606e-10 -0.24148029 -1.5180203
-1.5322756 -0.1825985 -0.80789393 -0.52959687 0.43011728 -1.3865741 0.95561826 2.8204036
-1.2109828 -0.6086003 -4.6670325e-15 -1.0429114 -1.0895859 0.8241778 -1.3345118 0.13016884
-4.6150092e-14 -0.09081631 -1.5116546 1.5470543 -1.4656432 0.7198049 -0.89173347 0.29328766
3.4175156e-16 -3.0387858e-16 -1.5176985e-16 -3.78195e-20 -3.1973014e-16 -1.3699495e-17 2.1492131e-16 -2.3358363e-16
1.3520863e-15 -7.3761916e-16 4.5442815e-16 -8.0613894e-16 -4.51577e-16 -7.0838366e-16 6.378097e-16 5.5674495e-18
-1.6051873e-15 3.436098e-17 -2.090747e-21 5.7960347e-16 9.778823e-19 3.2810327e-16 -6.5042797e-16 -1.1409291e-15
-1.6232305e-21 -1.5834296e-15 9.353717e-16 -4.8022877e-16 -7.561215e-17 -4.0832843e-16 1.7425356e-15 2.911969e-15
00000000: d1fe 3f1c a0aa 011d 92e3 819d 631d f11b
00000010: bea4 439d 990f cd9c 5437 731e 0aa4 e59d
00000020: 2c01 b91d 95d7 db1d 688d bf9d d56d d59d
00000030: 3dbc 059e a054 049d 7c4a 291d 4ad7 351d
00000040: 2fa1 b99d 2aaa 899e 6235 3e97 3339 879d
00000050: 94a5 e99d aafb 1c1d 3044 969d 1ce0 341c
00000060: 64f2 8a18 4107 7e1c f5af 4b9d 376a b59c
00000070: 67d0 da9d 410c 271e 8302 bb9d 5897 9f9d
00000080: 83c1 8c93 1edc 6413 bcff 7212 81a7 7112
00000090: f867 e512 439a 2b92 4453 6a12 8fc0 7311
000000a0: 026f 9b11 8dec 2692 a904 1312 88f8 cf12
000000b0: 93e6 a091 99a2 6a12 5d86 4b93 0a3c 8892
000000c0: 6dfd 2013 6c9f 4392 b0b9 e711 fbec 9492
000000d0: 2762 9892 efa7 8c13 daa5 e192 29a2 1892
000000e0: ebb9 c391 2488 f192 387f 6892 001f cd13
000000f0: 7898 0b13 9146 8213 39f8 8193 05a1 f112
00000100: 663d 8612 a82e 4112 f148 4013 3392 ca90
00000110: 9d91 3b11 e70c b812 0398 1293 d581 8d91
00000120: 73da a892 7480 4912 a3ec 5511 40b8 9810
00000130: 9058 df11 4dc9 4312 5eee b811 8622 4211
00000140: 2413 4210 0b18 ee12 96c9 5492 d460 5612
00000150: 1460 4511 eb80 8592 1a03 ec91 ea3a 6012
00000160: a98b 0a12 c775 3c11 bad0 8810 10e0 2e93
00000170: 0ece 0992 f22c ad92 c320 5513 58c1 b912
00000180: 4468 cd3e fe16 0640 9e01 0d3f 8c62 50ad
00000190: 8483 22bf d559 d12e 7600 95bf 8c2b 4fbe
000001a0: 4fa4 143f f0ae 63bf 6560 86bf 7e9f be3f
000001b0: de4e 963e 58c4 4b3d 5f24 a5be e947 5cbf
000001c0: 9418 e13e ce1a d53e 4fc0 1ea9 1240 88bf
000001d0: c66f bc3e 633b 853e 6505 553e fa13 1cbf
000001e0: d0e6 e2a8 84a3 b8be 6f2b a73f 7942 6dbd
000001f0: d1b7 73bc 453e 1940 60ce 03be 900f 763e
00000200: ad3b 4727 4009 7828 c6c8 4028 87d5 7c1f
00000210: de69 81a7 3f8f df23 21db fba6 4734 bea7
00000220: 1363 5da7 ab95 d6a7 bbea 0fa7 6ec7 b527
00000230: 7a3f 7ea4 84c5 07a8 982c c326 4a15 14a6
00000240: 484b a8a7 dca2 5328 515f bc9c 9eb2 44a7
00000250: 3874 cf26 8a31 26a7 c07d 95a7 97a4 d026
00000260: 4a4c 5f1a 9eb5 1427 c25b 3a28 3a06 dda7
00000270: 81ea 71a7 9f38 7428 86a5 04a8 58f2 b1a7
00000280: 786a 1e18 f078 0219 fde8 6817 883b 2798
00000290: 53dc d698 3429 a699 bd5d 2c19 0747 a896
000002a0: 21bc c898 86fc e818 2b0c ce98 bca9 6c18
000002b0: bd3c 6899 c9aa f798 a8ad 5f19 73af e517
000002c0: bba9 b198 b20d e418 3ff7 b495 d04d 0919
000002d0: 636e cc19 8a15 9099 5dd2 4019 51da 3798
000002e0: 4566 8895 6cfd 6599 e5bc 4e18 1e9f e019
000002f0: 8c85 8f99 c3a6 d418 a6b7 6318 27a8 5918
00000300: ca54 f8be 350c 023e 2afa 01bf b055 312c
00000310: 5036 0fbf c8ba 41af 9c46 77be 7d4e c2bf
00000320: 9b21 c4bf 1afb 3abe 23d2 4ebf a993 07bf
00000330: 5538 dc3e 437b b1bf 66a3 743f 7e81 3440
00000340: 7c01 9bbf 3bcd 1bbf c725 a8a7 1f7e 85bf
00000350: 8d77 8bbf 51fd 523f 48d1 aabf fb4a 053e
00000360: 6fd7 4fa9 e7fd b9bd e67d c1bf e005 c63f
00000370: 329a bbbf 2245 383f a548 64bf cd29 963e
00000380: a101 c525 902c afa5 8efa 2ea5 f898 329f
00000390: d74f b8a5 09b6 7ca3 93c9 7725 dca6 86a5
000003a0: 2edb c226 b09a 54a6 e1fa 0226 8e5a 68a6
000003b0: 8028 02a6 7d2d 4ca6 0dd6 3726 1367 cd22
000003c0: f554 e7a6 4976 1e24 eef8 1d9d 300f 2726
000003d0: 594f 9021 7f23 bd25 1d79 3ba6 db6c a4a6
000003e0: b04b f59c 3e32 e4a6 20cd 8626 a16a 0aa6
000003f0: 8959 aea4 a462 eba5 3720 fb26 59d4 5127

onnx::Conv_142 f4 [64]
-1.2496641e-12 -1.090239e-15 -9.38572e-16 0.013905952 -4.1955404e-09 -8.5566055e-14 0.0030173268 -1.479084e-09
-3.0602973e-10 -4.5273754e-15 -5.1517752e-11 0.008897775 -3.6351997e-16 0.0005054092 0.0121809635 -0.0043633264
-3.539203e-15 0.010085651 -1.5342586e-12 -2.2554888e-14 -3.6935925e-16 -4.0160307e-16 -5.6737502e-15 0.0014492562
-4.2030456e-14 -3.4173957e-16 -3.4947648e-14 0.0015880289 -2.4182826e-13 -0.0065456685 -1.257291e-14 -6.278024e-11
-0.008972804 -1.1034725e-12 0.01319823 -9.208315e-14 -2.0511002e-12 -2.5738057e-15 -2.7431465e-15 -4.6245145e-16
-3.9231242e-16 0.0019078283 0.0183277 -1.3337454e-15 0.024499688 0.01404162 0.021967769 0.0051999595
0.012429088 -1.3630093e-15 -9.932881e-12 -7.859015e-15 0.024532763 -1.6387999e-14 -4.009396e-15 -9.500588e-10
-3.0263053e-16 -5.883465e-16 -1.0565372e-15 0.020978404 0.015290114 -0.007679189 0.009177215 -2.663759e-15
00000000: e5df afab b81e 9da6 3243 87a6 cad5 633c
00000010: 5d28 90b1 79ad c0a9 58be 453b a448 cbb0
00000020: db3d a8af ab1d a3a7 d593 62ae f9c7 113c
00000030: 148e d1a5 707d 043a aa92 473c 3cfa 8ebb
00000040: c606 7fa7 493e 253c 7eed d7ab 0828 cba8
00000050: ceeb d4a5 2782 e7a5 1c6b cca7 f8f4 bd3a
00000060: d149 3da9 dcff c4a5 e563 1da9 6825 d03a
00000070: 2023 88aa 0c7d d6bb 507e 62a8 220e 8aae
00000080: ab02 13bc c94c 9bab 643d 583c 525a cfa9
00000090: 5655 10ac 5676 39a7 1faa 45a7 e54a 05a6
000000a0: 1827 e2a5 1810 fa3a f923 963c 8536 c0a6
000000b0: 92b3 c83c d30e 663c c0f5 b33c 6c64 aa3b
000000c0: 60a3 4b3c 2b6e c4a6 b8bd 2ead 4f93 0da8
000000d0: eff8 c83c 279c 93a8 2774 90a7 3993 82b0
000000e0: 6274 aea5 4f94 29a6 5843 98a6 e7da ab3c
000000f0: 6383 7a3c b5a1 fbbb 085c 163c aef1 3fa7

onnx::Conv_144 f4 [64, 1, 1, 1]
1.9404962 1.6000627e-16 -0.8115331 -3.3070787e-29 3.58842e-27 -1.0947057e-28 -2.3696245e-30 1.2719728e-25
-4.889885e-29 0.37815365 -4.606006e-30 -1.5727555e-30 8.2405574e-21 7.818917e-30 -1.00817016e-28 -9.2876304e-29
2.586006e-29 3.018639e-30 -0.9884095 -1.2315171e-17 6.92601e-33 -1.4146153e-28 -7.0404777e-28 -1.4042367e-28
-2.423387e-26 0.0 -0.30689314 9.442499e-36 -8.234002e-28 1.8764048e-18 2.1785336e-29 2.0545655e-23
-3.9922512e-29 1.6541083e-11 4.8492824e-31 1.5334121e-28 -1.3014219e-29 -3.446067e-29 -4.5416362e-29 -0.40575302
0.32856607 8.390602e-29 -2.189796e-28 3.9907553e-36 -7.1471555e-29 -3.1532748e-28 -4.0909057e-29 2.665776e-29
1.4225451e-30 -2.3377689e-28 -6.800436e-29 -5.104263e-30 -6.695513e-30 1.3144761e-25 0.7493291 -1.1846583e-28
-0.0 9.318468e-27 8.6641296e-26 1.0779624e-28 -2.974422e-29 -6.668142e-29 -5.126187e-29 -2.45143e-40
00000000: 2e62 f83f 8479 3825 a2c0 4fbf 56b0 2790
00000010: e726 8e13 3bc5 0a91 2d3f 408e 6d76 1d16
00000020: 56f2 7790 5b9d c13e 80d7 ba8e b531 ff8d
00000030: e4a8 1b1e 2396 1e0f fc99 ff90 2b78 eb90
00000040: 4720 0310 aee6 740e 6808 7dbf c02c 63a3
00000050: fcd8 0f0a e452 3391 241f 5f92 1602 3291
00000060: 2900 f094 0000 0000 1921 9dbe dbd1 4805
00000070: 1579 8292 4974 0a22 f7ed dc0f 94b4 c619
00000080: 626e 4a90 357f 912d 435e 1d0d 1162 4211
00000090: d8fa 838f 82bc 2e90 cf49 6690 dcbe cfbe
000000a0: d039 a83e 1fba d410 79cb 8a91 7abf a904
000000b0: b133 b590 cfdc c791 fe6e 4f90 c02b 0710
000000c0: 36d2 e60d 782c 9491 5a69 ac90 b30d cf8e
000000d0: 17cd 078f 69b9 2216 08d4 3f3f 5c2c 1691
000000e0: 0000 0080 3f92 3814 7283 d615 e1a5 0811
000000f0: 34d2 1690 b70e a990 dbf6 8190 5cab 0280

onnx::Conv_145 f4 [64]
-0.15315405 -9.805157e-13 0.059546985 -6.97841e-16 -1.0394393e-14 -7.2745683e-16 -2.3795672e-17 -8.798314e-15
-9.857664e-16 -0.032800518 -9.187466e-17 -3.462154e-16 -3.8503176e-12 -5.2688943e-16 -7.8620566e-16 -6.2285276e-16
-2.7212866e-16 -3.8547654e-16 0.031767286 -6.592502e-12 1.5747342e-15 -1.3151988e-15 -8.102503e-16 -7.264735e-16
-3.921141e-15 -1.7869342e-15 0.04899137 -6.0999103e-15 -1.3021124e-15 -3.0711884e-11 -6.2637446e-16 -2.9567942e-13
-4.737748e-16 -4.1505567e-07 -2.685284e-16 -1.0342008e-15 -2.666575e-16 -3.3894624e-16 -2.7160723e-16 0.066740036
-0.032806486 -3.6545676e-16 -7.915259e-16 -2.1095622e-16 -9.294565e-16 -9.666175e-16 -7.820096e-16 -9.218531e-16
-3.3265538e-16 -5.7785334e-16 -6.621767e-16 -2.9043569e-16 -6.580574e-16 -2.8755058e-14 -0.019715054 -7.32658e-16
-3.1836334e-16 -5.43308e-16 -1.8896282e-14 -4.5602353e-16 -6.103762e-16 -1.0916458e-15 -6.4968306e-16 -4.2726383e-15
00000000: 6ad4 1cbe cdfe 89ab 8ae7 733d 9423 49a6
00000010: ad3f 3ba8 d7ac 51a6 f179 dba3 107f 1ea8
00000020: 5c10 8ea6 d659 06bd 3ad9 d3a4 6094 c7a5
00000030: 9478 87ac 94dd 17a6 bd9b 62a6 6c86 33a6
00000040: 1adf 9ca5 4c36 dea5 6a1e 023d fbf3 e7ac
00000050: 70f1 e226 458a bda6 eb89 69a6 4864 51a6
00000060: 2446 8da7 1ec3 00a7 2dab 483d bec5 dba7
00000070: 78a7 bba6 8212 07ae 478a 34a6 e573 a6aa
00000080: 698e 08a6 d1d4 deb4 cccb 9aa5 460b 95a6
00000090: b4b7 99a5 a363 c3a5 2792 9ca5 00af 883d
000000a0: 1860 06bd e6ab d2a5 4e24 64a6 4937 73a5
000000b0: e4f2 85a6 e44d 8ba6 2066 61a6 60da 84a6
000000c0: 45c3 bfa5 0d8e 26a6 04dc 3ea6 be6c a7a5
000000d0: 11ac 3da6 5380 01a9 7781 a1bc 9e2c 53a6
000000e0: 2386 b7a5 0e99 1ca6 dc33 aaa8 9970 03a6
000000f0: d0ed 2fa6 9f52 9da6 2642 3ba6 22f0 99a7

onnx::Conv_147 f4 [64, 1, 1, 1]
-1.5466146e-28 -5.2670375e-26 5.993719e-26 -2.664417e-28 1.7924268e-27 1.0106867e-28 -9.976275e-28 2.0902835e-37
2.187745e-24 -1.7352914e-26 -5.0198535e-26 4.613294e-28 -1.8649201e-29 2.2350918e-28 -5.0757805e-30 1.0010643e-26
-1.7502153e-29 1.6592509e-34 4.3356455e-14 1.6880344e-25 9.842676e-30 -9.586543e-28 1.3361527e-27 6.406166e-24
5.734104e-27 -3.0838706e-29 4.4295818e-24 8.7183773e-26 7.585563e-30 -3.7273793e-27 -1.791501e-29 -2.8070424e-28
2.4039897e-26 2.7027293e-27 5.8547187e-29 -7.134799e-29 2.9166347e-25 -2.8555423e-29 -1.2873855e-28 4.4510786e-25
6.597632e-29 -7.6062834e-29 1.4270119e-28 -2.1425623e-30 -2.6158993e-17 -2.9150042e-29 1.3150213e-24 9.4305755e-30
-1.6223034e-26 3.1979133e-27 -1.3737357e-28 8.3428296e-26 -9.627021e-27 7.8989694e-29 0.0 -1.882615e-29
-5.059236e-29 -1.11591e-29 1.2481814e-28 5.749117e-26 4.6509085e-24 -1.436548e-29 1.6765263e-23 4.1873507e-27
00000000: 830e 4491 d167 8295 b565 9415 a3e0 a891
00000010: bc02 0e13 a91e 0011 9414 9e92 e041 8e02
00000020: c144 2918 ddda ab94 3492 7895 7d33 1212
00000030: 1820 bd8f 70aa 8d11 ebe5 cd8e fe47 4614
00000040: 307e b18f 628d 5c07 9742 4329 f2f7 5016
00000050: 18a2 470f a3e7 9792 cbb8 d312 98d3 f718
00000060: b926 e313 ee5e 1c90 745c ab18 48db d715
00000070: 7fda 190f 1ea8 9393 06ae b58f deea b191
00000080: 6114 ee14 dd21 5613 4c6f 9410 7ee3 b490
00000090: ec87 b416 0fcb 1090 0c32 2391 14c1 0917
000000a0: 1445 a710 9ad7 c090 2fe5 3411 47d3 2d8e
000000b0: 2d46 f1a3 ebce 1390 5c7d cb17 5946 3f0f
000000c0: 47aa a094 635d 7d13 4624 2e91 f78e ce15
000000d0: ccae 3e94 3e43 c810 0000 0000 7beb be8f
000000e0: 5244 8090 5c55 628f cd39 1e11 5c57 8e15
000000f0: 5eec b318 ebae 918f c824 a219 c8e0 a513

onnx::Conv_148 f4 [64]
-3.6231447e-17 -1.351005e-13 -1.2921145e-16 -9.243026e-16 -2.06621e-17 -9.930545e-16 -2.103916e-15 -8.34533e-17
-3.500569e-15 -9.07759e-15 -1.9763902e-16 -1.3714375e-15 -5.377338e-16 -1.128112e-15 -1.8330228e-16 -4.111973e-15
-2.5001294e-17 -5.2708938e-17 -6.312439e-09 -2.1276247e-12 -1.6343092e-16 -1.3925048e-17 -7.334016e-17 -1.0314372e-13
-3.4204036e-18 1.1801757e-15 -3.2916733e-16 -2.3096625e-14 -3.7903102e-16 -1.4474921e-16 -2.6363927e-16 -1.7834099e-15
-5.4252e-17 -6.027598e-13 -6.298192e-16 -1.1793885e-17 -2.630995e-15 -6.3111853e-16 -9.078181e-17 -2.9889e-11
2.0722013e-15 -8.2061e-18 -1.1369248e-15 -4.506495e-18 -5.117493e-10 -2.0387484e-17 -4.4992537e-14 -1.422229e-15
-8.94974e-14 -4.5329187e-17 -2.3248677e-17 -1.0562288e-14 -8.728721e-15 -1.1072838e-15 -1.4487137e-14 -5.161174e-16
-4.974969e-16 -5.7113187e-16 -2.2152901e-17 -1.7009823e-14 -1.3172456e-11 -1.6747623e-17 -2.6352857e-13 -3.754803e-17
00000000: 8b16 27a4 111c 18aa 7df8 14a5 bf34 85a6
00000010: 0193 bea3 3f1d 8fa6 669a 17a7 226e c0a4
00000020: 1a3e 7ca7 ff86 23a8 bedc 63a5 1da5 c5a6
00000030: c0fd 1aa6 fd93 a2a6 4955 53a5 4226 94a7
00000040: a398 e6a3 bb13 73a4 cde4 d8b1 e1b7 15ac
00000050: 4b6c 3ca5 976f 80a3 641c a9a4 4e42 e8a9
00000060: 9961 7ca2 cc14 aa26 86c0 bda5 3109 d0a8
00000070: 1b7f daa5 6de2 26a5 4afa 97a5 1b82 00a7
00000080: 7531 7aa4 6ca9 29ab 7488 35a6 0c8f 59a3
00000090: 4b95 3da7 54e8 35a6 1f54 d1a4 0674 03ae
000000a0: 5e51 1527 3660 17a3 1fd9 a3a6 a442 a6a2
000000b0: 28ab 0cb0 960a bca3 dda0 4aa9 fdf6 cca6
000000c0: bd87 c9a9 420b 51a4 636e d6a3 f545 3ea8
000000d0: 1f3e 1da8 9093 9fa6 107d 82a8 bec2 14a6
000000e0: cb64 0fa6 189e 24a6 0f53 cca3 fb35 99a8
000000f0: 78bb 67ad 3578 9aa3 785a 94aa e428 2da4
