model/2023_4_20_sentry_resnet_oneblock.onnx (onnx, 212947 bytes, 10 tensors)

fc.weight f4 [7, 64]
0	0xbf4f80bd	-0.81055814
1	0xbe8753dc	-0.26431167
2	0x3df9bf6c	0.12194714
3	0xbed89660	-0.42302227
4	0xbeb6035c	-0.35549438
5	0x3d8df1b7	0.06930869
6	0xbf4f0da1	-0.8088017
7	0x3f1a6096	0.6030363
8	0xbe9a259f	-0.30106828
9	0xbdc73e0f	-0.097286336
10	0xbee7d28a	-0.45277816
11	0x3e61196b	0.21982352
12	0xbecb7069	-0.397342
13	0xbee718ee	-0.45136207
14	0xbeccbaf4	-0.39986384
15	0x3eef3539	0.46720293
16	0xbe2a418e	-0.1662657
17	0x3f1473b1	0.5798903
18	0xbedcddef	-0.43138072
19	0xbef3825c	-0.47560394
20	0xbed4a2a7	-0.41530344
21	0xbf5036ac	-0.8133342
22	0x3f1398bb	0.57654923
23	0x3c08e1a5	0.008354579
24	0xbe62fda7	-0.22167073
25	0x3eea1a7c	0.4572333
26	0xbf1039cd	-0.56338197
27	0x3e88f3fa	0.2674864
28	0x3f3a4190	0.7275629
29	0xbda43c82	-0.080193534
30	0x3ea70558	0.32621264
31	0x3db98dae	0.090602264
32	0xbe1f5e73	-0.15563373
33	0xbf127420	-0.5720844
34	0x3f13d9e9	0.5775438
35	0xbece66c1	-0.4031277
36	0x3dba12b7	0.09085601
37	0x3efb48ba	0.49078923
38	0xbf63bbb9	-0.8895832
39	0xbe231d33	-0.15929107
40	0x3e78b98f	0.24289535
41	0xbf7d7450	-0.99005604
42	0xbeec6c28	-0.46176267
43	0x3f1c3b2e	0.610278
44	0x3f152103	0.58253497
45	0x3ec23bea	0.37936336
46	0xbce973b2	-0.02849755
47	0x3dbe1d56	0.09282939
48	0x3d0c2e17	0.034223642
49	0x3eba62fd	0.36403647
50	0xbf28f782	-0.66002667
51	0x3e528363	0.20557933
52	0xbf6ae89a	-0.9176117
53	0xbeeca86d	-0.4622225
54	0xbefe084c	-0.49615705
55	0xbf23920c	-0.63894725
56	0xbebdba23	-0.37056074
57	0xbf1a4d62	-0.60274327
58	0x3ebbddaf	0.3669257
59	0xbf0d900a	-0.5529791
60	0xbe07018b	-0.13184182
61	0xbbda5c80	-0.006663859
62	0x3e0269a3	0.1273561
63	0x3e2eda4d	0.17075463
64	0x3e2646e4	0.1623798
65	0x3e6fe87f	0.23428534
66	0xbf30698b	-0.68911046
67	0x3f45f4bc	0.7732656
68	0x3f5911a4	0.8479254
69	0xbf493c6c	-0.7860782
70	0xbed08a07	-0.40730307
71	0x3ef17a8a	0.47163802
72	0xbeadf9f1	-0.33979753
73	0xbea83d71	-0.32859376
74	0x3db50842	0.08839466
75	0xbcd84147	-0.026398314
76	0x3dd04828	0.10170013
77	0xbf0a4f21	-0.5402699
78	0xbe9e081d	-0.30865565
79	0xbe0b20ba	-0.13586703
80	0xbe0ffc2a	-0.14061037
81	0xbed498b7	-0.41522762
82	0xbf0a1534	-0.53938603
83	0xbd3befcf	-0.045882996
84	0x3f59234e	0.84819496
85	0x3f1d7a10	0.6151438
86	0xbecfc411	-0.40579274
87	0xbf5e2ee9	-0.8679033
88	0x3f8a182b	1.0788625
89	0xbf37ec5f	-0.7184505
90	0xbe4cf213	-0.20014219
91	0xbe700fef	-0.23443578
92	0xbec93f67	-0.39306185
93	0xbeb386ac	-0.35063684
94	0xbd4c559c	-0.04988633
95	0x3d0685d8	0.032842487
96	0xbf34e150	-0.706563
97	0x3e8605cd	0.261763
98	0x3e4e9313	0.20173292
99	0xbe4e40e8	-0.20141947
100	0xbf07059a	-0.5274292
101	0x3ecc3e64	0.3989135
102	0xbe71e1f0	-0.23621345
103	0xbf4dff46	-0.8046764
104	0x3d65ee7f	0.05613565
105	0x3ef32410	0.4748845
106	0xbf373361	-0.71562773
107	0x3d3b9ba1	0.045802716
108	0x3d127465	0.035755534
109	0x3eb684bf	0.35648152
110	0x3e5ce725	0.2157255
111	0xbf30970e	-0.6898049
112	0xbdedaa6b	-0.1160477
113	0xbe9ac7c8	-0.30230546
114	0x3f08be7b	0.5341565
115	0xbf0d6f9a	-0.55248415
116	0xbebb66c9	-0.36601856
117	0x3f10f444	0.5662272
118	0xbf768be2	-0.96307194
119	0xbf70fd80	-0.9413681
120	0xbefe1ff4	-0.49633753
121	0x3e597829	0.21237244
122	0x3edf0514	0.43558562
123	0x3ebcdcdf	0.3688726
124	0x3f8d2e8d	1.1029831
125	0xbf892b58	-1.0716352
126	0xbf49f1fc	-0.78884864
127	0xbecd9236	-0.40150613
128	0xbdb8e90f	-0.090288274
129	0x3ea79252	0.3272882
130	0x3f706269	0.9390016
131	0xbea36b01	-0.31917575
132	0x3e194d73	0.14970951
133	0x3f069a61	0.52579314
134	0x3eda24f4	0.42606318
135	0xbf93dc46	-1.1551597
136	0xbf20e576	-0.6285013
137	0x3f1aff7b	0.6054608
138	0xbef705e8	-0.48246694
139	0xbf186172	-0.5952369
140	0x3e3aec9f	0.18254326
141	0xbd053130	-0.032517612
142	0x3e9063a8	0.28201032
143	0xbf85cba7	-1.0452775
144	0xbcbd0776	-0.023074847
145	0xbe1e38e6	-0.15451393
146	0x3e4862a8	0.19568884
147	0x3df4fcf9	0.11962313
148	0x3b99327d	0.004675208
149	0x3ecc0a65	0.3985168
150	0xbee3d5ad	-0.4449896
151	0x3d838285	0.06421379
152	0xbf40d567	-0.75325626
153	0xbf1a363a	-0.60238993
154	0xbbe9a3e5	-0.0071301335
155	0x3e92e8c5	0.28693214
156	0xbf5e34cb	-0.86799306
157	0x3f341503	0.7034456
158	0xbefbb972	-0.4916492
159	0x3e2cdd2a	0.16881242
160	0x3f523a72	0.8212043
161	0xbe5617c2	-0.209075
162	0xbd7008dd	-0.058602203
163	0xbe53adbb	-0.20671742
164	0x3e7836b8	0.24239624
165	0x3e3ce8e2	0.18448213
166	0xbe0b0fde	-0.13580272
167	0xbdb9ac4f	-0.090660684
168	0x3e8ae928	0.2713101
169	0xbd7b2713	-0.06131656
170	0x3e47ef21	0.19524814
171	0x3d31c182	0.043397434
172	0x3df5b94f	0.119982354
173	0xbd303a58	-0.04302439
174	0xbd365048	-0.044510156
175	0x3ec79627	0.38981745
176	0xbf8e4ef1	-1.1117841
177	0xbf5ba460	-0.8579769
178	0x3eea643f	0.45779607
179	0xbf034138	-0.5127139
180	0x3e1d7102	0.1537514
181	0xbf194606	-0.5987247
182	0x3f060de5	0.5236495
183	0x3ea2f322	0.3182612
184	0xbe8aa79c	-0.27081
185	0x3cb5eadf	0.022206722
186	0xbd9953d3	-0.07486691
187	0xbd6b44b7	-0.05743858
188	0xbf5ad078	-0.8547435
189	0x3c62d88e	0.013845576
190	0xbe73a555	-0.23793538
191	0xbf694353	-0.91118354
192	0xbe988327	-0.2978756
193	0x3e952ced	0.29135838
194	0xbf34cce7	-0.70625156
195	0x3f286d72	0.65792
196	0xbf8cd1bd	-1.1001507
197	0xbefb9bcc	-0.491423
198	0x3ea9582e	0.33075088
199	0x3da37975	0.079821505
200	0x3c216a92	0.0098520685
201	0xbee08da3	-0.4385806
202	0x3f1b17c5	0.60583144
203	0x3ec06ec6	0.37584513
204	0xbc2dce3a	-0.01060825
205	0xbe529daa	-0.20567957
206	0x3e9f896a	0.31159526
207	0x3e224745	0.158475
208	0xbef97fd8	-0.4873035
209	0x3e895849	0.2682517
210	0xbed45d70	-0.41477537
211	0x3c27335e	0.010205118
212	0xbeab519a	-0.33460695
213	0xbe93bb3c	-0.28853786
214	0x3bf085e1	0.0073401784
215	0x3d5bed96	0.053693376
216	0xbef7ffad	-0.48437253
217	0x3ebb1854	0.36541998
218	0x3e424ddd	0.18975015
219	0x3ea54793	0.3228117
220	0x3ec1dee4	0.37865365
221	0xbf03a8c8	-0.51429415
222	0xbf44bf2f	-0.76854223
223	0x3ece6962	0.40314776
224	0xbf1bd97d	-0.60878736
225	0xbe0a8b55	-0.13529713
226	0xbf1777fe	-0.5916747
227	0x3e2d297e	0.1691036
228	0xbec0b480	-0.3763771
229	0xbeea07f5	-0.45709196
230	0x3e33ee5a	0.17571393
231	0x3e43c6d2	0.19118813
232	0x3e505903	0.20346455
233	0xbdb6a29d	-0.08917735
234	0xbc891689	-0.016734378
235	0xbdd773d5	-0.1052014
236	0xbe25b0f1	-0.16180779
237	0xbe8f78cf	-0.28021857
238	0x3dd83524	0.10557011
239	0xbf367f62	-0.7128812
240	0x3f8c4315	1.0957972
241	0x3ea01d56	0.31272382
242	0xbebc1645	-0.3673574
243	0xbeb2b35e	-0.3490247
244	0x3e04c98e	0.12967512
245	0xbec3d5fb	-0.38249192
246	0xbe8eb265	-0.2787048
247	0xbd21c57d	-0.03949498
248	0x3ec6c1a9	0.38819626
249	0x3e308e04	0.17241675
250	0xbe423bd0	-0.18968129
251	0x3e0cebd3	0.13761835
252	0xbea4cb32	-0.32186276
253	0x3ec78b10	0.38973284
254	0x3f46db83	0.776787
255	0x3f039545	0.5139964

fc.bias f4 [7]
0	0xbee8e4a9	-0.45486954
1	0xbc503bb2	-0.012709545
2	0xbc2e0bd9	-0.010622942
3	0x3e2bc796	0.16775355
4	0xbe36d8c8	-0.17856133
5	0x3d8a8c64	0.06765059
6	0xbc4c92cd	-0.012486172

onnx::Conv_45 f4 [16, 1, 7, 7]
0	0x3dc4bba1	0.096061
1	0xbdfb7281	-0.12277699
2	0xbf36179c	-0.71129775
3	0x3d9debc0	0.07710981
4	0x3dbcc4b0	0.09217203
5	0xbd72cd15	-0.059277613
6	0xbe5d2d2f	-0.21599267
7	0xbda9cdb1	-0.08291186
8	0x3d913572	0.07090272
9	0xbec56fae	-0.38561767
10	0xbe60c2c3	-0.21949296
11	0xbcbbfa9c	-0.022946648
12	0xbdeefa9b	-0.11668893
13	0xbe23fcfd	-0.16014476
14	0xbd0874eb	-0.033314627
15	0x3dccffa7	0.10009699
16	0xbe49e142	-0.19714835
17	0xbe60f816	-0.21969637
18	0xbe5f438a	-0.21803108
19	0x3d985147	0.074373774
20	0xbc3049f5	-0.01075982
21	0xbe3a74b9	-0.18208589
22	0x3d514d06	0.051098846
23	0xbe45ff9c	-0.19335788
24	0x3d005698	0.031332582
25	0xbdbc9bb1	-0.09209383
26	0xbe8066c7	-0.25078413
27	0xbef207b7	-0.4727151
28	0xbd005e9e	-0.031340234
29	0xbe94195f	-0.28925607
30	0xbdbbe5b1	-0.091746695
31	0x3c5e03e8	0.013550736
32	0x3d167f22	0.036742337
33	0xbf0a5e24	-0.540499
34	0xbefecf0f	-0.49767348
35	0xbcd2d705	-0.025737295
36	0xbeb70d44	-0.35752308
37	0xbeca9f8b	-0.39574847
38	0x3e6e8ce6	0.23295936
39	0x3db76341	0.08954478
40	0xbdef4271	-0.116825946
41	0xbf010a05	-0.50405914
42	0xbd406751	-0.04697353
43	0xbe3e3f09	-0.18578734
44	0xbf5c3e41	-0.8603249
45	0x3c404a7f	0.011736511
46	0x3e1ea321	0.15491916
47	0x3d0a12d3	0.03370936
48	0xbe6a68d8	-0.22891557
49	0x3e75b802	0.23995975
50	0xbe7dcb29	-0.2478453
51	0xbedd504d	-0.43225327
52	0xbdd23b27	-0.10265189
53	0xb9342585	-0.00017180115
54	0x3d110305	0.03540327
55	0xbe0c01fe	-0.13672635
56	0x3d74313b	0.059617262
57	0xbe5f0015	-0.21777375
58	0xbe0bda3b	-0.13657467
59	0x3cefa907	0.029255403
60	0x3d832c27	0.06404906
61	0xbd759923	-0.059960496
62	0xbe05589f	-0.13022088
63	0xbd2ccdd1	-0.04218847
64	0xbe171120	-0.14752626
65	0xbe215804	-0.15756232
66	0x3def62c3	0.11688759
67	0xbe26aedf	-0.16277646
68	0xbe6bb6f8	-0.23019016
69	0xbf3971f5	-0.7243951
70	0xbebdb104	-0.37049115
71	0x3d2d6add	0.04233824
72	0x3d80a40e	0.06281291
73	0x3dc1b054	0.0945746
74	0x3d2136d4	0.03935893
75	0xbe8b0ca6	-0.27158087
76	0xbf446705	-0.76719695
77	0xbe4afcfc	-0.19823068
78	0xbbd3b455	-0.0064607062
79	0x3debf828	0.115219414
80	0x3f044de4	0.5168135
81	0x3ea0a1bf	0.31373402
82	0xbda97dad	-0.08275924
83	0xbea93690	-0.3304944
84	0xbd385180	-0.0449996
85	0xbe159881	-0.14608957
86	0x3d94f896	0.072739765
87	0x3e2468a7	0.16055547
88	0x3ecff36d	0.40615407
89	0xbde3eee3	-0.111295484
90	0xbf4b07dc	-0.7930887
91	0xbf2646ce	-0.6495179
92	0xbece8e99	-0.40343168
93	0xbe5a221f	-0.21302079
94	0x3dccf177	0.10006993
95	0x3f083e54	0.53220105
96	0x3dc050f5	0.09390441
97	0xbf19bab6	-0.60050523
98	0x3e033ef5	0.12816985
99	0x3de10d77	0.10988896
100	0x3daf3432	0.08554877
101	0x3d621430	0.055195034
102	0x3d3a141f	0.045429345
103	0x3de19a1a	0.11015721
104	0x3d9fd22d	0.0780376
105	0x3d899e5a	0.06719656
106	0x3d32be02	0.043638237
107	0x3d7c462b	0.061590355
108	0x3ddf53d4	0.10904661
109	0x3d52158a	0.051290073
110	0x3d416fb9	0.047225688
111	0xba96e20e	-0.0011511461
112	0xbd5fc356	-0.054629646
113	0x3d0f771b	0.035025697
114	0x3e1f93c5	0.15583713
115	0x3e0ee1c6	0.13953313
116	0x3d090a4c	0.033457085
117	0xbd82a21d	-0.06378577
118	0xbd8e9367	-0.069617085
119	0xbe0ee954	-0.13956195
120	0xbd351103	-0.044205677
121	0x3dd98734	0.10621491
122	0x3dbcb56d	0.09214292
123	0x3da5d048	0.08096367
124	0xbd864fc8	-0.06558186
125	0xbde83763	-0.11338689
126	0xbdadcee7	-0.08486729
127	0xbcd7371e	-0.0262714
128	0x3dd3a5e0	0.103343725
129	0x3dc309ed	0.095233776
130	0x3dcf6714	0.101270825
131	0x3d414cd7	0.04719242
132	0xbdbbe74e	-0.09174977
133	0x3b792376	0.003801552
134	0xbd184bad	-0.037181545
135	0x3df51a8c	0.11967954
136	0x3e23a217	0.15979801
137	0x3e2461da	0.16052952
138	0x3dd5bedd	0.10436795
139	0xbc020707	-0.007936246
140	0x3d87e119	0.06634731
141	0x3da5026e	0.08057104
142	0x3e3b2af5	0.18278106
143	0x3de79123	0.113069795
144	0x3e252559	0.16127528
145	0x3dbac950	0.091204286
146	0x3da7661a	0.08173771
147	0xbd699120	-0.057023168
148	0xbe1fda2b	-0.15610568
149	0xbd469dd8	-0.048490375
150	0xbf17daba	-0.59318125
151	0xbef22205	-0.4729158
152	0xbe0eebd7	-0.13957153
153	0xbdc06de5	-0.09395961
154	0xbbdad208	-0.0066778697
155	0xbdef0c47	-0.116722636
156	0x3dfee834	0.12446633
157	0xbe16a00f	-0.14709495
158	0xbee91924	-0.45526993
159	0x3d001302	0.031268127
160	0x3d0902d7	0.033449974
161	0x3d124a1f	0.03571522
162	0xbe89189d	-0.2677659
163	0xbe30e8b4	-0.17276269
164	0xbec5333b	-0.38515648
165	0xbf04cceb	-0.5187518
166	0xbddf5cee	-0.10906397
167	0xbd1f4711	-0.038886134
168	0x3e14c026	0.14526424
169	0xbd92d115	-0.071687855
170	0x3da9660b	0.08271416
171	0x3e10814b	0.14111821
172	0x3d6890a5	0.05677857
173	0x3d84e226	0.06488447
174	0x3ba88b74	0.0051435772
175	0x3df898f6	0.1213855
176	0xbdae5719	-0.08512706
177	0x3d191fa4	0.03738369
178	0xbd0658f8	-0.03279969
179	0xbca165ed	-0.019701922
180	0xbde3d7b1	-0.11125124
181	0x3cc2a3d7	0.023759766
182	0x3bc11caa	0.0058933096
183	0xbe7a4b19	-0.2444271
184	0x3dc61187	0.09671312
185	0xbe027d31	-0.12743069
186	0xbec5ee9c	-0.38658607
187	0x3dab7140	0.0837121
188	0xbde17e39	-0.11010403
189	0xbad77779	-0.0016438804
190	0xbeaf2e1e	-0.34214872
191	0x3d6dd14d	0.058060933
192	0xbeaa19e3	-0.33222875
193	0xbf26128b	-0.64872044
194	0x3d75d810	0.060020506
195	0xbca577bb	-0.020198693
196	0x3e8bf04e	0.27331775
197	0xbd292df0	-0.041303575
198	0x3c732eb1	0.014842675
199	0x3aaabf35	0.0013026955
200	0x3d81be7a	0.06335159
201	0x3e1e83a3	0.15479903
202	0xbd6b0ecc	-0.05738716
203	0xbc5ca3b4	-0.013466764
204	0xbe366506	-0.17811975
205	0xbe53c0af	-0.20678972
206	0xbe8a5164	-0.2701522
207	0xbe78b57c	-0.24287981
208	0xbe9cca29	-0.30622986
209	0xbe0faedf	-0.14031552
210	0x3e05aa4b	0.13053243
211	0xbd8dd70d	-0.06925783
212	0xbe8d9fa2	-0.27660853
213	0xbea5d865	-0.32391658
214	0xbeaefd0c	-0.34177434
215	0xbe715f48	-0.23571503
216	0xbeae51e1	-0.34046844
217	0x3e1fbdd7	0.15599762
218	0xbc926620	-0.017870963
219	0xbe9e78c2	-0.30951506
220	0xbea617e0	-0.3244009
221	0xbdd76daa	-0.10518964
222	0xbdaa38bd	-0.08311603
223	0xbe730bb0	-0.23734927
224	0xbe2cfc22	-0.16893056
225	0xbe86b8cc	-0.26312864
226	0xbdfcf4af	-0.12351357
227	0xbd8d288c	-0.06892499
228	0x3cd4c9b1	0.02597508
229	0x3e218759	0.15774287
230	0xbe2e5bf4	-0.17027265
231	0xbb365245	-0.0027820033
232	0xbead73d3	-0.3387743
233	0xbe1a2460	-0.15052938
234	0x3d2a40b8	0.041565627
235	0x3e870ea5	0.2637836
236	0x3ea83cbf	0.32858846
237	0x3e4083b0	0.18800235
238	0xbd5cb370	-0.053882062
239	0x3c853c20	0.016264021
240	0x3e700ae4	0.23441654
241	0x3de378aa	0.11106999
242	0x3dd7a83a	0.105301335
243	0x3e8454b2	0.25845867
244	0x3da3668d	0.079785444
245	0xbda08366	-0.07837562
246	0xbf1ba14d	-0.60793
247	0xbf2e5a73	-0.68106765
248	0xbeaa197e	-0.33222574
249	0xbe6d4172	-0.23169497
250	0xbeb7bfee	-0.35888618
251	0xbc9729d7	-0.018452568
252	0x3e5dba52	0.21653107
253	0xbd83d63f	-0.064373486
254	0xbe692702	-0.22768787
255	0xbe05370d	-0.13009281

onnx::Conv_46 f4 [16]
0	0x3f91861e	1.1369054
1	0x3f09a042	0.5376016
2	0xbf80cb95	-1.0062128
3	0x3f168080	0.58789825
4	0x3f0cb32f	0.5496091
5	0x3ee584b8	0.4482782
6	0x3eb8eb36	0.36116952
7	0x3f22a0e8	0.63526773
8	0x3ec8f59c	0.39249885
9	0x3e65b853	0.22433595
10	0x3f16cd67	0.5890717
11	0x3eaf3c5e	0.34225744
12	0x3f4bc0d2	0.79591095
13	0x3e193fe2	0.14965776
14	0x3f5f1d4c	0.8715408
15	0xbee9993e	-0.45624727

onnx::Conv_48 f4 [64, 16, 1, 1]
0	0xbed7bc91	-0.42136052
1	0x3e15c776	0.1462687
2	0xbf91b0c2	-1.1382067
3	0xbe3dac5f	-0.18522786
4	0x3d238fa6	0.039931916
5	0xbe4d8335	-0.20069583
6	0x3f012d6a	0.5045992
7	0x3de85463	0.113442205
8	0x3f5b2382	0.85601056
9	0xbd840087	-0.06445413
10	0xbdd8545c	-0.10562965
11	0xbd3a319c	-0.045457467
12	0xbf276ad3	-0.65397376
13	0x3e8da2d2	0.27663285
14	0x3f9ccb89	1.2249614
15	0xbeb16add	-0.34651843
16	0x3e8f65a1	0.28007224
17	0xbf78fc2a	-0.9725977
18	0x3f7ce984	0.98793817
19	0xbf3dfa3f	-0.7420997
20	0xbe2e8b53	-0.17045335
21	0xbeeec9f3	-0.4663845
22	0x3f26e0aa	0.6518656
23	0xbc93cd0f	-0.018042115
24	0xbffeb95b	-1.9900316
25	0x3f35ae18	0.7096877
26	0xbfdbf00a	-1.7182629
27	0x3f739a3b	0.9515721
28	0x3ece5104	0.40296185
29	0x3e06bcf8	0.13158023
30	0x3ec97118	0.39344096
31	0x3e27c961	0.16385414
32	0xbf23e690	-0.64023685
33	0x3e49ac40	0.19694614
34	0x3f9adb46	1.2098167
35	0x3eab8751	0.33501676
36	0x3eca363f	0.3949451
37	0x3e32f59c	0.17476505
38	0x3e059fda	0.1304926
39	0x3f7cedc9	0.9880033
40	0x3ea64b0f	0.3247914
41	0x3ed5ddf7	0.41770908
42	0x3e7268d7	0.23672806
43	0x3dc8032b	0.09766229
44	0x3e141298	0.14460218
45	0x3f2dad37	0.6784243
46	0x3f07bcd3	0.530225
47	0x3f33e928	0.70277643
48	0xbd8fe6b5	-0.07026426
49	0x3ec86997	0.3914306
50	0x3e7437de	0.23849437
51	0xbf3705dd	-0.7149332
52	0x3aad8cde	0.0013240834
53	0x3f6d9927	0.92811817
54	0x3ee0d34f	0.43911216
55	0x3eda0ad4	0.42586386
56	0xbf3f0c8b	-0.74628514
57	0x3f9162db	1.1358293
58	0xbef085d8	-0.46977115
59	0x3f9611c7	1.1724175
60	0xbeba273d	-0.3635806
61	0x3e51d792	0.2049239
62	0xbe745fee	-0.2386472
63	0x3fad67b4	1.3547273
64	0xbfbddbcf	-1.4832705
65	0x3fb2a371	1.3956128
66	0x3ef24837	0.4732072
67	0x3eddc1b8	0.43311858
68	0xbe8d9f2d	-0.27660504
69	0xbeef0658	-0.46684527
70	0x3f8fa0bd	1.1220928
71	0x3e898ef0	0.26866865
72	0xbec64cce	-0.38730472
73	0x3f2bf4b2	0.6717025
74	0xbf1df68e	-0.6170434
75	0x3fb462b3	1.4092621
76	0xc01d90f1	-2.4619715
77	0x3caef5bd	0.021357412
78	0x3fb84683	1.4396518
79	0x3f1e8a39	0.6192966
80	0xbf23254d	-0.6372879
81	0x3d9b563e	0.07584809
82	0x3f937ab7	1.1521825
83	0x3e9816a7	0.29704782
84	0x3f367de8	0.7128587
85	0x3ebf8879	0.37408808
86	0x3d5ff729	0.05467907
87	0x3f775a22	0.96621907
88	0x3ead1a87	0.338093
89	0x3f0d3034	0.5515168
90	0x3f27bb8a	0.65520537
91	0x3d0c5981	0.034265045
92	0xbd9f30fd	-0.07773016
93	0x3f06ddd5	0.5268224
94	0x3ea921ea	0.33033687
95	0x3f4a246b	0.7896182
96	0xbf236277	-0.6382212
97	0xbe7a0c2d	-0.24418707
98	0xbcbee341	-0.023301722
99	0xbf9532b7	-1.1656102
100	0xbf1eaf65	-0.6198638
101	0xbeae98e6	-0.34101027
102	0x3e671fc4	0.22570711
103	0x3d43f4be	0.047840826
104	0xbf5a042c	-0.85162616
105	0x3e9a9096	0.30188435
106	0xbf5de011	-0.86670023
107	0xbecc8123	-0.39942273
108	0xbf507263	-0.8142454
109	0x3e8f3e05	0.27977005
110	0xbf50eb46	-0.81609
111	0x3e2647d9	0.16238345
112	0xbf2e915e	-0.6819056
113	0x3fc2aab9	1.520835
114	0x3e87ea42	0.26545912
115	0xbf05133a	-0.5198246
116	0x3f8ccde2	1.100033
117	0x3cbab98b	0.022793552
118	0xbdeca6a1	-0.115552194
119	0x3f03efe2	0.5153791
120	0x3ea6f25b	0.32606778
121	0x3f495307	0.78642315
122	0x3ec27c51	0.3798547
123	0x3fb2cd9c	1.3968997
124	0xbf56d7fa	-0.83923304
125	0x3eec8793	0.46197185
126	0xbfb356d1	-1.4010869
127	0x3f37b5ee	0.7176198
128	0xbe6da570	-0.2320764
129	0x3d7eee86	0.062239192
130	0x3f6a74ca	0.91584456
131	0x3e88b1cc	0.26698148
132	0x3f92aa8a	1.1458294
133	0xbecb63e5	-0.3972465
134	0x3f405c91	0.75141245
135	0x3e1c01e3	0.15235095
136	0xbdbb5048	-0.09146172
137	0x3df3b8d6	0.11900489
138	0x3efd98a2	0.49530512
139	0x3f06bab0	0.5262861
140	0x3eccaea2	0.39976984
141	0x3f844cbf	1.0335921
142	0x3be6bcce	0.0070415502
143	0x3f54f909	0.831925
144	0xbd842dd9	-0.06454057
145	0x3f69401e	0.9111346
146	0xbc875943	-0.016522055
147	0xbd9bfd95	-0.07616726
148	0x3f1cc434	0.6123688
149	0x3d11317d	0.035447586
150	0x3eb20211	0.34767202
151	0x3fd9c585	1.7013403
152	0x3f241870	0.6409979
153	0x3f14bf08	0.5810399
154	0x3f1afa07	0.6053776
155	0xbe2f34cc	-0.17109984
156	0x3def18c7	0.11674648
157	0x3e7d0e38	0.24712455
158	0xbec56194	-0.3855101
159	0x3d866b27	0.065634064
160	0xbf27ba33	-0.6551849
161	0xbf1a810a	-0.6035315
162	0x3ec55352	0.3854013
163	0xbd9938a9	-0.0748151
164	0x3f9b428c	1.2129683
165	0x3eaa4de7	0.3326256
166	0x3f2d3fdf	0.67675585
167	0xbdaa96ce	-0.08329545
168	0xbfa70cea	-1.3050816
169	0x3dc05676	0.09391491
170	0x3ecc0308	0.39846063
171	0x3f273fd6	0.6533178
172	0x3ee49e23	0.446519
173	0x3f6e695a	0.93129504
174	0x3eca3af8	0.39498115
175	0x3f36bc91	0.7138148
176	0xbe066506	-0.13124475
177	0x3f7b97fb	0.9827878
178	0xbf01eab5	-0.5074876
179	0xbfa3ed07	-1.280671
180	0x3fa12551	1.2589513
181	0x3f1078e2	0.5643445
182	0x3e28c4da	0.16481343
183	0x3f261991	0.6488276
184	0x3f43d8cf	0.765027
185	0x3f842638	1.0324163
186	0x3f45bb7c	0.77239203
187	0x3e594de5	0.2122112
188	0xbf4ef815	-0.80847293
189	0x3efe4107	0.49658987
190	0xbc82ce81	-0.01596761
191	0x3d38893f	0.045052763
192	0xbed3cc68	-0.41366887
193	0xbf54f873	-0.83191603
194	0x3f9420bd	1.1572491
195	0xbebe116c	-0.37122667
196	0xbea62f09	-0.3245776
197	0x3d81f6bc	0.06345889
198	0x3e085f6b	0.13317649
199	0xbe4e5d66	-0.20152816
200	0xbfd96eeb	-1.6986974
201	0x3f33bc0b	0.70208806
202	0xbfabf025	-1.3432661
203	0x3ee1e22c	0.44117868
204	0x3e42c8c6	0.19021901
205	0xbf0ea169	-0.5571504
206	0x3cb7797c	0.022396795
207	0xbea8d97a	-0.3297842
208	0xc0074347	-2.1134813
209	0x3de0e5e1	0.10981346
210	0x3df34743	0.118788265
211	0xbf125d11	-0.5717326
212	0x3ee0846f	0.4385104
213	0xbf1bf411	-0.6091929
214	0x3e690a0b	0.22757737
215	0x3d17a451	0.03702194
216	0x3f0cfcfa	0.5507351
217	0x3ec525d3	0.3850542
218	0xbf17e2c8	-0.59330416
219	0xbce39cbb	-0.027784696
220	0xc0002eb2	-2.00285
221	0x3ec9e332	0.3943115
222	0x3e4b3230	0.19843364
223	0x3edb6de1	0.42857268
224	0xbee46814	-0.44610655
225	0xbd881e61	-0.06646419
226	0x3e4f1ffa	0.20227042
227	0xbf754320	-0.9580555
228	0xbf0ebcb5	-0.55756694
229	0xbed74df1	-0.42051652
230	0x3e1563d6	0.14588866
231	0xbea2fc21	-0.31832984
232	0xbf0d106c	-0.5510318
233	0x3e9d5552	0.30729157
234	0xbe981595	-0.29703966
235	0xbf0b17a3	-0.5433294
236	0xbf26992e	-0.65077484
237	0xbe363c6b	-0.17796485
238	0xbefe7e09	-0.49705532
239	0x3e845860	0.25848675
240	0x3ed3494d	0.41266862
241	0x3ea3ab05	0.31966415
242	0x3f26770c	0.650254
243	0x3fe004f9	1.7501518
244	0x3f4f35a2	0.8094121
245	0x3ee0cc9c	0.43906105
246	0x3db2a116	0.08722131
247	0x3ed315b1	0.41227487
248	0x3f895b8f	1.0731066
249	0x3e496718	0.19668233
250	0xbb043e69	-0.00201788
251	0x3e85a2cd	0.2610077
252	0x3eda54c4	0.42642796
253	0x3e464add	0.19364496
254	0x3fb9637c	1.4483485
255	0x3ed5cfa6	0.41759986

onnx::Conv_49 f4 [64]
0	0xbe4d5cda	-0.20054951
1	0x3efa5242	0.48890883
2	0xc042845b	-3.0393283
3	0xc00899cb	-2.1343868
4	0xbf9969da	-1.1985428
5	0xc04f83f0	-3.2424278
6	0x402bcf1b	2.6845157
7	0xc011a85b	-2.2759006
8	0xc0399064	-2.899438
9	0xc054b1c1	-3.3233492
10	0xbffc7a30	-1.9724789
11	0xc02149cc	-2.5201292
12	0x3fb975b9	1.4489051
13	0x3fbe3e00	1.4862671
14	0x400535ce	2.081409
15	0xc08a4d34	-4.321924
16	0x3e6bf4cc	0.23042601
17	0xc08a14a8	-4.3150215
18	0x3fe917c1	1.8210374
19	0x3fe7e53d	1.8116833
20	0xbf2e81a4	-0.68166566
21	0x3f0a8ebf	0.54124063
22	0xc0864548	-4.195957
23	0xbf46c332	-0.77641594
24	0xbf0b40d9	-0.54395825
25	0xc056ceb3	-3.356366
26	0x3fe39e44	1.7782674
27	0xbf860fd3	-1.0473579
28	0xc08d8505	-4.4224877
29	0xc02e65a3	-2.7249534
30	0x3cf3e500	0.029772282
31	0xbfebddfc	-1.8427119
32	0x3eff3cdc	0.4985112
33	0xc01a84ef	-2.4143636
34	0xc08396d2	-4.1121607
35	0x404ee2a0	3.232582
36	0xbfb4cb28	-1.4124498
37	0xc00e090a	-2.2193017
38	0xbe52a590	-0.2057097
39	0xc01ff077	-2.4990518
40	0xbf6129ff	-0.87954706
41	0xc00fcc87	-2.2468584
42	0x3c3ebf40	0.011642277
43	0xbfead8fa	-1.8347466
44	0xc011ae7e	-2.2762752
45	0xc04b4ac2	-3.1764379
46	0xc011421d	-2.2696602
47	0xc048d723	-3.138131
48	0xc004352a	-2.0657449
49	0xc064c85f	-3.5747297
50	0x3fcd124f	1.6021212
51	0xbfb379bb	-1.4021524
52	0x3f927c13	1.1444114
53	0xbfcb7276	-1.5894306
54	0xc01648e1	-2.3481982
55	0x3e9307f2	0.28717
56	0xbf00068a	-0.5000998
57	0x3f0edd7f	0.55806726
58	0xbfa6b55a	-1.3024094
59	0x3f90c16b	1.1309026
60	0xbf89dea9	-1.0771075
61	0xc035c0ea	-2.8398995
62	0xc025b1f6	-2.5889869
63	0xc01b4ff8	-2.426756

onnx::Conv_51 f4 [64, 16, 3, 3]
0	0x3c871929	0.01649149
1	0x3d4d91b6	0.05018779
2	0xbca1dde1	-0.01975912
3	0xbcc03059	-0.023460554
4	0x3d5f8f4e	0.054580025
5	0xbd2e05fe	-0.042486183
6	0xbd3b2e76	-0.045698605
7	0x3cc3b8d1	0.023891838
8	0xbddb68fb	-0.10713383
9	0x3b8b13e8	0.0042443164
10	0x3cb4d817	0.022075696
11	0xbc99ac97	-0.018759055
12	0xbc3f0567	-0.011659003
13	0xbbfd6497	-0.0077329385
14	0xbd81f3ef	-0.06345355
15	0xbd8e5ddb	-0.06951495
16	0x3df24891	0.11830247
17	0xbca0d11e	-0.019630965
18	0x3c46ad9a	0.012126351
19	0x3d3ca84d	0.04605894
20	0x3a84641b	0.0010100635
21	0xbd5e293d	-0.054238547
22	0xbd0a5ab9	-0.033777926
23	0xbd884b58	-0.06654996
24	0xbcea94eb	-0.028635463
25	0xbd026aef	-0.03184026
26	0xbd19702e	-0.0374605
27	0xbd36bcb3	-0.04461355
28	0x3dc24f15	0.0948774
29	0xbe09cd4d	-0.13457222
30	0xbe4e78da	-0.20163289
31	0xbc5d1243	-0.013493123
32	0xbe7c7c2b	-0.24656741
33	0xbe63a0a3	-0.22229247
34	0x3ab8dccc	0.0014103889
35	0xbe1b4ca5	-0.15165956
36	0xbdbe2028	-0.09283477
37	0xbcbab0c1	-0.022789361
38	0xbcd802b5	-0.026368478
39	0xbca8a24d	-0.020585204
40	0x3d3fc1b8	0.046815604
41	0xbd417f95	-0.047240812
42	0xbd9cf2c0	-0.076634884
43	0x3d94938d	0.072547056
44	0xbce01e24	-0.027358122
45	0xbd71ce66	-0.059034728
46	0x3de5c754	0.112196594
47	0x3cd4edc5	0.025992284
48	0xbe652ca6	-0.22380313
49	0x3d74c0b9	0.059754107
50	0xbd9c3ddb	-0.076289855
51	0xbe6dd315	-0.23225053
52	0x3c1c4fdd	0.009540525
53	0xbe1ff892	-0.15622166
54	0xbdb04849	-0.08607537
55	0x3bd4f18e	0.006498522
56	0xbd5bba51	-0.053644482
57	0xbe194912	-0.1496928
58	0xbdaf3236	-0.08554499
59	0xbddee86c	-0.10884175
60	0xbe442241	-0.19153692
61	0xbdcae60a	-0.09907158
62	0xbda63fae	-0.08117615
63	0x3bc6ac7a	0.0060630413
64	0x3d4a292d	0.049355675
65	0x3d9b0182	0.07568647
66	0xbcb58390	-0.02215746
67	0x3c1527c4	0.009103719
68	0xbd8738fb	-0.06602665
69	0xbc7bb3f9	-0.015362733
70	0x3daa7eab	0.08324941
71	0xbd5c22a1	-0.053743962
72	0x3db222ed	0.08698068
73	0x3cb9c754	0.022678055
74	0x3d0cafd9	0.03434739
75	0xbcf0fa0a	-0.029416103
76	0xbcfc60bd	-0.030807847
77	0xbdc2eb1d	-0.095175005
78	0xbcb0eaee	-0.021596398
79	0xbcbd485e	-0.023105796
80	0xbd1d9569	-0.038472567
81	0xbdbe6bc3	-0.09297898
82	0xbb9551af	-0.0045568566
83	0xbcb76768	-0.022388175
84	0xbdace89c	-0.08442804
85	0xbd066027	-0.03280654
86	0xbd634baf	-0.0554921
87	0xbd3bf520	-0.045888066
88	0x3cd03d0a	0.02541973
89	0x3d4ff4dd	0.05077063
90	0xbda6c55f	-0.08143114
91	0xbd3ecd36	-0.046582423
92	0xbd327cf2	-0.04357619
93	0xbdea80d5	-0.11450354
94	0xbd2357d5	-0.039878685
95	0xbda98590	-0.08277428
96	0xbe209deb	-0.15685241
97	0xbdb18582	-0.08668043
98	0xbe1cdc95	-0.1531852
99	0x3dd9e190	0.10638726
100	0x3d6f16fd	0.058371533
101	0x3b000d4e	0.001953918
102	0x3c34b6d8	0.0110299215
103	0xbcb05787	-0.021526111
104	0x3d223a45	0.03960635
105	0xbdd2070e	-0.10255252
106	0xbe23a2bb	-0.15980045
107	0xbd3630f1	-0.044480268
108	0x3d03354f	0.03203326
109	0x3d190184	0.03735496
110	0x3d01e093	0.03170831
111	0xbdd604fe	-0.10450171
112	0xbcdb676b	-0.026782712
113	0xbcd02af2	-0.025411103
114	0xbe031711	-0.12801768
115	0xbded0fba	-0.11575265
116	0xbdd89082	-0.10574438
117	0x3b1a546e	0.002354886
118	0xbc88a243	-0.016678935
119	0xbd131e31	-0.035917465
120	0xbcab4c3c	-0.020910375
121	0x3cb4d2b1	0.022073122
122	0x3988ac3a	0.0002606826
123	0xbdedb203	-0.11606219
124	0xbdd28203	-0.10278704
125	0xbe063cad	-0.13109083
126	0x3cf45fe4	0.02983088
127	0x3d89f0c6	0.06735377
128	0xbd890bf3	-0.06691732
129	0xbe487811	-0.19577052
130	0xbda4057c	-0.080088586
131	0xbe70be81	-0.23510171
132	0xbe127b38	-0.14304817
133	0xbcc2af13	-0.023765123
134	0xbdcb8bbc	-0.099387616
135	0x3dd36e54	0.10323778
136	0x3da56254	0.08075395
137	0xbc594624	-0.013261352
138	0xbaef5b56	-0.0018261473
139	0x3d5cee79	0.053938363
140	0x3cacc6b0	0.021090835
141	0xbde82e58	-0.11336964
142	0xbe0d3178	-0.13788402
143	0xbdf74d33	-0.120752715
144	0x3d8eb0f4	0.06967345
145	0x3d042771	0.032264177
146	0x3d17eec5	0.037092943
147	0xbce905d4	-0.028445162
148	0xbdcc836b	-0.099860035
149	0xbd05c250	-0.032656014
150	0x3b8fa25e	0.0043833693
151	0xbd631b94	-0.055446222
152	0xbd4cb7dc	-0.04998003
153	0x3d536f37	0.051619735
154	0xbd68650e	-0.056737
155	0xbe3a360b	-0.18184678
156	0xbcf5bdbf	-0.029997705
157	0xbe240d7a	-0.16020766
158	0xbe468981	-0.19388391
159	0x3d9c1ed9	0.07623071
160	0xbda87972	-0.08226289
161	0xbd46859e	-0.04846727
162	0xbcdab823	-0.026699131
163	0xbd8ce7ad	-0.06880126
164	0xbd591f92	-0.053008623
165	0xbbbb0f52	-0.0057086134
166	0xbdd5cfb3	-0.10440006
167	0xbdb49014	-0.08816543
168	0xbb937b79	-0.004500803
169	0xbde50eff	-0.11184501
170	0xbdc883cf	-0.097907655
171	0x3e2c80d7	0.16846023
172	0x3e395c83	0.18101697
173	0x3deaa6fe	0.114576325
174	0x3dce01b0	0.100589156
175	0xbd2fd98d	-0.042932082
176	0xbd3732c6	-0.044726156
177	0x3db8ca69	0.09022982
178	0xbe06dc11	-0.13169886
179	0xbe1b43b4	-0.15162545
180	0x3d4389d4	0.047738865
181	0x3d8c9919	0.068651386
182	0x3d9316ad	0.071820594
183	0xbd289676	-0.041159116
184	0xbd083fc3	-0.033263933
185	0xba7b06ed	-0.0009575922
186	0x3db65a89	0.08903987
187	0x3bb703aa	0.0055851536
188	0xbb14f909	-0.0022731444
189	0x3e03ecb6	0.12883267
190	0x3ddbc64c	0.107311815
191	0x3d4a4307	0.04938033
192	0x3d028b2a	0.031871
193	0xbd9e4488	-0.07727915
194	0xbd9e0adb	-0.07716914
195	0x3cc21fd2	0.023696814
196	0xbe080cdf	-0.1328616
197	0xbddcf0f0	-0.10788143
198	0x3dce08b4	0.10060254
199	0x3c357270	0.011074647
200	0x3d08b2e9	0.033373747
201	0x3db9b3e5	0.09067515
202	0xbd7cadaa	-0.061689056
203	0xbd3cd3fb	-0.046100598
204	0x3e10540d	0.14094563
205	0xbc98e9bd	-0.018666143
206	0xbd15a96a	-0.03653852
207	0x3cba7989	0.02276303
208	0x3bbbffb2	0.0057372684
209	0x3d57ed11	0.05271632
210	0xbc87b79d	-0.016567046
211	0xbc62f56c	-0.013852458
212	0x3cf93b7b	0.03042387
213	0x3d43b6f3	0.047781896
214	0x3c8ba018	0.017044112
215	0x3c8459d2	0.01615611
216	0x3b0176e8	0.0019754712
217	0xbbd05e5c	-0.0063589048
218	0x3a99e819	0.0011742144
219	0xbd5a0a21	-0.053232316
220	0xbd3895ec	-0.04506485
221	0xbd4e4c1e	-0.05036556
222	0x3cd42afc	0.025899403
223	0xbcef7772	-0.02923176
224	0xbc7c44cb	-0.015397261
225	0xbd80663b	-0.06269499
226	0xbcda6ad6	-0.026662271
227	0x3c8b8f98	0.017036244
228	0xbccbb19c	-0.024864964
229	0xbcef0469	-0.029176908
230	0xbca21cb2	-0.019789074
231	0x3ccce17d	0.025009865
232	0x3d3c45cd	0.045965005
233	0xbcfb7a30	-0.030697912
234	0x3ce9f2b4	0.028558113
235	0x3c821923	0.015881127
236	0x3d447545	0.0479634
237	0xbcbb5b71	-0.022870751
238	0xbda50341	-0.08057261
239	0xbcaee188	-0.021347776
240	0x3d3353c3	0.043781053
241	0xbcda8db2	-0.026678894
242	0xbd046e8e	-0.032331996
243	0x3d838755	0.06422297
244	0xbe26c0a9	-0.16284432
245	0xbe0de5b5	-0.13857158
246	0x3d48bfb0	0.049010932
247	0xbe50f5a2	-0.20406201
248	0xbe57a685	-0.21059616
249	0x3d8cc962	0.06874348
250	0xbe2d0e6c	-0.16900033
251	0xbdbc4d89	-0.09194476
252	0x3c08b2ce	0.008343412
253	0x3d64c164	0.055848494
254	0x3d93b2eb	0.0721186
255	0xbd09c98b	-0.033639472

onnx::Conv_52 f4 [64]
0	0x3f92a438	1.1456366
1	0x3e065448	0.13118088
2	0xbeec5673	-0.46159706
3	0xbebc456c	-0.36771715
4	0x3e1a6b10	0.15079904
5	0xbef97f3c	-0.48729885
6	0xbf8754df	-1.0572776
7	0x3ed18a32	0.40925747
8	0xbbefdc80	-0.007319987
9	0x3eda2d5a	0.42612725
10	0xbd928c78	-0.071556985
11	0xbf769227	-0.9631676
12	0xc023eb9e	-2.561256
13	0xbfd415b4	-1.6569123
14	0xbfbdeb79	-1.4837486
15	0x3eb5c7ec	0.3550409
16	0x3e2a3268	0.16620791
17	0x3e610e8e	0.21978208
18	0xbec34225	-0.38136402
19	0xbf7e6fe0	-0.9938946
20	0x3e70ad64	0.23503643
21	0xbfa4536c	-1.2837958
22	0xbfed8358	-1.8555708
23	0x3ec747b4	0.38921893
24	0x3f8602e2	1.046963
25	0x3fc2eb12	1.5227988
26	0x3f071019	0.5275894
27	0xbf3640cd	-0.7119263
28	0xbd4fb300	-0.050707817
29	0x3f206188	0.6264882
30	0x3faf4980	1.3694305
31	0xbf553cef	-0.832961
32	0x3e9563a6	0.29177588
33	0xbf9ad127	-1.2095078
34	0x3db74e90	0.089505315
35	0xbe1c6c10	-0.15275598
36	0x3e708e3c	0.23491758
37	0x3d941378	0.07230276
38	0x3ef49cd0	0.47775888
39	0xbfd91d14	-1.6961999
40	0xbfa3df2b	-1.280248
41	0x3f96e896	1.178973
42	0xbe0c67d8	-0.13711488
43	0xbfb89bfe	-1.4422605
44	0x3fe5c273	1.7949966
45	0x3f487719	0.7830673
46	0xbf0559b4	-0.5209
47	0xbdf35964	-0.11882284
48	0xbf998d04	-1.199616
49	0x3efbd246	0.49183863
50	0x3c19ea40	0.009394228
51	0xbfa6c796	-1.3029659
52	0xbf50cf1c	-0.81566024
53	0xbfccb45d	-1.5992543
54	0x3ee20c3c	0.4414996
55	0x3e054dec	0.13018006
56	0xbe0bce78	-0.1365298
57	0xbf2a6b7a	-0.66570246
58	0x3d554f48	0.05207756
59	0xbdafeef8	-0.085905015
60	0x3e60042c	0.21876591
61	0xbd2c76a0	-0.042105317
62	0xbf890273	-1.0703872
63	0x3eaa515a	0.3326519

onnx::Conv_54 f4 [64, 64, 3, 3]
0	0xbcf5b15c	-0.029991798
1	0xbe2f4b68	-0.17118609
2	0x3e6d0147	0.23145019
3	0xbe1b27b0	-0.15151858
4	0xbeb81b88	-0.35958505
5	0x3ccb1377	0.024789555
6	0xbd798771	-0.060920183
7	0xbe89c636	-0.26909035
8	0xbd2e0d69	-0.042493258
9	0x3e1bcb6d	0.1521432
10	0x3e27fded	0.16405459
11	0x3de310dd	0.11087201
12	0xbd1714c7	-0.03688505
13	0x3cd8f961	0.0264861
14	0x3d1243aa	0.03570906
15	0xbd1ef48d	-0.03880744
16	0x3cec6e81	0.028861286
17	0x3d219b85	0.039454956
18	0xbe2a7470	-0.1664598
19	0xbe06b51d	-0.13155027
20	0xbe14e542	-0.1454058
21	0xbde7f8dd	-0.11326764
22	0xbe254910	-0.16141152
23	0xbdffab38	-0.12483829
24	0xbd8d9be8	-0.069145024
25	0xbe1ad293	-0.1511939
26	0xbe38ffd5	-0.18066342
27	0xbec7b4d6	-0.39005154
28	0xbe2abc17	-0.16673313
29	0xbeaf0fe1	-0.34191802
30	0xbea2e41b	-0.31814656
31	0xbe02e2b6	-0.12781796
32	0xbea562e5	-0.32302013
33	0xbdde0651	-0.108410485
34	0xbe0003de	-0.12501475
35	0xbebe2231	-0.3713546
36	0x3e0d9012	0.1382449
37	0xbce7848a	-0.028261442
38	0x3d8280c0	0.06372213
39	0x3be6b7a0	0.007040933
40	0xbe31f64c	-0.17379111
41	0xbd39a94b	-0.045327466
42	0x3e1437ca	0.14474407
43	0x3cafefcb	0.021476647
44	0x3e52f59f	0.2060151
45	0x3c86772f	0.016414253
46	0x3ca44a3e	0.020054933
47	0x3dbda4e4	0.09259966
48	0xb98e09f5	-0.0002709177
49	0xbd2682a0	-0.040651917
50	0x3c2f15bb	0.010686333
51	0xbd1b191b	-0.03786574
52	0xbe0f1ae3	-0.139751
53	0xbdeee452	-0.116646424
54	0xbe319fba	-0.17346087
55	0xbe403b75	-0.18772681
56	0xbe777c9b	-0.24168627
57	0xbe01440c	-0.12623614
58	0xbdf4d7c4	-0.119552165
59	0xbe2c1b88	-0.16807377
60	0xbe0879d7	-0.13327728
61	0xbdc7bcec	-0.09752831
62	0xbe41baf8	-0.18918979
63	0x3e000399	0.12501372
64	0x3d8ecba7	0.06972437
65	0x3d2d7d74	0.04235597
66	0x3cfb20f7	0.030655367
67	0xbcab3ff1	-0.020904513
68	0xbd63b7ee	-0.05559533
69	0x3da42a1d	0.08015845
70	0x3d497e71	0.04919285
71	0x3c816a8f	0.015797881
72	0xbe35bde5	-0.1774822
73	0xbe68ce42	-0.22734931
74	0xbe1645eb	-0.14675109
75	0xbe0e067f	-0.13869666
76	0xbe44bfc2	-0.19213775
77	0xbe20d9ff	-0.15708159
78	0xbd9a836f	-0.075446
79	0xbe2710af	-0.16314958
80	0xbe516055	-0.20446904
81	0xbe056050	-0.13025022
82	0xbe0c7575	-0.13716681
83	0x3e59bd01	0.21263506
84	0xbe5f9272	-0.21833208
85	0xbe488d63	-0.19585185
86	0x3d93e78a	0.07221897
87	0xbdb7a092	-0.08966173
88	0xbe65a79a	-0.22427216
89	0x3e226c10	0.15861535
90	0x3c391463	0.0112963645
91	0x3d348a9c	0.0440775
92	0x3b45add4	0.0030163424
93	0x3c832f0b	0.016013643
94	0x3c45917c	0.012058612
95	0xbd1be4f4	-0.038060144
96	0xbded00fb	-0.11572453
97	0xbd3b52bc	-0.0457332
98	0xbdda5d86	-0.106623694
99	0xbd7fa208	-0.062410384
100	0xbe0e017f	-0.13867758
101	0xbe194d0c	-0.14970797
102	0xbdeb3788	-0.11485201
103	0xbe2f7aad	-0.17136641
104	0xbdf5e33c	-0.12006232
105	0xbdf13d56	-0.11779277
106	0xbe135db6	-0.14391217
107	0xbdb9c636	-0.09071009
108	0xbccfd8ae	-0.025371876
109	0x3dafa972	0.08577241
110	0x3e2ab983	0.1667233
111	0xbca12467	-0.019670678
112	0x3e0d58c8	0.13803399
113	0x3e62cc11	0.22148158
114	0x3d2b8b64	0.04188098
115	0x3dc2bfac	0.09509215
116	0x3d927228	0.0715068
117	0x3bcf482a	0.0063257413
118	0x3e003eb9	0.12523927
119	0x3dd6d1c1	0.10489226
120	0xbcc8f034	-0.0245286
121	0x3d2a5640	0.04158616
122	0x3dc954ec	0.09830651
123	0xbce10cb6	-0.027471881
124	0x3ca880d5	0.020569244
125	0x3d3ee2df	0.04660308
126	0xbe5afe80	-0.21386147
127	0xbda018ea	-0.07817252
128	0xbd88feb3	-0.06689205
129	0xbe39d9bd	-0.18149467
130	0xbdce917d	-0.100863434
131	0xbe0b2a32	-0.13590315
132	0xbe27a3be	-0.16371056
133	0xbd26fcfc	-0.04076861
134	0xbdddfc55	-0.10839144
135	0x3cf06f1e	0.02934986
136	0xbd246f10	-0.04014498
137	0xbc817c31	-0.01580629
138	0xbc550d8e	-0.01300372
139	0xbd975fac	-0.07391295
140	0xbd950a22	-0.07277323
141	0x3cd6a473	0.026201462
142	0xbcc4b445	-0.02401174
143	0xbd5bca89	-0.05365995
144	0xbb251fe7	-0.0025196017
145	0xbd3251c1	-0.043534998
146	0xbb6c49da	-0.003605476
147	0xbe37f190	-0.17963243
148	0xbde62106	-0.112367675
149	0xbd0aca19	-0.03388414
150	0xbd897227	-0.06711226
151	0xbd33a236	-0.04385587
152	0x3dc13bdc	0.094352454
153	0xbcbc5f5c	-0.02299469
154	0x3d7341d7	0.05938896
155	0x3da63c76	0.08117001
156	0xbd6cfefd	-0.057860363
157	0x3d8de733	0.069288634
158	0x3e140dc7	0.1445838
159	0xbcd4eff5	-0.025993327
160	0x3e497db8	0.19676864
161	0x3e84bcda	0.25925332
162	0xbd94478f	-0.07240211
163	0xbd939102	-0.072053924
164	0xbd67d11d	-0.05659591
165	0xbd9833a3	-0.07431724
166	0xbd29e60a	-0.041479148
167	0xbd3adc68	-0.045620352
168	0xbb5db0d3	-0.003382732
169	0xbdc66530	-0.09687269
170	0xbd9ea9a6	-0.077472016
171	0xbe8d1799	-0.27557066
172	0xbe2fb192	-0.17157581
173	0xbe1cfab7	-0.15330015
174	0xbe0d642b	-0.13807742
175	0xbe0deb5d	-0.13859315
176	0xbd3c132f	-0.045916732
177	0xbdf4c86e	-0.119522914
178	0xbdc4005d	-0.09570382
179	0xbd6fcffe	-0.058547966
180	0x3c9552ae	0.018227901
181	0x3e0ebf87	0.1394025
182	0x3d8a35b6	0.06748526
183	0x3d9c59e6	0.07634334
184	0x3e1fb918	0.15597951
185	0x3ddbce8a	0.107327536
186	0x3d6823fd	0.056674946
187	0x3de45550	0.111490846
188	0xbd402ff1	-0.04692072
189	0xbe9649cd	-0.2935318
190	0xbe8b54df	-0.2721319
191	0xbea89189	-0.32923535
192	0xbe3c83de	-0.18409678
193	0xbe758dcd	-0.23979874
194	0xbe8a18ad	-0.2697195
195	0xbe3cb60f	-0.18428825
196	0xbe72477e	-0.23660085
197	0xbea5c584	-0.32377255
198	0xbdcd00d8	-0.100099266
199	0xbdb02742	-0.08601238
200	0x3c160049	0.009155341
201	0xbdf8c3cf	-0.121467225
202	0xbde6da21	-0.112720735
203	0xbba5ca4c	-0.005059516
204	0xbd9cbf80	-0.07653713
205	0xbdcccfa6	-0.10000543
206	0xbb1b34e8	-0.0023682658
207	0x3db026b5	0.08601133
208	0xbe09fa5f	-0.13474415
209	0xbe3c174f	-0.18368267
210	0x3daf7385	0.085669555
211	0xbdceff09	-0.10107238
212	0xbe306d7a	-0.17229262
213	0x3e109002	0.14117435
214	0xbd8603f5	-0.065437235
215	0xbe3a4284	-0.18189436
216	0xbd98cbc6	-0.07460742
217	0xbd0dda2b	-0.03463189
218	0xbc773563	-0.015088412
219	0x3d76148c	0.06007819
220	0xbb76a5bd	-0.0037635409
221	0xbc365855	-0.011129458
222	0x3e42d4fb	0.19026558
223	0x3d44ff7a	0.048095204
224	0xbd9a0460	-0.07520366
225	0x3cb64fb2	0.022254799
226	0xbc234a9c	-0.009966519
227	0xbcd42702	-0.025897507
228	0x3d26b005	0.04069521
229	0x3d112f72	0.035445638
230	0x3d2912c0	0.041277647
231	0x3d55331a	0.052050687
232	0x3d715503	0.058918964
233	0x3d8549c8	0.06508213
234	0xbd46a559	-0.04849753
235	0xbd8ef201	-0.06979752
236	0xbcb2592a	-0.021771032
237	0xbe2f9290	-0.17145753
238	0xbe4fdb9a	-0.20298615
239	0xbe03919b	-0.12848513
240	0xbe390533	-0.1806839
241	0xbe0920d9	-0.13391437
242	0xbdf66827	-0.12031584
243	0xbe11a033	-0.14221267
244	0xbdc935c2	-0.098247066
245	0xbd7d346f	-0.061817583
246	0xbd26b752	-0.04070217
247	0xbc8f09fc	-0.017460816
248	0xbca4f93a	-0.020138372
249	0x3cd83e6d	0.026396954
250	0x3dbebcca	0.093133524
251	0x3d77942d	0.060444046
252	0x3dd58057	0.104248695
253	0xbddeca79	-0.10878462
254	0xbe27b20c	-0.16376513
255	0x3d8bb6a0	0.06821942

onnx::Conv_55 f4 [64]
0	0x401e2197	2.4708002
1	0xbf5f5e94	-0.8725369
2	0xbf7b19b6	-0.98086107
3	0x3d31870c	0.04334168
4	0x3dd8841e	0.10572074
5	0xbfa715da	-1.3053544
6	0xbeda2048	-0.42602754
7	0x3c55dae0	0.013052672
8	0xbf442712	-0.76622117
9	0x3f07dbf0	0.53069973
10	0xbd423eb0	-0.047423065
11	0x401b53e9	2.4269965
12	0xbe845e9e	-0.25853437
13	0xbfc75c7c	-1.5575099
14	0xbefc34e4	-0.49259102
15	0xbf2deae4	-0.6793654
16	0xbf26e071	-0.6518622
17	0x3f8cbf78	1.0995932
18	0xbe84f2e1	-0.25966552
19	0xbf4b94c5	-0.7952388
20	0xbd80ec07	-0.06295019
21	0x3f217dbc	0.6308248
22	0x3f059ab2	0.5218917
23	0xbf0826dd	-0.531843
24	0xbed600ca	-0.41797477
25	0x3d96b684	0.07359031
26	0xbf919215	-1.1372706
27	0xbf34fabd	-0.70695096
28	0xbfb8a211	-1.4424459
29	0x3e379227	0.17926846
30	0xc01ee429	-2.4826758
31	0x3c8ce640	0.017199636
32	0xbe605667	-0.2190796
33	0x40054f18	2.0829525
34	0xbf8e5875	-1.1120745
35	0xbe418ba3	-0.18900923
36	0x3f63a89b	0.88929147
37	0xbf26e464	-0.65192246
38	0xbeca1922	-0.394723
39	0x3eeea327	0.4660885
40	0xbf2dd52e	-0.6790341
41	0x4021e205	2.5294201
42	0xbfd02c36	-1.6263492
43	0xbfbe9866	-1.4890258
44	0xc00c1ed0	-2.1893806
45	0xbd4d8a73	-0.050180864
46	0x402e5009	2.723635
47	0x3f65f61b	0.8982865
48	0xbf9a4a90	-1.2054005
49	0x3e8fe28c	0.2810253
50	0x3ff507e7	1.9143037
51	0xbfa0a396	-1.2549922
52	0xbf7ae7da	-0.9801003
53	0xbf55fa27	-0.8358483
54	0xbf95b418	-1.1695585
55	0xbf98e280	-1.1944122
56	0xbf960588	-1.1720438
57	0x3f4608f2	0.773574
58	0x3f957748	1.1677027
59	0x3f40c7e3	0.75305
60	0xbeb0b65d	-0.34514132
61	0x4007a467	2.1194093
62	0x3b557580	0.0032571256
63	0x3f8ab2ae	1.0835779
