model/2023_4_14_hj_num_1.onnx (onnx, 194252 bytes, 34 tensors)

bottle_neck1.bottle_neck.0.conv.weight f4 [4, 8, 1, 1]
000000 c4 cd 1b 3f a8 71 20 3e f9 02 cb 3d d5 3c 61 be
       0.6086085 0.15668356 0.09912676 -0.21995862
000010 a0 33 0d bd 0b d4 45 3e a2 5c 27 3d e7 d3 4f 3c
       -0.03447306 0.19319169 0.040859826 0.012684799
000020 09 fa 3e be 2e 6a 5a 3e a0 47 aa bd f6 d6 2e 3d
       -0.18650068 0.21329567 -0.08314443 0.04268547
000030 91 e0 59 3d 35 89 01 be e0 b8 2f be dc 55 b1 3e
       0.05319268 -0.12649997 -0.17160368 0.34635818
000040 d9 83 3c be 89 04 67 be 6d d6 f8 3c 9f 43 d2 be
       -0.18409671 -0.22560324 0.030375684 -0.41067216
000050 77 9b a9 be 14 cf ab be 8b 64 ba 3d d2 b5 8d be
       -0.33126423 -0.33556426 0.09101208 -0.2767778
000060 61 df bd bd 18 80 11 be 83 5d 8e be b7 41 0b 3e
       -0.09271122 -0.1420902 -0.2780572 0.13599287
000070 86 31 5a be 9e 46 b6 3c f0 2d 4a bd a7 11 13 3f
       -0.21307954 0.02225047 -0.049360216 0.5744881

bottle_neck1.bottle_neck.1.conv.weight f4 [8, 1, 3, 3]
000000 a4 4d 31 3e fa ee 1a 3e 53 57 99 be a3 f9 40 3e
       0.17314774 0.15130225 -0.29949436 0.18845229
000010 e2 6f 1a be 82 5a 6f bd 14 ad 65 be 7e 8b 29 bd
       -0.15081742 -0.058435924 -0.22429305 -0.041392796
000020 7e 6d 97 3e d7 39 ba 3e 02 31 c4 3d 3e 49 33 3e
       0.29575723 0.36372253 0.0957966 0.17508408
000030 ca 0c 28 3e 70 11 24 3e 3c 2f b8 3d 26 ad c8 bd
       0.16411129 0.16022277 0.08993384 -0.097986504
000040 11 7e 14 bd 6a 98 ad be 3e 31 13 3e ba 29 5b bd
       -0.03625304 -0.33905345 0.14374253 -0.05350659
000050 59 a5 32 3e 31 44 7e 3e 88 97 0e 3e 1e c8 e3 3e
       0.17445888 0.248307 0.13924992 0.44488615
000060 00 9e 9d bd 88 a9 31 3e 31 ee 6b 3e 22 1f 95 3e
       -0.07696152 0.17349827 0.23040082 0.29125315
000070 94 7c 43 3e 37 3a e5 bd 4a 3e e7 bd da 21 9c bd
       0.19090492 -0.11192744 -0.112911776 -0.07623644
000080 33 1a 56 be dc a4 e3 be 7b 47 40 be ad 03 19 be
       -0.20908432 -0.44461715 -0.18777268 -0.14942808
000090 29 8c 42 be 65 44 81 be d6 68 38 be 06 2f 26 be
       -0.1899878 -0.25247493 -0.18008742 -0.16228876
0000a0 75 95 69 3d a2 11 a1 3d 7c d2 9a be bd 48 86 bd
       0.0570273 0.07864691 -0.30238712 -0.065568425
0000b0 7b 8a ba be 49 48 84 3c 17 31 02 be fe 73 12 3e
       -0.36433777 0.01614775 -0.12714039 0.1430206
0000c0 77 f7 a8 be 28 a8 85 3d f2 2e a6 3d 3f 55 5c 3d
       -0.330013 0.06526214 0.08114423 0.053792235
0000d0 4e 2a d4 be cf d6 40 be e6 c9 bd 3d a3 2c cf bd
       -0.41438526 -0.18831943 0.09267025 -0.10115936
0000e0 a9 95 50 be bd 34 dd be 7a 6b 24 bd 65 f9 47 3d
       -0.20369591 -0.432043 -0.04014156 0.048821826
0000f0 94 e1 62 3e 15 8a a7 3b 7a 28 98 3e ef 69 23 3e
       0.22156364 0.005112896 0.2971838 0.15958379
000100 76 29 b5 3d fa fe 30 3e 5e f0 47 be ae fc 64 be
       0.08845799 0.17284766 -0.19525287 -0.22362015
000110 3a 0e 31 bd 14 3f 22 bd 0d cc 80 bb 95 6a 10 3f
       -0.043226458 -0.039610937 -0.0039305747 0.5641263

bottle_neck2.bottle_neck.0.conv.weight f4 [8, 16, 1, 1]
000000 eb 5f f3 3d 59 0c 9b 3e 86 8c d5 bd 8a 8e 97 be
       0.11883529 0.30282858 -0.10427193 -0.29600936
000010 f2 e3 33 be 38 f2 88 3e 29 51 22 be 69 4b 58 3e
       -0.17567423 0.26747298 -0.15851273 0.21122517
000020 1a 4f 8c 3d c0 e1 15 be fa f1 9b 3e 0c ce 9b 3e
       0.06851025 -0.14636898 0.3045805 0.3043064
000030 2e c7 89 3d f8 c3 09 3e f1 04 59 be ee 9b 82 3e
       0.06727444 0.13453662 -0.21193291 0.2550959
000040 fb 41 0f be 62 57 86 bc 1d cf ea 3e eb 96 45 3c
       -0.13990013 -0.01639909 0.4586114 0.012059907
000050 24 6a b2 3d 87 3e bc bd 8f 95 76 bc 78 68 c7 bd
       0.08711651 -0.09191614 -0.015050306 -0.09736723
000060 fa 61 fa bc 67 69 36 bc ba 46 df bd 71 ca 3d 3d
       -0.030564297 -0.011133528 -0.10902162 0.04633564
000070 c3 aa 8f be 8e 80 aa be 28 f7 59 bd 37 f0 90 be
       -0.28059968 -0.33301204 -0.053214222 -0.2830827
000080 0e fd 1d be 1e ca 61 be 69 16 1a bc 39 19 a9 be
       -0.15428564 -0.22049758 -0.009404757 -0.33027056
000090 11 84 75 be b2 4c b4 3d e5 ef bb be cf 7f 89 bd
       -0.2397616 0.08803691 -0.36706463 -0.06713831
0000a0 34 24 28 be d1 b9 ca be ef fd 08 bc d6 1f ca bd
       -0.1642006 -0.39594892 -0.008361324 -0.098693535
0000b0 b9 d4 b6 3d 26 c0 db 3c 66 bf 48 3c 2b 4a 05 bf
       0.089272924 0.026825022 0.012252664 -0.52066296
0000c0 96 96 6e bd b9 fe 6d 3d 45 c5 06 be 4a ff 9d 3e
       -0.05824908 0.05810425 -0.1316119 0.30858833
0000d0 33 75 b4 bd 1e 72 a5 bd b5 fb 62 bd 9e ac b5 3d
       -0.088114165 -0.08078407 -0.055415828 0.08870815
0000e0 52 76 79 3e 03 96 f6 3c f0 df 8b be 6c c3 1e be
       0.24361542 0.030100828 -0.27319288 -0.15504235
0000f0 dd b4 a7 bd 11 d5 09 bd 68 8b 4e be e7 2d b0 3e
       -0.08188794 -0.03365046 -0.20170367 0.3441002
000100 31 bf e3 bd 3f 71 b4 bd ca 7d c9 3e 1d 6e d2 bc
       -0.11120451 -0.088106625 0.39353782 -0.025687272
000110 96 8e 36 3d 9b d0 3d bd 19 b3 9d 3e bb f3 52 be
       0.044569574 -0.04634152 0.30800703 -0.20600788
000120 d0 e1 bb 3c e7 6b 22 be 87 fc 51 be c8 33 eb bc
       0.022934824 -0.15861474 -0.20506488 -0.028711215
000130 b1 10 b9 3e e8 2f 30 3e ce 11 e7 3d 5a 84 6f be
       0.36145547 0.17205775 0.11282693 -0.23390332
000140 44 8e 24 3e 29 70 15 3f d4 7a 62 bb 76 b6 cc be
       0.16069895 0.5837427 -0.0034558075 -0.39982957
000150 11 5d 5f bd e3 fa 71 3d 86 a1 09 3c 44 0a 58 3e
       -0.054532114 0.059077155 0.008400327 0.21097666
000160 9c 38 91 bd 55 4a 8a 3d d6 e0 26 bd 02 c4 45 3d
       -0.070908755 0.06752459 -0.040741764 0.04828263
000170 81 1f 58 3d 86 96 36 be 6e 07 7e 3e 6b 0d 46 bd
       0.05276442 -0.17830858 0.24807522 -0.04835264
000180 10 07 fc bb bc e2 46 bd 7e 02 a1 3e 6a eb 4f 3e
       -0.0076912716 -0.048556075 0.31447214 0.20304647
000190 26 c0 9d 3d af 6e d0 3d 04 31 f0 3c 27 5a 02 3e
       0.07702665 0.10177361 0.029320247 0.12729703
0001a0 9b a4 e0 3d 9c 14 2c 3e 27 be 8f 3d 6d 30 86 3c
       0.10968896 0.16804737 0.070186906 0.016380513
0001b0 05 41 c4 3e e5 04 96 3e 3c 39 df be ca e2 d9 3e
       0.38330856 0.2930061 -0.43598354 0.4255584
0001c0 4d 3f 2f be 3a 41 6c be 40 10 77 be ee 52 01 bd
       -0.17113991 -0.23071757 -0.24127293 -0.03157323
0001d0 f3 ed b3 be 01 08 dc bd e3 42 7b 3e 7d 9a 20 bd
       -0.35142478 -0.10743714 0.24537234 -0.03920983
0001e0 5f 57 a8 be 49 ca 9d be 87 20 07 be 06 ac 01 bc
       -0.3287916 -0.30818394 -0.13196002 -0.007914549
0001f0 f8 b3 15 3c 50 db 95 bd 96 38 0c bf 5f 9a f1 ba
       0.009137146 -0.07317221 -0.54773843 -0.0018432847

bottle_neck2.bottle_neck.1.conv.weight f4 [16, 1, 3, 3]
000000 37 32 e0 bd 38 4c 00 bf ac 18 7e be c7 a1 44 be
       -0.10947078 -0.501163 -0.24814099 -0.19202338
000010 0f 82 61 3e e9 83 1b 3d 4e 59 18 bb 96 e7 71 3e
       0.2202227 0.037967596 -0.002324659 0.236235
000020 95 4c 3a be 87 3d 2f 3e 85 f1 bc 3c 69 8c e9 3e
       -0.18193276 0.17113315 0.023064384 0.45614937
000030 1f 4f 7f 3d 7b cf 68 be 83 93 aa 3e 2e 82 39 be
       0.062331315 -0.22735398 0.33315668 -0.18116066
000040 af b5 58 3d eb 3e 6e 3e 2a 2d 43 be f0 c7 f4 be
       0.052907642 0.23266189 -0.19060197 -0.4780879
000050 31 1e 1b 3e 71 4f e6 bb 92 d0 e5 3c 41 fa 69 be
       0.15148236 -0.007028513 0.028053556 -0.2284937
000060 7c b0 02 3e 08 64 9f bc 11 47 6f be 79 04 b4 3d
       0.12762636 -0.019456878 -0.23366953 0.087899156
000070 b1 81 00 be 3a a6 90 3d e9 72 b3 3d e4 06 57 3d
       -0.12549473 0.07062955 0.08762152 0.052496806
000080 fb ee 00 3f e7 39 31 3e a8 e7 6c 3e 79 f5 f0 3e
       0.50364655 0.17307244 0.23135245 0.4706228
000090 4d 2e b5 be 34 5b ea 3c f8 8e 5e be 3d bf ef 3d
       -0.35386887 0.028607942 -0.21734226 0.11706398
0000a0 c7 92 39 3c 00 38 2e bc 47 69 86 be 04 b1 03 3e
       0.011326498 -0.010633469 -0.26252195 0.12860495
0000b0 3f 58 88 3e e3 e5 0b bf b3 80 7d be 11 d0 34 3e
       0.26629826 -0.54647654 -0.24756126 0.17657496
0000c0 9d a9 8c be 75 f9 37 be 2b 70 1b bd d0 57 cf be
       -0.27473155 -0.17966254 -0.03794877 -0.40496683
0000d0 21 f3 9b be 05 20 15 3e 01 b4 cd 3e ed 86 0e 3d
       -0.3045893 0.14562996 0.40176395 0.034796644
0000e0 91 9a c0 3d 36 9c 3d 3f a3 fd 9f bd a0 f6 34 3e
       0.09404481 0.74066484 -0.07812049 0.17672205
0000f0 03 55 94 3e 50 4d ce bd 7a bc 3a be a4 53 eb 3c
       0.2897111 -0.1007334 -0.1823596 0.028726406
000100 c6 34 b0 3d 36 84 49 3e 5d da 0e 3d 5a 3f c9 bd
       0.08603816 0.1967934 0.034876216 -0.098265365
000110 98 ce c8 3d e4 41 e9 be e8 9f 99 bd 99 45 1f be
       0.0980503 -0.45558083 -0.07501203 -0.15553893
000120 57 e4 cb be 13 24 a7 be 22 49 62 be 82 01 74 bd
       -0.39822647 -0.3264471 -0.2209821 -0.05957175
000130 ec 78 be be 1a c9 18 bf 29 0b 96 bc 0f b8 0d 3e
       -0.3720163 -0.59681857 -0.018315868 0.13839744
000140 8f 20 3b be 35 d3 22 be 68 7c 2f bc f0 a9 44 3e
       -0.18274139 -0.15900882 -0.010710813 0.19205451
000150 d6 d3 23 be ce 46 2e 3d 94 c1 0b be 4f 9a df be
       -0.15998778 0.042547993 -0.13648063 -0.43672416
000160 4d 06 93 3d 2c c3 8c 3e e5 76 61 bb 65 86 35 3e
       0.07178936 0.27492654 -0.0034403142 0.17727049
000170 2e b5 20 be a5 f1 3e 3e 92 59 e5 3e e0 d9 10 bd
       -0.15694115 0.18646868 0.447949 -0.03536403
000180 c2 ce 93 bc fe 9b b6 3e 7f ef 3b 3e fd ff 3b 3e
       -0.018042926 0.35665888 0.1835308 0.1835937
000190 11 cf b5 3e d8 3a d5 3e b0 3c 15 3e 76 f3 40 3e
       0.35509542 0.41646457 0.14573932 0.18842873
0001a0 b9 77 b9 3c d6 6e 37 3e a2 55 27 3e 33 9e 2e 3d
       0.022640096 0.17913374 0.1634126 0.04263134
0001b0 3c 7b 0a 3e 8b a0 94 3e 9d 8f f8 bd 72 72 df bc
       0.13523573 0.29028735 -0.12136767 -0.027276251
0001c0 b8 fc 8b 3e 35 f7 31 be 09 31 bb 3d 66 65 9a 3e
       0.27341247 -0.17379458 0.09140212 0.30155486
0001d0 dd 04 3e 3e 75 9b 9b 3e 59 63 cf 3e f4 a9 d6 3e
       0.18556543 0.30392042 0.40505484 0.4192654
0001e0 f8 1b d7 3d 49 fa a3 bd 83 12 89 3e f9 13 c2 bd
       0.105033815 -0.080067225 0.26771936 -0.09476466
0001f0 5e fa 12 3d 07 59 4c 3d 8f 21 96 be 1d 1e 64 be
       0.0358833 0.04988959 -0.29322478 -0.22277112
000200 4c f8 b5 bd 33 c1 a3 bd 9b 2c 57 be 0d 6b 6b be
       -0.088852495 -0.07995834 -0.2101311 -0.22990055
000210 d9 66 9a be dc 90 07 be ae 36 dc be 25 be 39 3e
       -0.30156592 -0.13238853 -0.43010467 0.1813894
000220 ef 73 68 bc 81 9f c5 bd b4 dc b3 bd 48 96 72 be
       -0.014187797 -0.096495636 -0.0878233 -0.2369014
000230 b8 b7 b6 be 54 cd 5d 3e 53 f9 70 3d 64 44 41 3e
       -0.3568704 0.21660358 0.058831524 0.18873745

bottle_neck3.bottle_neck.0.conv.weight f4 [16, 32, 1, 1]
000000 3f a4 99 bb a5 e9 ae 3e ec 44 12 3e a9 ed 46 3d
       -0.004688769 0.34162632 0.14284104 0.048566494
000010 66 97 5e 3a 36 d7 93 3c 6e 18 73 3e 5e 9a 92 3e
       0.0008491188 0.018046957 0.23739788 0.28633398
000020 f8 73 ea bd a4 75 a9 bd 12 39 6c 3e 96 5f 1c be
       -0.114479005 -0.08274391 0.23068646 -0.15270838
000030 79 5b ac be b4 d2 ce 3e 47 c1 29 3e f4 02 2b 3d
       -0.33663538 0.4039513 0.16577636 0.041750863
000040 71 15 02 be 81 09 68 3e 5b 6d a3 3d 43 24 f3 3c
       -0.12703492 0.22659875 0.07979842 0.029680377
000050 78 48 1d 3e 5c f7 cf bd 01 d0 ca bc ca b6 9b 3e
       0.15359676 -0.10154602 -0.024757387 0.30412894
000060 f1 fc 47 3e 8f 6e 1e 3c 7c 27 52 bb 33 e7 52 be
       0.19530083 0.009669914 -0.0032066992 -0.20596008
000070 cb 36 fc 3d b0 90 a4 3e 22 34 12 3f af a0 d2 3e
       0.123151384 0.32141638 0.571108 0.41138217
000080 ff e9 27 be 40 8e 72 3c 87 57 34 3e 1a 08 8e bc
       -0.16397856 0.014804423 0.17611514 -0.017337848
000090 74 c6 49 3d ee aa 05 3f 78 be a1 3b 99 17 c5 bd
       0.049261525 0.52213943 0.0049360357 -0.096236415
0000a0 7b 3c 49 3e 8b 4a a4 3e 3b 57 a0 bd 74 00 ff 3d
       0.19651978 0.32088122 -0.07829138 0.12451258
0000b0 fb 5c 31 bd 03 6a 87 3d 93 6d 31 be 31 4b 42 be
       -0.043301564 0.06612017 -0.17326955 -0.18973996
0000c0 db 14 cf 3d c6 10 95 bd d5 df 68 bd f2 31 18 3e
       0.101114 -0.0727859 -0.056854088 0.14862803
0000d0 72 28 31 be b5 29 08 3e 6b a9 94 bd fe 7b a9 bd
       -0.17300585 0.1329716 -0.072588764 -0.08275603
0000e0 ff d6 7d be 99 1f f1 3e 74 39 b8 3d 51 35 09 3f
       -0.24789046 0.4709442 0.08995333 0.5359698
0000f0 f4 68 2d be 88 9b dd 3d 3b a2 c8 bd e7 06 08 3d
       -0.16934568 0.10820681 -0.09796568 0.033209708
000100 d1 66 9c 3d af 04 b2 3d 90 23 37 be 1f 95 a6 3d
       0.07636798 0.086922996 -0.1788466 0.08133911
000110 ff 4c 61 be 3d e5 31 3f 8b 75 8f bd 8f e2 3a 3e
       -0.22002028 0.69490415 -0.070048414 0.18250488
000120 ab d7 b4 3c 61 ce 11 3e 83 a5 d1 bc 79 96 70 be
       0.022075495 0.14238884 -0.025591617 -0.23494901
000130 97 35 90 bd b7 90 da 3c f9 57 00 3e 45 74 5f 3e
       -0.070414715 0.026680334 0.12533559 0.21821697
000140 e3 3d b8 3e 0c 3a e7 3d 90 9b 2f 3e b3 4a 9d be
       0.35984716 0.112903684 0.17149186 -0.30721053
000150 d4 09 c8 bd 56 0f bf bd 06 96 c4 bd 4b dc 5e 3c
       -0.097674996 -0.09329097 -0.09598927 0.013602327
000160 dc ea e1 bd 9a 74 79 3e df 97 3e 3c 3f d9 82 3d
       -0.11031124 0.24360886 0.011632889 0.06389093
000170 3c 1c 01 be 01 ec ca bc 6b 1a 91 bd 1c b0 35 be
       -0.12608427 -0.024770739 -0.07085117 -0.17742962
000180 ce 51 4a bd 23 f1 4f 3e 88 15 8c 3e a8 e0 35 3e
       -0.04939442 0.2030683 0.27360177 0.17761481
000190 11 d5 06 3f 17 b1 b5 be 58 31 d1 3d 9c af e1 3c
       0.52668864 -0.3548667 0.1021449 0.027549557
0001a0 b3 d6 93 be e6 1d 36 be df 5c 8b bd c0 c2 a4 bd
       -0.2887474 -0.17784843 -0.06804823 -0.08044958
0001b0 2a 56 c4 bd 3a 56 99 3e 7f d2 0d bd b0 1f 8a bc
       -0.09586747 0.29948598 -0.034624573 -0.016860813
0001c0 3e 8a 85 be 04 39 ba 3d 0a b3 7d 3d 1e c6 1d 3e
       -0.26082033 0.09092906 0.061938323 0.15407607
0001d0 c1 cf 34 3e 1e 7f d3 3c fc 55 49 3c 06 f1 87 3d
       0.17657377 0.02581745 0.012288567 0.066377684
0001e0 f6 31 2f 3e eb 92 9e 3d c1 89 f9 3e 15 44 15 3e
       0.17108902 0.07742866 0.4873791 0.14576752
0001f0 dd bb 77 3e 11 b6 ad bd f7 aa 4f 3e 8f 74 22 3d
       0.24192758 -0.08481992 0.20280062 0.03966194
000200 f6 f5 4d 3e 9d 6b 8d 3e 5e bd c7 3e 88 45 00 bd
       0.20113358 0.27621165 0.39011663 -0.03131631
000210 23 14 c0 3e a9 1e 3a be 3f 8b 49 3e 0a 52 01 3e
       0.37515363 -0.18175758 0.19682024 0.12628952
000220 0b 36 0a be 13 cc e8 3c 2e bb c9 bd a3 80 b9 bd
       -0.13497178 0.028417623 -0.09850155 -0.09057739
000230 bc 31 6c 3e 34 1f bb bd 88 92 46 3e 3b 84 51 3c
       0.23065847 -0.09136811 0.19391835 0.012787874
000240 14 d3 e7 3b 22 14 2a 3e 31 b6 82 3e 98 43 46 3e
       0.007074723 0.16609243 0.25529626 0.19361722
000250 b2 7b f8 3e f9 97 a7 bd c8 3d 82 3d 97 92 c3 3e
       0.48531872 -0.08183283 0.0635944 0.38197777
000260 7a 20 82 3e 00 ff fe bb 2e 30 40 3d f8 dc 9d bd
       0.25415403 -0.007781863 0.046920948 -0.07708162
000270 ea 72 c9 3d ef e3 c9 bd 47 6a 26 3e e1 e1 2e 3e
       0.09836371 -0.09857928 0.16251479 0.17078353
000280 7f 30 3f be 2a 09 d1 bc 3b 88 33 3e 33 23 c6 bd
       -0.18670844 -0.025517065 0.17532437 -0.096746825
000290 53 7e 87 bd cd bc e5 bd cf f9 10 3e 77 fb 8d 3e
       -0.06615891 -0.112176515 0.14157794 0.27730915
0002a0 ef 0b 99 3e 06 d0 c9 3e 21 3b de 3e 35 07 a3 3d
       0.29891917 0.39416522 0.43404487 0.07960359
0002b0 44 93 c8 be b6 3e 48 3e 7b 51 4d bd fd ba 12 3d
       -0.39174855 0.19555172 -0.050126534 0.035822857
0002c0 87 f8 7c be 78 22 ca 3c be fa 72 be e9 ba c4 3e
       -0.2470418 0.02467464 -0.23728463 0.3842385
0002d0 bf 43 9a bd 64 34 0a be 49 1f 2d be f4 df 7d bc
       -0.07532453 -0.13496548 -0.16906466 -0.015495289
0002e0 3e 75 1b 3e 96 4a c0 bd 57 ad f5 bc d2 c5 b0 3d
       0.15181443 -0.09389226 -0.029989881 0.08631481
0002f0 ed 95 bb 3d de 44 a4 3e 8c 7a 3c 3e 07 80 fd 3d
       0.091594554 0.32083791 0.18406123 0.12377935
000300 2d 1f ea 3d 86 33 77 3d 39 81 a6 3e 67 b4 32 bc
       0.114317276 0.06035187 0.32520464 -0.010907269
000310 49 22 fa ba b9 2e 5b 3e 15 34 e0 3d 3b 55 92 3e
       -0.0019083704 0.21404542 0.10947434 0.2858065
000320 cf 74 22 3f f1 70 e8 3e a2 d2 8e 3d ca a0 b9 bc
       0.63459486 0.45398667 0.06973769 -0.022659678
000330 c8 95 14 3e 1e 6d 77 3d 4e 77 1c be cc 6c a3 bd
       0.14510262 0.060406797 -0.15279886 -0.07979736
000340 af 57 1f be 48 6e 56 bd 5e 74 09 3e d9 4f e7 3e
       -0.15560792 -0.052351266 0.13423297 0.45178106
000350 58 94 d6 3d d8 44 6c be a7 db 99 3a f0 70 b5 bd
       0.10477513 -0.23073137 0.0011738435 -0.08859432
000360 c4 f5 30 be cf 2b 29 3e cd 7b 15 3e 1b 3d 6d 3e
       -0.17281252 0.16520618 0.14598008 0.23167841
000370 88 55 dc 3d 9e 14 ac 3e a4 e5 57 bd 0e 01 1d bd
       0.10758501 0.3360948 -0.052709237 -0.038331084
000380 4a fe ff bd be c3 11 bc c5 4b 8f bc 4b ed 35 be
       -0.12499674 -0.008896766 -0.017492184 -0.17766301
000390 54 df 6b 3e 20 e8 ab bc 03 74 54 3c 80 69 b4 be
       0.23034412 -0.02098471 0.0129671125 -0.3523674
0003a0 a5 b2 80 be 52 ba dc bd 09 87 d1 3e bb 21 1c be
       -0.25136295 -0.10777725 0.40923336 -0.15247242
0003b0 4f 60 1d bd bc 1b 8d 3e c0 9a 6f be 86 9f 66 bd
       -0.038421925 0.27560222 -0.23398876 -0.056304477
0003c0 28 55 f0 3d e2 ab 25 3e d1 cb e6 3e 1c 26 df bd
       0.11734992 0.1617885 0.45077375 -0.10895941
0003d0 8d 68 fe bc 11 5c 17 3e c6 47 20 3e e5 8a f8 3c
       -0.031055713 0.14781214 0.1565238 0.030339668
0003e0 4d 38 bf 3d 56 d9 00 3e ed 98 63 3e 80 ea a4 3e
       0.093369104 0.12582907 0.22226305 0.3221016
0003f0 82 84 c6 3d d6 e9 93 bd ea cb 34 3e 38 ab 33 3e
       0.096932426 -0.07222335 0.17655912 0.17545784

bottle_neck3.bottle_neck.1.conv.weight f4 [32, 1, 3, 3]
000000 bd e7 c7 be c9 6c 85 be 29 00 3c bf ea ba 13 3c
       -0.3904399 -0.2605956 -0.73437744 0.009016732
000010 28 ec 3f 3d 22 5b 46 be 17 4b 54 3e 19 92 f2 bc
       0.046856076 -0.19370702 0.2073177 -0.02961068
000020 1e 80 55 bc f4 40 b7 3d 50 c0 8b 3e 88 2f 3c 3c
       -0.013031034 0.08947936 0.2729516 0.011485942
000030 e9 12 30 3e 20 ea 14 3f dd 76 53 3d 26 4a 67 3d
       0.17194714 0.58169746 0.05162703 0.056467198
000040 ae 12 b8 3e 53 02 b3 bd 77 3e f9 be 67 9e 8f be
       0.3595175 -0.08740678 -0.4868047 -0.2805054
000050 ef 20 0b be 27 e0 13 3d 5a 11 33 bc d5 ca 08 bd
       -0.13586782 0.03610244 -0.01092943 -0.03339656
000060 1e 9d 10 3e d5 e7 91 3e 0b 4f ea 3c 08 b2 81 3b
       0.14122435 0.28497186 0.028602144 0.0039579906
000070 59 9e 81 3d 04 88 90 be 02 3b 8d 3d 84 f5 3e 3e
       0.063290305 -0.28228772 0.068960205 0.18648344
000080 7a 0a 08 bd 27 86 71 3e ab 86 e4 3e 23 4d 5b 3e
       -0.033213116 0.23586331 0.44633994 0.21416144
000090 46 28 fb bc 51 6d 5e be 5a f9 48 3e bb d1 7c be
       -0.030658852 -0.21721388 0.1962637 -0.24689381
0000a0 82 1c 81 be 13 bc 02 be a6 72 81 3e 56 5e be 3c
       -0.25217062 -0.12767057 0.25282782 0.023238342
0000b0 5b 9f c7 3e 2d ab d5 be dc ba eb 3c 55 42 7c 3e
       0.38988766 -0.4173216 0.028775625 0.24634679
0000c0 fc d8 1a be 4a 2e 60 bd a5 61 4b bc 17 3c 7c be
       -0.15121835 -0.054731645 -0.012413417 -0.24632297
0000d0 6e a1 75 be 52 b4 83 3e da 27 a5 3e 9d 80 e5 3e
       -0.23987362 0.2572351 0.32256967 0.44824687
0000e0 70 11 c6 bc 27 db c8 bd d3 9b 8f bc 02 9f 6f be
       -0.024178237 -0.09807425 -0.017530357 -0.234005
0000f0 a0 28 e1 bc 21 71 97 bc ed 9e 8c be 16 24 31 3e
       -0.027485192 -0.018486561 -0.27465 0.17298922
000100 62 ee df bc e5 89 02 3f b2 6c 30 bc 3f 27 30 be
       -0.02733535 0.5099166 -0.0107681025 -0.17202471
000110 c7 6c c7 3e 4e e2 69 be 1f b4 4b be 20 15 1e 3e
       0.38950178 -0.22840235 -0.1989293 0.15437746
000120 f2 68 7c 3e 06 bc 1b bd 87 7d 0a 3e d8 e1 a1 3e
       0.24649408 -0.03802111 0.13524447 0.31617618
000130 73 28 8f 3d eb 1a ba 3c 02 39 0c 3f ad 14 ac 3d
       0.06990137 0.022717914 0.54774487 0.08402381
000140 2e 99 79 3e 3a d2 fc 3d e6 79 ce bd c6 4a 00 be
       0.2437484 0.12344785 -0.10081844 -0.12528524
000150 ee e3 55 be a0 c5 06 be e2 ce ac be b5 11 1d bd
       -0.2088773 -0.13161325 -0.3375159 -0.038346965
000160 91 a3 e1 be 65 ef b6 be 82 50 ab 3e bb 6d 7e 3e
       -0.44070104 -0.3572952 0.3345986 0.24846546
000170 e6 fa 9e 3a 3c f6 f2 3c 16 50 95 3e c8 b2 ab bd
       0.0012129217 0.02965843 0.29162663 -0.08383709
000180 a9 cc 4a be 19 af ab 3e 8c 16 f0 bd cc 75 76 3d
       -0.19804634 0.33532026 -0.117230505 0.060170934
000190 e5 fa f9 bd 53 20 b0 bd d8 5c b1 bd ef 27 14 be
       -0.122060575 -0.08599915 -0.08660287 -0.14468358
0001a0 81 a1 0c bd 72 ba 58 be 3e 6a 42 be 14 fd 66 bd
       -0.03433371 -0.21164873 -0.1898584 -0.056393698
0001b0 f4 53 e7 bd bf f7 07 3f b3 98 41 3e 0b cf 57 3d
       -0.1129531 0.53112406 0.18905906 0.052687686
0001c0 08 42 bc 3e c6 6c 27 be 46 9f 1e 3d 3b 99 78 3c
       0.36769128 -0.16350088 0.038726114 0.015173252
0001d0 4b 20 a4 be c0 33 a6 be d1 2c 61 3d 41 db e3 3e
       -0.32055888 -0.32461357 0.05497438 0.44503215
0001e0 97 2a 07 be 89 78 42 3a 47 3f d4 3e 18 80 b1 3d
       -0.1319984 0.0007418474 0.41454527 0.0866701
0001f0 1c 5a 9c 3b 41 b2 31 3e f6 b8 ea be d0 c3 ad be
       0.004771484 0.17353155 -0.4584424 -0.33938456
000200 ec 01 cf be 5b c2 2a be 68 76 d4 bd 06 cc 89 bd
       -0.40431154 -0.16675703 -0.10374147 -0.067283675
000210 4b 9b 10 be 66 bf e0 3d 97 c7 45 3d ad 95 e6 bd
       -0.1412174 0.10974006 0.048286047 -0.11259017
000220 ff 2e 13 bd a2 2b 98 ba ed 5b 9b be cc 2a 40 3e
       -0.03593349 -0.0011609683 -0.3034357 0.18766326
000230 c2 9a 67 3e 54 bf e2 bd 8f 0d f6 be be 0c ba bd
       0.22617629 -0.11071649 -0.4805722 -0.09084462
000240 82 92 92 3e fe a2 25 be 7a 66 be bc bf 24 1a 3f
       0.28627402 -0.16175458 -0.023242224 0.6021232
000250 69 3e 25 bd 05 f2 3b 3e 70 e1 88 3e 81 65 4e be
       -0.040342722 0.18354042 0.26734495 -0.20155908
000260 4b 60 41 bd 52 e0 0d 3e 9f 05 a6 bd 93 33 cc bd
       -0.047210973 0.13855103 -0.08106541 -0.099707745
000270 95 3d a8 be 10 67 c3 be 1c 63 0e bc 8f 05 9e bd
       -0.32859483 -0.38164568 -0.008690622 -0.07715904
000280 f0 25 15 bc ed 24 9c 3e 85 59 58 bd a7 87 47 be
       -0.009103283 0.30496922 -0.052819747 -0.19485341
000290 c7 5a 89 3e 48 4e 61 3d 62 5f cf bc c0 e3 96 3e
       0.2682707 0.055006295 -0.025314037 0.29470634
0002a0 67 0d aa 3e 2b 40 ee 3d 97 01 06 3f 11 9c 65 be
       0.3321335 0.11633333 0.52346176 -0.22422816
0002b0 a7 92 19 3e 9e 61 9d be 17 56 d7 bd a2 71 f6 bc
       0.1499735 -0.30738539 -0.10514467 -0.030083481
0002c0 e4 85 e9 bd b3 4f 4b be b5 c0 d2 be 3f 2a f8 be
       -0.11402491 -0.19854622 -0.4116265 -0.4846973
0002d0 63 8c 31 be 35 c7 89 be a1 7b 56 bd b8 45 45 be
       -0.1733871 -0.26909795 -0.052363995 -0.19264877
0002e0 12 39 56 bd 3f 6f 69 3d d8 c0 06 bf 1a 89 bb be
       -0.05230052 0.05699086 -0.52638006 -0.36628038
0002f0 1a df 1f bd 4a 2b 19 3c 4f 11 05 3f 9f 10 69 3d
       -0.039031126 0.0093487 0.51979536 0.056900617
000300 52 fb f0 bd f3 75 d3 3c 16 6d 82 bc 22 c8 43 3d
       -0.117666855 0.025813079 -0.015921157 0.047798283
000310 32 90 b3 3e 43 0a 36 3e 06 46 b0 3c 31 68 b8 3e
       0.3507095 0.17777352 0.021517765 0.36016992
000320 a8 32 a5 3e 50 96 66 be 0a fc cd bd 99 b5 6b 3e
       0.3226521 -0.22518277 -0.10057838 0.23018493
000330 16 ee dc be 8c 8e 59 bd 2c f8 a3 bc ee d4 b8 3e
       -0.43150395 -0.05311446 -0.020015799 0.36099952
000340 40 ea 98 3e d4 30 4c bd ca 7b 14 be f1 59 4c 3e
       0.2986622 -0.049851254 -0.14500347 0.19956185
000350 5e d5 a4 3d ea fd b0 bc b6 8f 90 3e 36 ad 6e 3d
       0.08048509 -0.02160545 0.28234643 0.058270656
000360 16 df 46 be ea 9a af bd 89 eb 65 3e 1a e0 3f bc
       -0.19421038 -0.085744694 0.22453131 -0.011711145
000370 28 d5 1a be ff 8f dc 3e 91 10 eb 3d 62 e0 19 3e
       -0.15120375 0.4307861 0.11477769 0.15027002
000380 00 18 ce 3e 14 74 e2 bd 74 2a 5e be 68 89 ac bd
       0.40252686 -0.110572964 -0.21695882 -0.08424646
000390 d1 cb 82 be a1 00 c2 3e 4a 85 e7 bd 34 9f a8 bd
       -0.25546125 0.37891105 -0.1130472 -0.082334906
0003a0 a3 e1 49 3e 08 f1 51 bd 6e f3 ab 3e ee 24 27 3e
       0.1971498 -0.051255256 0.3358416 0.16322681
0003b0 5b ca a2 3e e8 4d 44 be 74 de d7 3b f7 71 42 be
       0.3179501 -0.19170344 0.006587798 -0.18988787
0003c0 aa 44 88 be 8f aa c7 3c 1f df 8f be 31 69 9c bd
       -0.26614887 0.02437332 -0.28099915 -0.07637251
0003d0 90 11 00 be 24 56 8b be 6a 31 64 3d 80 61 a6 3e
       -0.125067 -0.27214158 0.055711187 0.32496262
0003e0 ee 62 b4 bd 36 42 ea 3e f1 b2 85 3e 68 68 02 be
       -0.08807932 0.4575364 0.26113084 -0.1273514
0003f0 91 24 b0 be a9 0c 1d be 1c 39 07 be 71 29 ba 3e
       -0.34402898 -0.1533686 -0.13205379 0.36359742

inception.conv2_1.0.conv.weight f4 [16, 64, 1, 1]
000000 3a 76 48 3e ab 35 39 be c7 da ae be 5f 5a 90 bd
       0.1957635 -0.18086879 -0.3415129 -0.07048487
000010 96 20 80 3d c5 b5 c2 3e 1d fe 8d 3c 9a 62 38 3e
       0.06256215 0.38029304 0.017333085 0.18006364
000020 f8 ea 96 3e 8c 1d ad bd 4c c5 ba bc 92 b3 2e be
       0.29476142 -0.08452901 -0.022799157 -0.17060688
000030 81 df 33 be 5e cf 99 3e 55 e1 d1 bc 78 aa be 3e
       -0.17565729 0.3004102 -0.025620142 0.37239432
000040 20 f0 69 3e 74 5c 67 3e 7c 28 6b bb f7 c8 2b 3e
       0.22845507 0.22593862 -0.0035882285 0.16775881
000050 0e 5c 8c 3c 07 f5 fb 3d 85 ce 1b be cc 42 51 be
       0.017133739 0.12302595 -0.152155 -0.20435637
000060 cd 62 82 3e 38 d8 ac be 50 5a 83 3d b9 1f 04 be
       0.25466004 -0.33758712 0.0641371 -0.12902726
000070 15 07 35 bc c2 81 94 3d f3 64 af bd 3f 1b 90 bd
       -0.011049052 0.07251312 -0.085641764 -0.07036447
000080 fc 00 ec 3c 23 4e 61 3b df 29 c4 3d 9b 9e c2 bb
       0.028809063 0.0034378849 0.09578299 -0.0059393174
000090 28 5f aa bd fb bb 31 be b4 89 97 3d 15 39 e5 3c
       -0.08318931 -0.17356865 0.07399312 0.02798132
0000a0 34 2e 9d be 56 b0 84 3d 32 43 aa be 7c d6 82 bd
       -0.30699313 0.06478946 -0.3325439 -0.06388566
0000b0 c4 a4 ad 3e a8 81 46 3e ce 1b b5 3d 21 31 94 bd
       0.3391477 0.19385397 0.08843194 -0.07235933
0000c0 78 8b e0 3d 05 b1 9b 3e 8d 3b 7c bd dc 45 14 be
       0.109641016 0.30408493 -0.06158023 -0.14479774
0000d0 60 e4 a7 3e 3c 65 08 be bf 5c 86 3d e2 95 35 bd
       0.32791424 -0.13319868 0.06560659 -0.044332393
0000e0 9d de 4d 3d e5 cd 8f be ae 15 dd 3d 7b eb b0 3b
       0.05026113 -0.28086773 0.10795151 0.005399165
0000f0 b1 62 d8 bd 28 03 6c 3e 4b 13 79 3b 43 8a 3b be
       -0.10565699 0.23048079 0.0038005884 -0.18314461
000100 00 57 cd 3d 4d e3 84 3e 44 57 9d be b7 a3 aa bd
       0.100263596 0.25954667 -0.3073064 -0.083320074
000110 37 ce 0d be e4 3a 82 3e 46 f2 55 3e a5 fb 77 3e
       -0.13848196 0.25435555 0.20893201 0.24217089
000120 81 34 59 3d a5 f8 4d 3e 1c 82 60 be 3f 94 27 be
       0.053028587 0.20114382 -0.21924633 -0.16365145
000130 4e 6b bc 3e c0 7f 2f bd 62 49 11 3e 52 65 a5 be
       0.36800617 -0.04284644 0.1418815 -0.32303864
000140 e3 f1 d2 3e 01 a4 38 be 45 39 82 bc 45 64 18 be
       0.4120017 -0.18031313 -0.015896449 -0.14882
000150 4b 55 ca 3d 18 0b 30 be 9f d3 16 3e 50 74 bc 3d
       0.098795496 -0.17191732 0.14729165 0.09201872
000160 e6 3c 73 3e b3 63 73 bd b7 42 66 3e 2f f2 8b 3e
       0.237537 -0.059421252 0.22486387 0.2733321
000170 2a ab 05 3e 3b fe 6f bc 12 a1 0e be a5 4b 0c be
       0.13053575 -0.014648016 -0.13928631 -0.13700731
000180 91 d6 0c be f9 7c 06 3e 1c d4 e4 3d df cb 25 be
       -0.13753726 0.13133611 0.11173269 -0.16191052
000190 a0 3a 49 3d f1 e5 75 3e 3f 87 80 be 6a 9b 89 bb
       0.049128175 0.24013497 -0.25103185 -0.004199435
0001a0 c5 17 5e 3e e9 01 5e be 04 46 ad 3e 8d 17 86 3e
       0.21688755 -0.21680416 0.3384248 0.26189843
0001b0 08 a3 15 be 9f bf 65 3e 93 d7 a3 3e 3c f0 f7 bd
       -0.14612973 0.22436379 0.32000408 -0.12106368
0001c0 13 3d 9e bd f8 e9 9b 3d 00 6a ec bb 64 c2 01 be
       -0.07726493 0.076129854 -0.0072147846 -0.1267181
0001d0 0f 26 bb 3d a9 72 50 3e 3f aa 87 3e 78 76 4e 3e
       0.091381185 0.2035624 0.26497075 0.2016238
0001e0 e4 15 2d bd 66 ad 02 3e e2 62 7e bb 16 c3 a8 bd
       -0.042257205 0.12761459 -0.0038816263 -0.08240335
0001f0 63 cc db be 35 06 09 3e cb 08 d8 bd ed 3b 7d be
       -0.42929372 0.13381274 -0.10548552 -0.24729891
000200 56 64 54 3e 27 d6 30 3e 74 d5 9f 3e 95 71 b9 3e
       0.207414 0.17269193 0.3121754 0.3621947
000210 7d b9 82 3d e4 5c 4a 3e d2 95 66 3e a9 13 0c 3d
       0.06383035 0.19761997 0.2251809 0.034198437
000220 0e 9b 84 3d 5b 22 ba bd 3b 5b 01 be 0d 19 25 3c
       0.06474887 -0.09088584 -0.12632458 0.010076773
000230 b3 3b c9 3d 29 4b 6b be a4 d7 bf 3d fa f6 be 3e
       0.0982584 -0.2297789 0.09367302 0.37297803
000240 aa fc af 3d 59 84 83 be 3b 14 92 3e b2 be 78 3d
       0.08593114 -0.2568691 0.2853106 0.060728736
000250 94 2d e0 bb d6 c9 58 be ca 59 29 bd 6a 59 5a 3d
       -0.006841371 -0.21170744 -0.041345395 0.05330793
000260 65 ce 05 3e 1e dd 44 3d 9f 89 bc 3e 2d ad 71 be
       0.13067015 0.048062436 0.36823747 -0.23601218
000270 93 9d e5 3c 01 05 0c 3e 96 67 28 3e 51 1f d9 3d
       0.028029239 0.13673784 0.16445765 0.10601676
000280 54 7f ed 3d 6e 0e a5 3d d0 23 c5 3d dc c0 e0 3d
       0.115965515 0.08059393 0.09625971 0.10974285
000290 5b f7 cc 3d 71 b4 75 3d 1b 84 c2 3a 36 1e 6b 3c
       0.10008117 0.059986535 0.0014840396 0.014350465
0002a0 bb 1d c2 3e 79 ab 31 bd 5b 6e 71 3d 6e 56 28 3e
       0.37913308 -0.04337642 0.058943134 0.1643922
0002b0 43 53 74 3c 4a 7d 20 3e 86 b3 83 be 6e 87 40 3e
       0.014912429 0.15672794 -0.25722903 0.18801662
0002c0 07 85 19 be a0 58 bd be 6e de 61 3c 6e 35 ac 3e
       -0.14992152 -0.36981678 0.0137859415 0.33634514
0002d0 37 b3 ce bc 9c b3 71 be 34 80 e4 3e 85 a9 01 3f
       -0.02523194 -0.23603672 0.4462906 0.5064929
0002e0 0c 08 17 3e 55 39 fe bd de eb b4 3d af 6b c9 bd
       0.14749163 -0.12413279 0.088340506 -0.09834992
0002f0 a3 4e 81 bd a9 eb 56 bd dd 1d 82 3e a1 99 9d 3d
       -0.06313827 -0.052470837 0.2541341 0.07695318
000300 c3 8b 1a 3d a3 14 30 3d d2 af 27 3d 58 2e b8 be
       0.037730943 0.04298843 0.04093916 -0.35972857
000310 7a 08 b4 bc ec a2 b1 bd d5 ff 26 be 36 66 1d be
       -0.021976698 -0.08673653 -0.1630853 -0.15371022
000320 d7 c9 39 3e 49 59 8c be e5 88 08 3e 0f 7e ea 3d
       0.18143402 -0.2741187 0.13333471 0.11449825
000330 4c fb e6 3d 1e 79 e9 3d ad e0 77 3d 22 5b b0 be
       0.112784 0.114000544 0.060517002 -0.3444453
000340 70 80 a5 3e 80 7e fc bd 02 a1 94 3d b0 bd 92 3c
       0.32324553 -0.123288155 0.07257272 0.017912716
000350 e9 a3 a3 bd 97 ae 7e bb 3b 57 d7 3d 28 d0 a1 bc
       -0.07990248 -0.0038861388 0.10514685 -0.019752577
000360 ce 14 17 3c 06 e5 ab bd 9f 0c 5c 3d 63 5d f8 3d
       0.009221269 -0.08393292 0.053722974 0.12127187
000370 25 e9 ca 3d ac 15 23 3e e9 8b 2b 3e 64 9c b1 be
       0.0990775 0.15926236 0.1675259 -0.3468963
000380 f3 b4 29 3e e0 b2 f9 bd 1d d1 6c 3e 76 0b 4a 3e
       0.16572933 -0.12192321 0.23126645 0.19730935
000390 60 24 a5 3e a7 b4 bc 3e 73 23 c8 3e a9 f3 65 3e
       0.32254314 0.36856577 0.39089546 0.2245623
0003a0 f7 0f b6 bd 63 75 3e be a4 39 9e be 2f 6c ab 3e
       -0.08889764 -0.18599467 -0.3090335 0.33480975
0003b0 9e 9d 21 bd c2 2a 20 3e 93 a7 88 3d a7 e7 fb bc
       -0.039456956 0.15641311 0.06672587 -0.030750109
0003c0 62 4c b9 3e 09 4d ac 3e d4 cc a4 3d d3 59 50 be
       0.36191088 0.33652523 0.0804688 -0.20346765
0003d0 20 86 96 3e 77 b4 e8 3e 29 18 e8 bd b7 58 07 be
       0.29399204 0.45450184 -0.11332733 -0.13217436
0003e0 5a 22 60 bd 91 3a 8d 3d 61 c2 b4 3d 24 6f 24 3e
       -0.05472026 0.06895936 0.08826137 0.16058022
0003f0 51 25 64 be f0 0c 3b be aa 1e f9 3d d1 0f 56 be
       -0.2227986 -0.18266654 0.12164052 -0.20904471

inception.conv3_1.0.conv.weight f4 [16, 64, 1, 1]
000000 7d 09 38 bd 81 e3 4a 3d 46 96 21 3e 89 34 35 bc
       -0.044930924 0.04953337 0.15779981 -0.011059889
000010 c2 7e af be e2 7e 8f 3e 44 5e a9 3d 44 60 a6 3d
       -0.34276396 0.2802649 0.08269933 0.0812383
000020 6c ca c2 3c 45 71 e5 bd a4 f2 82 3e bd ae 85 3d
       0.023778163 -0.11203245 0.25575745 0.06527469
000030 67 cd 17 3e fe 0a 1b be 89 93 99 3d 24 d7 d7 3d
       0.14824449 -0.15140912 0.07498843 0.10539082
000040 99 a8 1a 3d f3 4f d4 3c 16 65 fd bc d8 0b 8b 3d
       0.037758444 0.025917029 -0.03093199 0.067893684
000050 9f 9f ac be 28 ea 7c bd 05 3b a4 3e fe cf b5 3e
       -0.3371553 -0.061746746 0.32076278 0.35510248
000060 3f 94 1a 3e a2 84 e4 3d 5e a7 36 3e dc 50 58 bd
       0.15095614 0.1115811 0.17837283 -0.05281149
000070 e7 0e 4e be 7f aa 24 3d 7a cb 98 bd 5b 93 1e be
       -0.20122872 0.04020166 -0.07460685 -0.15485899
000080 f2 e6 bc 3e f4 fc 85 3e ca 97 d6 3d a6 8d 47 3e
       0.36894947 0.2616955 0.1047817 0.19487628
000090 be 4d 86 3e 1f 2f a0 3e 82 ae 3c 3e 09 7b 3c 3e
       0.26231188 0.3128595 0.18425944 0.18406309
0000a0 29 a6 8f 3c 1b 00 83 3c b1 14 82 3e 45 db 9d be
       0.017535286 0.015991261 0.2540641 -0.30831352
0000b0 d5 b3 99 3e b3 9d be 3d c7 82 38 be 1b 3b 9d 3e
       0.30020013 0.093074225 -0.18018638 0.30709156
0000c0 59 90 4d 3d 4d 76 01 3e ee f8 c7 3d 6d 69 54 be
       0.05018649 0.12642784 0.097642764 -0.20743342
0000d0 05 88 93 3c 63 5e 07 be 70 39 56 be 4d 7c 97 bd
       0.018009195 -0.132196 -0.20920348 -0.07396755
0000e0 50 82 96 be 88 49 a4 bb 34 e0 4c 3e c6 f3 04 be
       -0.29396296 -0.0050136484 0.20007402 -0.12983617
0000f0 ff 43 e6 bd e1 05 8f 3e 48 df 8d 3e 8b 1e bd bb
       -0.11243438 0.27934173 0.27709413 -0.0057714633
000100 63 ac ee 3d 1c f9 d3 3c 0b a9 27 be 2f fb d5 3d
       0.11653974 0.02587562 -0.16373079 0.104483
000110 43 51 01 3e 68 a6 bf 3d cd b0 20 be f1 a4 c0 be
       0.12628655 0.09357911 -0.15692444 -0.3762584
000120 aa de 92 bd 53 ee ff be cb b8 6f 3e 98 8d 0b 3d
       -0.07171376 -0.49986514 0.23410337 0.03407058
000130 ed 28 40 be ad 0a 54 3d 56 5f 5e bc 7a 4c 28 3d
       -0.18765612 0.051767994 -0.013572535 0.04108856
000140 94 e7 0f 3e d8 f7 d7 3d 2b e1 2f be e0 9b 49 bd
       0.14053184 0.10545319 -0.17175739 -0.04922092
000150 11 d1 c7 be b9 2a 9b 3e 00 7e 13 bd ec e4 05 3e
       -0.39026693 0.30306032 -0.036008835 0.13075608
000160 ff 2f 8a bd 4b 75 2e 3d d3 39 c2 3c 4d c7 1d 3e
       -0.06747436 0.042592328 0.023709213 0.15408058
000170 45 d4 b2 be 2c f5 45 bd 25 e4 cd 3d 1a a9 0f 3e
       -0.34927574 -0.048329517 0.10053281 0.14029351
000180 82 8a 8e 3e 71 95 43 be 2d 40 5c 3e bf 3e 67 3e
       0.27840048 -0.19099976 0.21508856 0.2258253
000190 43 7c cf 3e 9d c0 ad 3e 6b 70 66 bd ea 01 0a be
       0.40524492 0.33936015 -0.056259554 -0.13477293
0001a0 30 4b 7f 3d ea 0c 63 3d e7 ff 8d 3d 81 a7 1a 3c
       0.062327564 0.055432238 0.06933575 0.00943935
0001b0 d1 75 c3 bd 49 ec 84 3d 2d 4b c6 bd 45 80 2a 3e
       -0.09543956 0.0649038 -0.096823074 0.16650493
0001c0 69 55 07 3e e9 01 08 be 57 0a cf 3d 40 8c cf 3e
       0.13216175 -0.13281979 0.10109394 0.4053669
0001d0 6e 05 0b 3d 35 f9 57 3e 9d 94 58 3e 13 3c 8e 3e
       0.033940725 0.21091159 0.21150441 0.27780208
0001e0 85 ef a9 3e f2 08 5e 3e 14 da 1b 3e a0 57 97 3c
       0.3319055 0.216831 0.15219909 0.0184744
0001f0 06 9c 1e be 65 a6 08 3e fd 7c 2a be e2 cb 2f be
       -0.15489206 0.13344724 -0.16649242 -0.17167619
000200 7d ca 23 bd 08 58 e9 bc b2 af e6 3d 29 a7 a9 bd
       -0.03998803 -0.02848436 0.1126398 -0.082838364
000210 07 92 98 be 5b af 97 3e 02 d3 c8 3c 57 a8 c8 bd
       -0.2979891 0.29625973 0.024514679 -0.09797733
000220 ce 1c 0d be 6d 23 31 3c 48 94 30 3e b6 a7 bf 3e
       -0.1378052 0.010811669 0.17244065 0.3743264
000230 44 b6 c4 be 2f 70 7d 3c aa 32 31 3e e1 70 ee bd
       -0.38420308 0.015468641 0.17304483 -0.11642624
000240 2d ad 71 be 2b 19 24 3e 83 b8 b3 be 62 4b 6e be
       -0.23601218 0.16025226 -0.3510171 -0.23270944
000250 8a a4 6a 3c ea 93 f4 3d 33 76 b6 be 29 2c 95 be
       0.014321456 0.11942275 -0.35637054 -0.29135254
000260 48 ce 69 3d 0e 2b 0e bf 59 e1 22 3e 52 d2 50 bc
       0.05708149 -0.55534446 0.15906276 -0.012745457
000270 51 2e a0 3e f3 b3 98 bc c4 76 22 be 3f c0 f6 bd
       0.31285337 -0.018640494 -0.15865618 -0.12048387
000280 a6 eb c5 3c 32 d7 a2 3c 0f 88 51 be a1 3b 9d be
       0.024160217 0.019878004 -0.20462058 -0.30709556
000290 5f 15 ad bd b2 f6 20 bd c0 75 4e be a8 89 09 bd
       -0.08451342 -0.039297767 -0.20162106 -0.033578545
0002a0 57 b6 92 3e 5e 41 e5 3e 29 bf 0f 3e 79 27 2e 3e
       0.2865474 0.44776434 0.14037766 0.17007245
0002b0 41 b8 80 3d cb c5 37 3d 42 21 c3 3d 06 8b 2a 3e
       0.06285144 0.044866364 0.09527828 0.16654596
0002c0 6d 8f ed 3c c5 71 d2 bd 32 30 b3 3e 56 ab 42 be
       0.028999055 -0.10275606 0.34997708 -0.19010672
0002d0 b6 e5 69 bc a4 52 61 be 9f d1 49 3c c5 73 90 3c
       -0.014275959 -0.22004181 0.012318044 0.017633328
0002e0 d3 03 fb bd 4c 79 6d bd 89 66 63 bd d5 3d 26 3e
       -0.12256589 -0.057977006 -0.055517707 0.16234525
0002f0 a6 66 2b bd b4 ed 8d 3e 8e 58 b3 3d 4e f3 93 bc
       -0.04184594 0.27720416 0.08757125 -0.018060353
000300 3a e4 91 be 19 e1 d7 bd 6c cf 26 be 8c f2 9f bb
       -0.28494436 -0.10540981 -0.16290063 -0.0048812088
000310 43 f4 0c 3e 54 4e 85 be 39 72 c1 bc 24 46 06 3d
       0.13765053 -0.26036322 -0.023614036 0.032781735
000320 2c 0e ec 3d 53 96 59 bd f2 21 ae 3b 02 5a a9 3d
       0.115261406 -0.053121876 0.005314105 0.08269121
000330 a7 06 43 be c6 2b 0d 3e f4 53 6b be 63 1a fe 3e
       -0.19045506 0.1378623 -0.22981244 0.49629506
000340 ec c7 1b 3e 84 14 4a 3d 86 22 8b 3e f3 c7 03 3e
       0.15212983 0.04933597 0.27174777 0.12869243
000350 4e 0e 16 be 84 19 9a 3e e8 c6 6b 3e 64 c4 5f 3e
       -0.14653894 0.30097592 0.23025095 0.21852261
000360 c5 ca e6 bc 36 4b 4c bd 2b ca f0 bd af 72 30 3d
       -0.02817286 -0.049876414 -0.117573105 0.04307812
000370 a4 12 35 be b1 0b b2 bc 62 ee 93 bd ed f1 ca bd
       -0.17682892 -0.02173409 -0.07223202 -0.09909425
000380 19 2a 96 be ba ee fe be ab 72 b6 3d 10 00 c4 3d
       -0.29328993 -0.4979151 0.0890859 0.095703244
000390 36 1a f5 3d 94 0a aa 3d d5 4b dc bb fe 57 2a bd
       0.1196789 0.08302799 -0.006722907 -0.041587822
0003a0 e4 58 07 3c 1a 20 0d be 96 b1 b3 3d a8 c3 4f 3d
       0.008260939 -0.13781777 0.08774106 0.0507237
0003b0 3b 7e 01 be 6a 28 45 3e 46 7d dc bd 6f a3 8f 3e
       -0.1264581 0.19253698 -0.107660815 0.28054377
0003c0 80 c7 13 3e 13 84 45 be d5 a6 a4 3d b7 eb 08 be
       0.14431572 -0.19288664 0.08039633 -0.13371168
0003d0 8c 91 53 3e 53 e1 95 bc a8 04 b0 3e a6 57 9c 3e
       0.2066099 -0.01829592 0.34378552 0.3053562
0003e0 6c a8 62 3c 8c c0 4a be 62 f0 e8 3d bf 54 1a be
       0.0138341 -0.19800013 0.113739744 -0.1507139
0003f0 d8 0d aa bd 3f c2 96 3d 4b 39 a0 3c 9d 08 5b be
       -0.08303422 0.07361268 0.01955857 -0.21390004

inception.conv3_1.1.conv.weight f4 [64, 1, 3, 3]
000000 0a da 00 be 44 1c 26 be b9 e9 b6 be 47 dd a5 3d
       -0.12583175 -0.1622172 -0.3572519 0.08098846
000010 32 46 64 be 81 7a 03 bf 94 a8 68 3e a2 3d 35 3e
       -0.22292402 -0.513588 0.22720557 0.17699292
000020 ca 1e 08 bc f8 78 9a be 25 ec c3 be ed 1f d8 be
       -0.008308122 -0.30170417 -0.382661 -0.42211857
000030 ef 64 7b be 67 64 13 3e eb c8 32 3e 19 8d 41 be
       -0.24550222 0.14393769 0.17459457 -0.1890148
000040 61 9f 87 bc 8c ae bf ba 74 c3 a9 3d 52 f5 ad 3e
       -0.01655549 -0.0014624163 0.08289233 0.33976227
000050 dc 18 f4 bd f4 b9 c6 3e 2e 9f 8f 3e 82 5a d3 bd
       -0.11918804 0.38813746 0.28051132 -0.10319997
000060 cd 64 40 bd 55 0e 9d 3e d5 e7 38 be ee 90 02 3e
       -0.04697113 0.30674997 -0.18057187 0.12750599
000070 9f 5b 0c 3f c0 70 88 3e df 98 fb bd 97 83 25 3d
       0.548273 0.2664852 -0.12285017 0.040408697
000080 89 9b 0c 3e 21 33 56 bc 97 4e c1 be 9b 45 44 be
       0.13731207 -0.0130737135 -0.37755272 -0.19167177
000090 aa 16 9b bd bc 3d 43 be d3 0c 60 3c f0 4f 15 be
       -0.07572682 -0.19066519 0.0136749325 -0.14581275
0000a0 7f d9 0f bd 43 e0 b2 bd 19 17 95 3e 47 bb ad 3e
       -0.03511953 -0.08734181 0.29119185 0.33931944
0000b0 d0 60 a6 3e e4 99 88 be 31 18 e4 bd ac 82 39 3e
       0.32495737 -0.2667991 -0.11137427 0.18116254
0000c0 16 61 54 bd b8 de 83 bd e0 ea 91 bd 8f 47 a5 bd
       -0.0518504 -0.064389646 -0.07124877 -0.08070289
0000d0 68 af c5 3e 55 76 92 3e 83 8f e2 3d 70 94 bd bd
       0.38610387 0.28605905 0.11062529 -0.09256828
0000e0 8f d9 13 be 51 b5 6a 3a 1a bc c4 3d c3 8a 10 be
       -0.14438461 0.000895341 0.0960619 -0.14115433
0000f0 d6 23 f4 3e a1 9a 2a bd 5b 20 2a 3f 3c 20 e1 bc
       0.4768359 -0.041651372 0.6645562 -0.02748119
000100 07 68 ea bd 32 64 72 3e 5e ab 0f be cc 09 44 3d
       -0.11445623 0.23671034 -0.14030215 0.047860906
000110 6b 84 27 be 8e 7a d2 3e 2c 27 02 3e 33 94 f6 3e
       -0.16359107 0.41109127 0.12710255 0.48159942
000120 82 32 b7 3e 11 08 d7 3e 0e e6 2a be d5 a7 36 be
       0.35780722 0.41998342 -0.16689321 -0.1783746
000130 2d 9d 0d 3e 10 47 7e bc fc 8a a5 3d d2 08 f0 3d
       0.13829489 -0.015519872 0.0808315 0.11720432
000140 ea 85 c9 bd e7 e8 88 3e cd c7 cf bc d8 68 c2 3e
       -0.09839995 0.2674019 -0.025363827 0.37970614
000150 39 1b 2d 3e 4b 99 18 3e f1 0e e1 3d 99 2a 0b be
       0.16904916 0.14902227 0.10989178 -0.13590468
000160 01 ac 30 be 89 00 96 be 0d 12 8b 3e 4c 2f d3 3d
       -0.17253114 -0.29297283 0.2716221 0.103117555
000170 15 ae 57 3e 4c 12 b1 3e 85 4c 24 3e 3a 3c ff 3d
       0.21062501 0.34584272 0.16044815 0.12462659
000180 bd ae a6 3e 77 58 31 3d 9a 73 33 3e ec 21 59 3d
       0.3255519 0.043297257 0.17524567 0.053010866
000190 49 70 ba be 5b 0e b6 bd b5 2b 42 be fe b8 64 be
       -0.36413792 -0.08889457 -0.18961985 -0.22336194
0001a0 12 89 7c be 0d 01 91 be e2 de 45 be 5a 4f c4 be
       -0.24661663 -0.28321114 -0.19323304 -0.3834179
0001b0 a5 1d ea bc c4 a5 b4 bc b4 81 e0 3e 46 eb 12 be
       -0.028578589 -0.0220517 0.43848956 -0.14347562
0001c0 02 4f 66 be 8e 5c 49 bd 2d 27 d4 3d 66 b4 46 3d
       -0.22491077 -0.049160533 0.10359035 0.048511885
0001d0 e5 ad 86 be 61 2d 8a be 17 49 5a be 09 6d 9d be
       -0.26304546 -0.26987746 -0.21316944 -0.3074725
0001e0 ad 81 11 3e 88 14 83 be 69 d2 31 bd 48 8c 7f 3e
       0.14209624 -0.25601602 -0.043413553 0.24955857
0001f0 2b 91 42 3e 66 16 00 3e 19 68 d6 be d1 90 c4 bb
       0.1900069 0.12508544 -0.41876295 -0.005998709
000200 d4 79 4b bc d7 e5 85 be 81 28 2d be f7 57 c3 3d
       -0.012419183 -0.26151916 -0.16909982 0.09538262
000210 f7 db 37 3e ec f8 1c be cb 50 93 3e d4 fa c7 3e
       0.17955004 -0.15329331 0.28772578 0.39058554
000220 68 3c dc bd 02 9a 5e bc 06 aa e8 3e 47 f0 44 be
       -0.10753709 -0.013586523 0.45442218 -0.19232284
000230 9c 7d 01 3e 18 3b 71 3d 50 aa 9a bc 39 cf a0 3d
       0.12645572 0.058894247 -0.01888004 0.078520246
000240 2c 9c 9a 3d 1e ef c6 be 1f e0 62 be fd 8b 63 be
       0.07549319 -0.38854307 -0.22155808 -0.2222137
000250 e1 88 4b 3e 1f 5b ca 3d 7f 50 a7 3d 88 7d 76 3e
       0.19876434 0.09880661 0.0816965 0.24071324
000260 6b 76 af 3e d1 8f 2f be 68 de b4 be 12 5e 3e be
       0.34270033 -0.17144705 -0.35325933 -0.18590572
000270 0b 24 d2 3e 8a b6 d4 3d f6 6f 82 be 24 4d bb bd
       0.41043124 0.10386379 -0.25476044 -0.09145573
000280 11 ad a6 3e b8 ee 23 3d cf 9f a9 3e 09 b4 59 3e
       0.32553914 0.04002258 0.33129737 0.21260084
000290 0d 1d d1 be 93 6b a8 3e 19 72 e8 3d c9 3f 80 be
       -0.40842476 0.32894573 0.113498874 -0.25048664
0002a0 2b bb bc 3c 91 d5 fe bd bd 67 1b be c4 a0 01 3e
       0.023038467 -0.12443078 -0.15176292 0.12658983
0002b0 ac 43 10 3d 2b 80 91 3e 54 2b 49 bd cd cd 38 be
       0.035220787 0.28418097 -0.049113587 -0.18047257
0002c0 79 89 98 bd 94 0d 60 bd b3 71 18 3e 1c 75 17 3f
       -0.07448096 -0.05470045 0.14887123 0.5916307
0002d0 ff 12 34 be 4a f4 dc be bc c7 ba be 11 17 ef 3c
       -0.17585371 -0.43155128 -0.3648051 0.029185804
0002e0 c3 40 09 3e 80 9f be 3d ad b2 56 be b5 53 88 3d
       0.13403611 0.09307766 -0.20966597 0.06656591
0002f0 81 ea f0 bd 7b 1e c6 3e e1 a8 62 3e d1 f9 e1 3e
       -0.11763478 0.3869513 0.22134735 0.44135907
000300 67 85 6b bc f3 53 d5 3d e8 a7 a9 bc 78 d4 3f 3c
       -0.014375067 0.10416403 -0.020709947 0.011708371
000310 0c 8d 21 3e 55 1d fe 3d c8 0c 2d be fe bb 28 be
       0.15776461 0.124079384 -0.16899407 -0.16477963
000320 27 ba 8b 3c d2 73 d2 3e 13 fb 68 bd a1 8d a0 3e
       0.017056538 0.4110399 -0.056880068 0.31358054
000330 47 31 74 3e f0 0a 02 be 24 8e 92 3d 3b da 57 be
       0.23846923 -0.12699485 0.071560174 -0.21079342
000340 c2 02 2f ba df b7 48 3e 32 18 f2 be c0 c4 90 be
       -0.0006676131 0.19601391 -0.47284085 -0.28275108
000350 4c 53 f8 bd 78 b3 42 3e 83 32 b5 be 28 d9 0e 3e
       -0.121252626 0.19013774 -0.353901 0.13950026
000360 04 d8 0c be 61 2b b4 3e 79 a0 82 bd 0b 05 44 be
       -0.13754278 0.35189345 -0.06378264 -0.19142549
000370 08 ee 84 3e 80 a1 b1 3e 5e be 98 3c 65 07 86 3e
       0.25962853 0.34693527 0.018645462 0.26177517
000380 73 ec 0e 3e 0a 71 c7 bd 15 50 ff bd 74 ae 04 be
       0.13957386 -0.09738357 -0.12466446 -0.12957174
000390 c2 6d 96 bd 05 ed 60 be e3 42 22 3e 52 58 0a 3f
       -0.073451534 -0.21965416 0.15845828 0.54041016
0003a0 e4 d8 ea 3d 78 92 98 3a a8 b0 95 bd 28 86 ef bd
       0.1146715 0.0011640331 -0.07309085 -0.1169551
0003b0 be b4 38 3e 13 6a 80 be 1c 20 8f bd ba b5 f9 3d
       0.18037698 -0.25080928 -0.06988546 0.12192865
0003c0 b5 e0 21 bf be 90 9d be d6 66 a4 be 58 e0 e0 be
       -0.632335 -0.30774492 -0.32109708 -0.4392116
0003d0 a3 a2 93 bd 81 7e ae 3e 5a 1a 12 be 89 ab 46 3d
       -0.07208755 0.3408089 -0.14267865 0.048503432
0003e0 dc 9d 5d 3e 9f bd 47 be 59 c5 0a be 8c 80 dc 3d
       0.2164225 -0.19505928 -0.13551845 0.10766706
0003f0 1c 22 c9 3c ad c6 d0 bd 5e b6 55 3c 81 4e dd be
       0.024552397 -0.101941444 0.013043968 -0.43223956
